DOMAIN_ADAPTION/experiments/feature=C:y_nut_GAMMA=0.0_GAMMA_reduction1.0_num_pool=2_[True, True, False, True, True, True]_20_07_2022__13_58_43/best_model/model_fc.pt (torch, 2207 bytes, 4 tensors)

fc2.weight f4 [3, 50]
-0.22007944 0.10610998 0.15590443 0.04841738 0.12618858 -0.1409989 0.1220353 0.031074688
-0.04574646 0.023702895 0.10605397 0.07051696 0.11409111 0.10816109 -0.16736563 -0.2594814
0.04978093 -0.0498996 0.07464411 -0.016650146 0.016296504 0.10495681 0.021384183 -0.60217625
-0.08705828 -0.02626928 0.0766542 0.08852291 -0.0825522 -0.08806347 0.13629621 0.15098724
-0.033154916 0.064609565 0.025577929 -0.13102852 -0.040472895 0.3928562 0.053589154 0.09804327
0.18503661 0.22419368 0.14322917 -0.09946005 0.058654997 0.19946454 0.23654203 0.067118
-0.092060156 0.16174755 0.14481401 -0.0831546 0.080253646 -0.062329978 0.098034345 -0.15863506
0.1052712 -0.106156945 -0.1201261 -0.045902163 0.10529065 0.055987276 0.088182494 -0.0014952425
0.049143344 0.17485906 0.022202924 -0.17781904 0.10028509 -0.012866259 -0.043797996 0.117973246
0.106403 0.025209758 -0.12033549 0.08789025 0.110784695 0.09207381 0.036182005 0.0844717
-0.05962852 0.0764794 -0.16236581 0.08906832 -0.0568003 -0.1305798 -0.120292425 0.052305166
0.039911307 0.061279822 -0.012606517 -0.10948363 0.13463812 -0.13208032 0.010384686 -0.10822533
-0.03412454 -0.030929316 -0.008478842 0.122640856 0.04344544 -0.015231326 -0.0974949 0.059991572
-0.048640914 -0.027322661 -0.20558922 0.04502802 -0.19798183 -0.07921175 -0.008281581 -0.16124675
-0.06236469 -0.06780424 0.13117744 0.15467249 -0.02171987 0.080277555 -0.011560925 -0.059565112
-0.19948559 0.094303496 -0.060745455 0.2626081 -0.11275677 0.1254214 0.020342804 -0.0016544779
-0.07265223 -0.07628691 0.055054832 -0.17814945 0.18432857 -0.10760253 0.021539412 -0.1123828
-0.13525255 -0.28106046 0.055899125 -0.1664349 -0.067709245 -0.23088521 0.029291755 0.09411436
-0.021613352 -0.31648666 -0.016610367 -0.035161603 0.12454111 -0.082333885
00000000: 815c 61be 3050 d93d 69a5 1f3e 4d51 463d
00000010: 9437 013e 0462 10be a5ed f93d 5890 fe3c
00000020: a460 3bbd 932c c23c d332 d93d 326b 903d
00000030: 9aa8 e93d 9083 dd3d e561 2bbe bfda 84be
00000040: 17e7 4b3d 8663 4cbd 03df 983d e365 88bc
00000050: 3f80 853c 99f3 d63d e22d af3c 3928 1abf
00000060: 9d4b b2bd ac32 d7bc e1fc 9c3d 804b b53d
00000070: 2111 a9bd 9f5a b4bd 3c91 0b3e 669c 1a3e
00000080: 73cd 07bd 0552 843d ce88 d13c 572c 06be
00000090: e8c6 25bd 7324 c93e 4d80 5b3d e9ca c83d
000000a0: 3d7a 3d3e 0793 653e abaa 123e b6b1 cbbd
000000b0: 3940 703d 6f40 4c3e 1338 723e 2975 893d
000000c0: 098a bcbd 26a1 253e 204a 143e f54c aabd
000000d0: 065c a43d b84d 7fbd 3bc6 c83d 3b71 22be
000000e0: 6d98 d73d d068 d9bd ac04 f6bd e803 3cbd
000000f0: a0a2 d73d ea52 653d 0699 b43d 03fc c3ba
00000100: 884a 493d 410e 333e e8e2 b53c 3216 36be
00000110: 4562 cd3d 00cd 52bc 8765 33bd f59b f13d
00000120: d1e9 d93d b284 ce3c 7472 f6bd ceff b33d
00000130: 16e3 e23d 3291 bc3d 9533 143d 80ff ac3d
00000140: 093d 74bd 3ba1 9c3d 3943 26be 7469 b63d
00000150: 6ea7 68bd b6b6 05be e05b f6bd f13d 563d
00000160: 0a7a 233d 8d00 7b3d 918b 4ebc f438 e0bd
00000170: 93de 093e 1040 07be 8824 2a3c 3ea5 ddbd
00000180: 2cc6 0bbd 7a5f fdbc d7ea 0abc 212b fb3d
00000190: d8f3 313d d08c 79bc 68ab c7bd b9b9 753d
000001a0: b23b 47bd c6d3 dfbc fb85 52be 4d6f 383d
000001b0: c0bb 4abe c539 a2bd 78af 07bc de1d 25be
000001c0: 1e72 7fbd f3dc 8abd 6153 063e 7762 1e3e
000001d0: deed b1bc 8f68 a43d 096a 3dbc 8cfa 73bd
000001e0: f345 4cbe 3122 c13d 3ad0 78bd 9274 863e
000001f0: 05ed e6bd 786e 003e f4a5 a63c 11db d8ba
00000200: b1ca 94bd 503c 9cbd 2d81 613d cf6c 36be
00000210: a1c0 3c3e b75e dcbd 6c73 b03c f428 e6bd
00000220: a57f 0abe 28e7 8fbe 7bf6 643d e96d 2abe
00000230: 25ab 8abd 2c6d 6cbe 43f5 ef3c 08bf c03d
00000240: 7c0e b1bc 8a0a a2be 7712 88bc 9d05 10bd
00000250: 690f ff3d ab9e a8bd

fc2.bias f4 [3]
0.5346861 0.9418123 -0.43478066
00000000: 30e1 083f 9c1a 713f 929b debe

fc3.weight f4 [2, 3]
0.27985442 -0.070597224 0.0876537 0.20185398 -0.24376145 0.15634908
00000000: 1449 8f3e 4795 90bd c883 b33d cfb2 4e3e
00000010: 9a9c 79be f919 203e

fc3.bias f4 [2]
0.94902956 -0.39568102
00000000: 9af3 723f b496 cabe
