DOMAIN_ADAPTION_2D/experiments/features=D:x_nut_GAMMA=0.05_[True, True, False, True, True, True]/best_model/model_fc.pt (torch, 2207 bytes, 4 tensors)

fc2.weight f4 [3, 50]
0	0x3d387482	0.045032986
1	0x3e101380	0.14069939
2	0xbdb498ca	-0.08818205
3	0xbdcb54d1	-0.09928287
4	0x3e129a97	0.14316784
5	0x3cfb9cc1	0.030714395
6	0xbdfe7ca6	-0.124261186
7	0x3db0dc1f	0.08635735
8	0x3d46ca4f	0.04853278
9	0x3df5e35d	0.12006257
10	0xbdcdc7a5	-0.10047845
11	0x3ded861c	0.11597845
12	0x3c8413b5	0.016122678
13	0xbded2aba	-0.11580415
14	0x3d409ca6	0.04702439
15	0x3c880ae5	0.016606757
16	0x3d9f3430	0.07773626
17	0x3cd53490	0.02602604
18	0xbdf7f29a	-0.121068195
19	0x3d922a1f	0.0713694
20	0x3d2e949a	0.042622186
21	0xbdfb3e2e	-0.12267719
22	0x3cf1579c	0.02946072
23	0x3dd7129e	0.10501598
24	0xbe09bf97	-0.13451992
25	0xbe17c48e	-0.14821073
26	0xbd3fd67e	-0.046835415
27	0xbd8d1c3e	-0.068901524
28	0x3da7450b	0.08167466
29	0x3c7c585d	0.015401927
30	0xbd137d8b	-0.0360084
31	0xbe037360	-0.12836981
32	0x3d0ccdfd	0.034376133
33	0xbd08e0f1	-0.033417646
34	0xbe0825c6	-0.1329566
35	0x3c329fe3	0.010902378
36	0xbdf93c72	-0.12169732
37	0xbd41ce94	-0.04731615
38	0xbdb06041	-0.08612109
39	0x3df58267	0.11987763
40	0xbd85ee6b	-0.06539615
41	0xbcf25f44	-0.029586442
42	0xbcd0ebf4	-0.025503136
43	0x3e0f7acd	0.14011689
44	0x3dafbb3d	0.08580635
45	0xbd9b0cea	-0.075708225
46	0x3dffb04f	0.124848
47	0xbdd51955	-0.10405222
48	0xbe01b586	-0.12666902
49	0xbe1127ec	-0.14175385
50	0xbd60075a	-0.05469451
51	0x3e0c399d	0.13693853
52	0x3d204f79	0.03913829
53	0xbdfe6654	-0.12421861
54	0x3df0e922	0.117632166
55	0x3d0c9ffe	0.034332268
56	0xbd3b842d	-0.04578035
57	0xbd9a47b2	-0.07533206
58	0xbe39e5db	-0.18154089
59	0xbd33d049	-0.043899808
60	0xbdd2c54c	-0.10291538
61	0xbe15f540	-0.14644337
62	0x3df371eb	0.118869625
63	0xbdc22f38	-0.094816625
64	0xbbef05b1	-0.0072943796
65	0xbd7254b6	-0.059162818
66	0x3e07c03b	0.13256924
67	0x3dd53521	0.10410524
68	0xbc934f3a	-0.017982114
69	0x3d3fc3bb	0.046817522
70	0x3dcb971b	0.099409305
71	0xbe199ad0	-0.15000463
72	0x3e335871	0.17514206
73	0xbe16bc60	-0.14720297
74	0xbd49cde2	-0.04926861
75	0x3dc0e641	0.094189174
76	0xbdc648d3	-0.09681859
77	0xbd957787	-0.07298189
78	0xbd00b006	-0.03141787
79	0xbe661a15	-0.22470887
80	0x3d0d6ab5	0.034525592
81	0xbe0bef7e	-0.13665578
82	0xbd741c30	-0.059597194
83	0xbc174d95	-0.009234806
84	0xbd9bc33f	-0.076055996
85	0x3dfb8a6d	0.12282262
86	0xbddd8f54	-0.10818353
87	0xbcf0ce07	-0.029395116
88	0xbe15123b	-0.14557736
89	0x3db20c78	0.086937845
90	0xbd2a8c62	-0.041637786
91	0xbdc5092b	-0.09620889
92	0xbcc68061	-0.024231138
93	0x3d0d06b3	0.034430217
94	0xbd9984ce	-0.074960336
95	0xbdfc7cb3	-0.12328472
96	0xbca51e98	-0.02015619
97	0xbdbaf4c4	-0.091287166
98	0xbc42433e	-0.011856852
99	0x3d00061e	0.031255834
100	0xbdaeeaad	-0.085408546
101	0xbcc44570	-0.023958892
102	0xbd759f31	-0.05996627
103	0xbd9e5feb	-0.07733139
104	0x3e1c67f1	0.15274025
105	0x3c365117	0.011127732
106	0xbe021d68	-0.1270653
107	0x3c9d2979	0.019184815
108	0xbd8232cd	-0.06357346
109	0x3e224481	0.15846445
110	0xbdc87eab	-0.09789785
111	0x3d5fb715	0.05461796
112	0xbce9cac1	-0.028539063
113	0xbe350aea	-0.17679945
114	0x3de27dc4	0.11059144
115	0x3d867c92	0.06566729
116	0x3e0dd35a	0.13850155
117	0xbd5500e1	-0.05200279
118	0x3ce88d1c	0.028387599
119	0x3e22952f	0.15877222
120	0xbd3ef0f8	-0.046616524
121	0xbdd87a72	-0.105702296
122	0x3dc9c753	0.09852471
123	0xbc976c74	-0.018484332
124	0xbd591d70	-0.05300659
125	0xbdf43a56	-0.11925189
126	0x3dd5025b	0.1040084
127	0xbcdfd787	-0.027324451
128	0xbdad0561	-0.084482916
129	0xbd6fb14e	-0.0585187
130	0x3d85932c	0.065222114
131	0xbdf54067	-0.119751744
132	0xbdbbb30c	-0.0916501
133	0x3de4537e	0.11148737
134	0xbddc648c	-0.10761365
135	0x3c824552	0.015902195
136	0xbe35cb18	-0.17753255
137	0x3d3c0c82	0.045910366
138	0xbd99d4bc	-0.07511279
139	0x3dd4af04	0.10384944
140	0xbc96d7cb	-0.018413445
141	0x3c8bc05b	0.017059496
142	0xbdd3f6c7	-0.103498034
143	0xbc618e07	-0.013766772
144	0x3d211a46	0.039331697
145	0x3bfb026f	0.007660202
146	0xbd203b2c	-0.03911893
147	0xbc9d46a8	-0.01919873
148	0xbc09391b	-0.008375431
149	0xbdb834e7	-0.08994465

fc2.bias f4 [3]
0	0xbd4db980	-0.050225735
1	0xbe1b81a0	-0.15186167
2	0x3cd74899	0.026279734

fc3.weight f4 [2, 3]
0	0x3ebd69d3	0.369948
1	0xbe38a2c5	-0.18030842
2	0x3e888f4d	0.2667183
3	0xbe604f42	-0.21905234
4	0xbee6e0aa	-0.4509328
5	0x3daff36e	0.085913524

fc3.bias f4 [2]
0	0xbdf0c073	-0.11755457
1	0xbef6e402	-0.4822083
