DOMAIN_ADAPTION/experiments/feature=D:I_ist_X_GAMMA=0.0_GAMMA_reduction1.0_num_pool=2_[True, True, False, True, True, True]_15_07_2022__12_17_40/best_model/model_cnn.pt (torch, 762095 bytes, 16 tensors)

conv1.weight f4 [64, 1, 100]
00000000: b9d3 0b3e bc13 0e3e ba63 c13d eacb c53d
00000010: feb4 943d 2688 31bd 0627 c5bc d865 56bc
00000020: 3f18 e33b 4695 b3bc 1e67 afbd 2f7e b4bd
00000030: c095 95bd 2a3e d53c b060 9fbc 776e 3abe
00000040: f1e9 24be 126a 77bd 1532 0bbe 2a07 16be
00000050: f409 4dbe 3dc3 07be 8f03 b6bd b7c4 34bd
00000060: ece4 25be 7ce6 28be 30ce dfbd 94b7 f0bd
00000070: 6205 03be 71f0 6ebe a88f 76bd 349f 10be
00000080: 0521 0abe f11a 1bbe d89e 65be 25c0 1fbe
00000090: 89c2 62be a54b c1bd 0b57 3cbe dc58 63be
000000a0: d9f9 41be 1a31 bfbd bc69 3cbe 728d 58be
000000b0: 9e5d 40be 7d4b 68bd 3ecd b9bd a8d9 ddbd
000000c0: 8cff 25be d372 3dbe ad25 e7bd d423 81bd
000000d0: 368a 4abe 3430 39bd 3ecc 56be 6b3c 57be
000000e0: 82f6 50be e47f 8fbd e255 d4bd cb0d a0bd
000000f0: f210 2cbe 31c1 16be 8998 68bd 4406 bfbc
00000100: c17b 3bbe e682 b2bd 29bd b9bd 89c8 e8bd
00000110: d7af 7ebd 59bd 2dbe 03f5 5dbd 871d 01be
00000120: 50b0 aebc 1a4e ddbd 1e6e fcbc 4cab 1fbe
00000130: af86 36be e2e9 c23b 8e2a 02be 11a0 ddbd
00000140: 8716 1dbd 70c1 4fbc 0fa0 b2bd f4d4 3abe
00000150: ec92 21be c372 54bd c2f5 90bd 607a 3ebd
00000160: e161 17be 43c4 3cbe bf02 d4bd d488 8cbd
00000170: 3933 aebc 5b26 13be 3cac 0cbe 1b20 9839
00000180: 8bb9 24bb 8c48 423c 47b0 02bb 163c 1ebd
00000190: a047 d2bd 608b 33be a6fa 0abe 71d0 4bbe
000001a0: 2ce4 13bd 27fb 25bd 51de 59bd daef eebd
000001b0: c84a 3bbe 8354 3dbc dc0b 9abd c7f8 9bbd
000001c0: 3652 f9bd c2cd 2dbe bc52 b2bd 463e ecbd
000001d0: 073a b5bb 89af 71bd fa0e 7bbd 82df aabc
000001e0: 7b7b 16be eebd cebc 8b40 bebd ceec 3ebe
000001f0: 9627 01bd abad 26be f9ef edbc 029c 60bc
00000200: 6cba c7bd d21b fbbd 3a8c 96bd dd71 64bc
00000210: c8a4 11bd efeb 27bc ef52 b2bd d0a5 23be
00000220: 5d71 15bd 8fdf 98bd 40e4 6cbd acdf 4d3c
00000230: c737 d5bd f610 1b3c 0eed 0bbe 4057 11be
00000240: 7231 15bc ef10 b93a 52ba dbbd 8166 4ebd
00000250: 5fb2 6abd d8bb 0dbd ce26 a9bd 031e 29be
00000260: d087 05bd 7338 28be 5a01 07be 586a 0fbe
00000270: f3cf 8fbc f354 52bc 1abe e7bd efb7 143d
00000280: 6663 ffbd f1e0 933c c7f2 37bc dc42 9cbd
00000290: de1f eb3c 0538 cd3c f046 153d 4b91 01be
000002a0: 6be4 acbd fc4f eebd 17f8 ff3c a57c dbbc
000002b0: 7363 cbbd f953 80bd 5123 d53c e404 563d
000002c0: 2027 1bbd ace0 02be ecce afbd 6cc1 d03c
000002d0: 0ed5 01bd 3710 8f3c 37ca 0a3d adde a5bd
000002e0: ebb1 5a3c c048 66bd 8fa2 b2bd 903a e7bd
000002f0: e3b8 dabc f621 c5bc 1213 733c 8593 393d
00000300: 7292 06be eaf8 8dbd 3a57 a4bd e0d5 1a3b
00000310: f52f 22b9 b5d3 283d 2553 823c 066e 413c
00000320: 035d cebd 555f bbbd b439 dcbd fb64 99bd
00000330: 818c 97bd 46bd 363d 60e3 92bd 9639 863d
00000340: 2dff 793d 9d3e 153d 58c6 003d 856a 323d
00000350: 5c7a 44bc 893d bcbd cf1d 4d3d 102f 433d
00000360: c3cf 393d 403c babd ff69 14bd c8dd 173d
00000370: 2089 01bd 3f91 18bd 9c3c afbd 77b0 9e3c
00000380: 4635 663c 7341 57bd cf00 343d bb5b afbd
00000390: 1796 b63c 8b77 6bbd c3d9 c2bd f3da 27bd
000003a0: 876b 15be 6e52 ae3c 68ea a6bd e7c3 e2bd
000003b0: a560 43bd 6c7b 9b39 fb0c 8f3c f4b3 9e3b
000003c0: 43ca a6bd 2a04 2cbd 7c17 d63c 433d 59bc
000003d0: 8e8e 043d c6c8 4cbd c365 26be f2ea 0fbd
000003e0: 0603 b7bd db7e 4bbd 2704 e3bc 59d5 27bc
000003f0: 62bd eebd 237d 14be 5d58 b33c cc6b 38bd
0.13654985 0.13874716 0.094428495 0.09658034 0.07261084 -0.043342732 -0.02406646 -0.013085805
0.0069303806 -0.021921765 -0.0856459 -0.0881313 -0.07303953 0.026030619 -0.019455284 -0.18206201
-0.16104867 -0.06040389 -0.13593324 -0.1465117 -0.20023328 -0.13258071 -0.088873975 -0.044132914
-0.16200608 -0.16494173 -0.10927999 -0.11753765 -0.12795022 -0.23333909 -0.060195595 -0.14123231
-0.13489158 -0.15146996 -0.22423875 -0.15600641 -0.22144522 -0.09438256 -0.1839258 -0.22201866
-0.18942966 -0.09335537 -0.1839971 -0.21147707 -0.18785712 -0.056712616 -0.0907235 -0.1083253
-0.16210765 -0.18500833 -0.11286483 -0.06305662 -0.19779286 -0.045211986 -0.2097635 -0.21019141
-0.20406535 -0.07006815 -0.10367943 -0.07815131 -0.16803339 -0.14722134 -0.056786094 -0.023318417
-0.18308927 -0.08716373 -0.090692826 -0.11366374 -0.062179413 -0.16966762 -0.05418874 -0.1260892
-0.021324307 -0.10805912 -0.030814227 -0.15592688 -0.17824815 0.005948291 -0.12711546 -0.10821546
-0.038351562 -0.012680396 -0.08721935 -0.18245298 -0.15778702 -0.051867258 -0.070781246 -0.046503425
-0.14783432 -0.18434243 -0.10352086 -0.068620354 -0.02126466 -0.143701 -0.13737577 0.0002901562
-0.0025135006 0.011858117 -0.0019941495 -0.03863152 -0.10267568 -0.17533636 -0.13572177 -0.19903733
-0.036106274 -0.04052272 -0.053190533 -0.11666842 -0.18290246 -0.011555794 -0.07521793 -0.0761581
-0.121738836 -0.16973022 -0.087071866 -0.11535315 -0.005530599 -0.059005294 -0.06129358 -0.02085853
-0.14695542 -0.02523705 -0.09289654 -0.18645021 -0.031531893 -0.16277187 -0.029045092 -0.01370907
-0.09752354 -0.12261166 -0.07350965 -0.013943163 -0.03555754 -0.010249122 -0.087072246 -0.15981221
-0.036485065 -0.074645154 -0.057834864 0.012565535 -0.10411029 0.009464493 -0.13664648 -0.1419344
-0.009106027 0.0014119426 -0.10728897 -0.050390724 -0.057299014 -0.03460297 -0.082593545 -0.16515355
-0.032600224 -0.16427784 -0.1318411 -0.1400541 -0.017555213 -0.012837636 -0.11315556 0.036308225
-0.124701306 0.018051596 -0.011227316 -0.0762994 0.028701719 0.025051126 0.036444604 -0.12653081
-0.08442005 -0.116363496 0.031246228 -0.026792834 -0.09931078 -0.062660165 0.026017817 0.052250758
-0.03787911 -0.12781018 -0.08584389 0.025482856 -0.031697325 0.017463787 0.033884253 -0.08099113
0.013348083 -0.056221724 -0.08722412 -0.11290467 -0.026699489 -0.024064045 0.01483609 0.0453067
-0.13141802 -0.06932242 -0.0802445 0.0023626015 -0.0001546739 0.041217525 0.015908787 0.011806017
-0.10076334 -0.091490425 -0.107531935 -0.074899636 -0.07399846 0.0446141 -0.071722746 0.065539524
0.06103437 0.036436666 0.031439155 0.043558616 -0.011992063 -0.091914244 0.050077256 0.047652304
0.045364153 -0.09093523 -0.0362339 0.03707674 -0.031624913 -0.037247892 -0.08556482 0.019371254
0.014050787 -0.05255265 0.043946084 -0.08562418 0.022288365 -0.057487052 -0.09514191 -0.04098029
-0.145918 0.02127954 -0.08150178 -0.11072522 -0.04769959 0.0002965586 0.017462244 0.0048432294
-0.08144047 -0.04199616 0.026134245 -0.013259235 0.032362513 -0.04999616 -0.16249757 -0.03513617
-0.089361235 -0.049681526 -0.02771194 -0.010243737 -0.11657216 -0.14500861 0.02189272 -0.045024678

conv1.bias f4 [64]
00000000: 1383 813f 7ac4 423c 75a5 b0bc b07f babe
00000010: 910c bb3d bf31 4f3f 0f38 9a3d 3f26 a23e
00000020: 6cc9 4bbd 4c13 b6bd 4060 30bd e7d2 893e
00000030: 32bf 34be 38f1 f3be 9a89 07be 3678 3fbc
00000040: 9243 3dbe e2cf 42be fb52 cc3d 91c9 9c3d
00000050: 3780 6fbc 2a77 87bc 144a 323d 7a26 4a3f
00000060: 6c8a f0bd a8de 87bf 45c4 ce3d 0e2a cd3b
00000070: 4782 6ebe 544c 0abd 491c ca3d c801 98bd
00000080: 62df 00be c444 08bd 3085 343d 8870 b7bd
00000090: 2c28 15be 91db 173c 1fbd f4bd 61ce eebd
000000a0: 1c0a 44bd 4486 213c 92b5 6a3d 8e90 16be
000000b0: 181d 0ebd 89d2 04be c1fe 58bb 0f6d d2bd
000000c0: 3b4b 0fbe b2f9 7abe 2b2b 793d b52e 06be
000000d0: 7276 acbd 6dc7 303d 130a 62be c5ed 4b3b
000000e0: c58a 0ebe 1b42 cb3c 721c 143e 6e95 dd3b
000000f0: ec67 cfbd f6b7 51bd 9b85 0cbd d69d 17be
1.0118126 0.011887664 -0.021563271 -0.36425543 0.09133256 0.8093528 0.075302236 0.31669804
-0.049752638 -0.08890399 -0.04306054 0.26918718 -0.1765106 -0.47644973 -0.13236085 -0.011686375
-0.18482807 -0.19024613 0.09976765 0.07655633 -0.014617971 -0.016536314 0.043527678 0.7896496
-0.11745152 -1.0614824 0.10096029 0.006261117 -0.23291884 -0.0337642 0.09868676 -0.07422215
-0.12585214 -0.033268705 0.04407233 -0.089570105 -0.14566106 0.009268657 -0.119501345 -0.116604574
-0.047861204 0.009858672 0.057302065 -0.1470358 -0.034695715 -0.12970938 -0.003311083 -0.102747075
-0.13993542 -0.24509314 0.060832184 -0.13103755 -0.08421029 0.043158937 -0.22074156 0.0031117063
-0.13920124 0.024811795 0.14463976 0.006762198 -0.101272434 -0.05120083 -0.034307104 -0.14806303

conv2.weight f4 [32, 64, 10]
00000000: 0f14 86bd 6626 e3bc 4bed 8ebc 3254 99bd
00000010: 0ee0 09bd b5c5 92bd d27a 88bd c261 cbbd
00000020: 0853 98bd d1a0 8ebd cf10 13bd 19a1 c03b
00000030: aaea d6bb f5d3 97bc f329 d9bc 4ef7 22bd
00000040: 0803 56bd 6e78 9ebc ef74 d0bd 7e5c cabd
00000050: 3ae9 6a3d a9da 933d b9e4 933d e989 743d
00000060: aac2 013e c2ab 013e 080a 993d d714 7a3d
00000070: ab30 b33d b79b ff3d cbe5 983d b82c 453d
00000080: 0ff9 863d ac70 c73d 0454 bd3d b617 203d
00000090: d14b b03c 1573 873c da70 563c 7048 103d
000000a0: 3296 46bc 9f22 9cbc 2fd7 1f3b 928c 26bd
000000b0: 1671 f23c ece2 d4bc 5ea4 8ebc 360d 5cbd
000000c0: 861d 3ebd e2a8 4f3b 53fc fc3e 4863 f83e
000000d0: 7408 f73e 8d7e ef3e f6e8 013f b45e fb3e
000000e0: b841 e33e e9b2 df3e b24f d23e 2ba5 993e
000000f0: 0791 a03d 950d d33d 1522 083e b115 fc3d
00000100: 3e87 d53d b00f 0b3e f64c 733d 1197 753d
00000110: 0ca5 74bc 413d f7bc dc46 f83e 07ef df3e
00000120: 9d81 a93e 24c8 913e 4d24 813e 6af2 8c3e
00000130: 7a84 933e 206a 643e 8e28 583e 6cf8 643e
00000140: bf7a c63c f689 e4bc fbb2 5abd 98ea ebbc
00000150: f057 95bd 6e60 a7bd ccaa abbd adb2 c4bd
00000160: fa76 c4bd 91c5 e4bc 8fa4 17bb 13b1 11bd
00000170: b672 01bd 3f95 8cbb 653b 9fbd 1732 a9bd
00000180: 5b47 f43c bd5f 913d 2aaf 25bd c9d2 cebb
00000190: aca9 293d 28db 5d3d d3b1 d03c c2ff d93c
000001a0: 8fed 683c 6b28 3e3c 1e45 943c 0b38 353d
000001b0: 1ddc f73c 2c51 f53b 29a6 543d 5c0e 903c
000001c0: 8133 45bc cc55 3abd 4550 2dbd 3299 27bd
000001d0: 15c3 bcbd 1063 c6bd 1cba c9bd daff a0bd
000001e0: 906d c63c 9316 0e3c 3a98 f0bb f7c1 583d
000001f0: 3885 b53c b46d a3bc 9125 abbb 3603 e63b
00000200: fc07 27bc eeca c2bb 1749 7d3e 991b 5b3e
00000210: b1ef 723e 0f4f 823e a7de 753e 7f12 2d3e
00000220: 032f 293e 3cf5 1a3e f158 1c3e ec9e dc3d
00000230: e13b 54bd b77f f8bc b80d 39bc 8c0e 4dbd
00000240: aeeb 4cbd 4110 92bd 8a0a 09bd 7cbf 69bd
00000250: b890 bfbc 2e38 b8bd b733 8fbd c909 603d
00000260: 4c0a 9e3c 1b5b 68bd 54fe 24bd b068 243d
00000270: d0b2 14bd 1425 0abd 8d0e 03bc d5f4 9fbd
00000280: fac8 e93b 1b38 09bc 7ca3 a7bc 4717 34bc
00000290: 1302 37bd df40 1abd 6f61 00bd b9ce 0bbc
000002a0: 7600 1cbd 3286 54bd d9dd 3fbd 1ad8 b5bd
000002b0: a0a6 42bd 206c 08bd 638b 99bd 10ae 68bd
000002c0: 0071 a4bd 1fe8 12bd 9aea 89bd f615 a1bc
000002d0: efe9 403d 47d6 713c a8a8 353c c3f0 a0bc
000002e0: ca8a f43b d359 59bd ea22 a3bc 0e44 10bc
000002f0: 81ab 7eba b572 63bd 3424 333d 3d47 2e3d
00000300: 562a c73d 40e2 053d a14e ba3d 2dd9 dd3c
00000310: 511c 0b3d 311e b63d 53c0 8b3d ca20 1a3d
00000320: bd1b 8dbd 9750 c9bd 10da 883d 9a87 54bd
00000330: f671 abbd 75b8 1fbd dff5 92bd ec57 f0bc
00000340: ca15 b8bd 4712 353d 7931 813d bbdc 323c
00000350: b448 9b3c 74e1 943c 9104 943d 7121 9a3d
00000360: 64c9 793d 0a7d 903d 5a7e 753d 5374 8e3d
00000370: 5624 04bd 698e aebd 8869 9ebd c2e6 f7bc
00000380: 008f a1bd 2e0b b1bd 3d39 aebc 0026 ebbc
00000390: 7fb4 2fbd 15df 5dbd 8aec b5bf 5da5 babf
000003a0: 9564 b6bf bfcc b4bf 7d73 b6bf a81a b9bf
000003b0: 1126 b3bf 5450 aebf f9b3 aebf 68ba a1bf
000003c0: f7a8 70bd a93c bb3c c7dd c03d 453b b73d
000003d0: 7ceb 983d c8ee 8b3d 5493 063d 214a ecbc
000003e0: 7c65 e0bc ab1a 1cbd 5e8f 243f 4f8a 273f
000003f0: 64cf 1b3f 2fd9 143f 6891 1c3f bb10 0c3f
-0.065467946 -0.02772827 -0.017447134 -0.07486762 -0.03366094 -0.07166616 -0.06664051 -0.09930755
-0.07437712 -0.06964267 -0.0359047 0.0058785793 -0.006558736 -0.018533686 -0.02650926 -0.03978663
-0.052248985 -0.019344535 -0.10178553 -0.09880923 0.05735133 0.072194405 0.0722136 0.059701834
0.12671915 0.12663177 0.074726164 0.06105503 0.08749517 0.12480872 0.074657045 0.04813835
0.06590473 0.09738287 0.0924454 0.039085113 0.021520527 0.016534368 0.013088429 0.03522533
-0.01212077 -0.019059477 0.0024389734 -0.040661402 0.02959494 -0.025987111 -0.01741236 -0.053723536
-0.046414874 0.0031686355 0.49411258 0.48513246 0.48248637 0.46776238 0.50746095 0.4909569
0.44386077 0.43691185 0.41076428 0.30008826 0.07840162 0.10305325 0.13294251 0.12308825
0.10426186 0.13580203 0.059399568 0.05995852 -0.014931928 -0.030180575 0.4849156 0.4373705
0.331067 0.28473008 0.25223008 0.27528697 0.2881201 0.22306108 0.2110922 0.2236039
0.024228452 -0.027897816 -0.053393345 -0.028798386 -0.07292163 -0.081726894 -0.08382186 -0.09604392
-0.095930055 -0.027926238 -0.0023138856 -0.03556926 -0.031603537 -0.0042902525 -0.077750005 -0.08261507
0.029819181 0.07098339 -0.040450253 -0.0063117486 0.041421577 0.05416408 0.025475418 0.026611213
0.014216795 0.011606316 0.018099364 0.0442429 0.030256325 0.007486483 0.051916275 0.017584972
-0.012036205 -0.04549198 -0.04231288 -0.040917583 -0.092168964 -0.096868634 -0.09849951 -0.078613
0.024222165 0.008672374 -0.0073423656 0.052919354 0.02215825 -0.019949771 -0.005222984 0.0070194257
-0.010194775 -0.0059446013 0.24734913 0.21397246 0.23724248 0.25450942 0.24010716 0.16901587
0.1652184 0.15132612 0.15268303 0.107724994 -0.051814917 -0.030334337 -0.011294775 -0.0500627
-0.05002945 -0.071320064 -0.033457316 -0.05706738 -0.023384437 -0.089950904 -0.06992286 0.05469683
0.01929202 -0.05672751 -0.04028161 0.0401389 -0.03630334 -0.033726767 -0.007999075 -0.0781037
0.007134554 -0.008375193 -0.020463698 -0.010991878 -0.044679713 -0.037659522 -0.03134292 -0.008533173
-0.038086377 -0.05188579 -0.04684243 -0.08879109 -0.047522187 -0.03330624 -0.07497289 -0.056806624
-0.080293655 -0.0358659 -0.067342 -0.019663792 0.047098096 0.01476056 0.011087574 -0.019646054
0.007462834 -0.05306418 -0.01991411 -0.008805288 -0.0009714887 -0.055529315 0.043735698 0.042548407
0.09724872 0.032686472 0.090970285 0.027081097 0.03396255 0.08892477 0.06823792 0.037628926
-0.06890056 -0.098298244 0.06682217 -0.051887132 -0.08371346 -0.03899427 -0.071758024 -0.0293388
-0.08988531 0.044206884 0.06308264 0.010916884 0.018955566 0.01817391 0.072274335 0.0752591
0.060983077 0.07055099 0.05993495 0.06955781 -0.032261215 -0.08523256 -0.07734972 -0.030261401
-0.07888603 -0.086447105 -0.021267528 -0.028704643 -0.042896744 -0.054167826 -1.4212811 -1.4581715
-1.4249445 -1.4124984 -1.4253994 -1.446126 -1.3995992 -1.3618264 -1.3648673 -1.2635012
-0.058754887 0.022856073 0.09417301 0.08946852 0.0746679 0.06832653 0.032855347 -0.028843941
-0.027392142 -0.03811137 0.6428126 0.6544542 0.6086333 0.58143896 0.6115937 0.5471303

conv2.bias f4 [32]
00000000: efcb a7bc 753b 123d 9e37 cabc 21b8 4fbb
00000010: c961 ccbb 4cdb 7d3c 3345 49bd d44c 42bc
00000020: e62c 0c3d b1ea 06bc 15fd cd3c dabd 5bbb
00000030: 12d9 f3bc 722c 81bc 1c3d 8e3a da3f de3b
00000040: b074 a23c c7c6 b4bb 61f8 94bc 25e9 bdbc
00000050: 0b03 07bd 174e b33c c6ed 803b eeb9 6bbc
00000060: 2cb6 b93c a484 9cbb d6aa 8fbc 996c 243d
00000070: f098 a7bc 0692 263d 531c ca3a 8653 bb3c
-0.020482985 0.035701234 -0.024684723 -0.0031695443 -0.006237243 0.015494179 -0.04913826 -0.011859138
0.034222506 -0.008234666 0.025145093 -0.0033529908 -0.029766593 -0.015768263 0.0010851952 0.006782514
0.019831032 -0.00551686 -0.018184843 -0.023182461 -0.032961886 0.021887822 0.003934595 -0.014387591
0.022669874 -0.004776554 -0.017537516 0.04014263 -0.020458668 0.040666603 0.0015419818 0.022866976

batch1.weight f4 [32]
00000000: fd88 593f 9ed5 3d3f 5e8d 9a3f 95f5 613f
00000010: 55cb 393f c594 8e3f 67b4 743f bef1 963f
00000020: a6dd 473f f161 4b3f 80ca 913f 2822 713f
00000030: 62e0 113f 5f2e 193f 68c6 493f 2c81 a03f
00000040: 15d6 893f 80bd 333f 1477 4e3f dbef 023f
00000050: a8e7 473f ec8e 5a3f d89b 743f 9ea4 403f
00000060: 7d3f 9e3f 3d11 393f ef06 5b3f a152 583f
00000070: 7368 903f 46e1 323f f4b1 d03e 95d2 a33f
0.8497465 0.7415408 1.2074392 0.88265353 0.72575885 1.1139151 0.9558777 1.1792524
0.78072584 0.7944632 1.1389923 0.94192743 0.56983006 0.5983638 0.7881837 1.253942
1.0768458 0.7021103 0.8065045 0.5114724 0.78087854 0.8537433 0.955503 0.75251186
1.2363125 0.7229193 0.85557455 0.8450108 1.1281875 0.6987499 0.40760767 1.279864

batch1.bias f4 [32]
00000000: 62e0 c1be 20fd 21bf 671d 31bf 896e a9be
00000010: ac14 71bf 008a 6ebf 50d9 733c ce67 1d3d
00000020: 61d3 15bf fea8 14bf 2226 02bf 29f2 5f3e
00000030: ef6c 9f3f a842 09bf 61c8 25bf 1e2e 1dbe
00000040: f333 14bf 84f6 babe e5ed bcbe 4f7c 94bf
00000050: efdb 53bf c785 f3be 4317 7ebf c6a9 64bf
00000060: f12c 0cbf 281f b8be f85b 7abe 4074 2cbf
00000070: cfaa 9dbd 644d f1be eb38 03bf f4e6 25be
-0.37866503 -0.63276863 -0.6918549 -0.33092144 -0.9417217 -0.9317932 0.014883354 0.038429074
-0.58525664 -0.5807036 -0.50839436 0.2186972 1.2455119 -0.53617334 -0.6475888 -0.15349624
-0.5789177 -0.36516201 -0.3690025 -1.1600436 -0.8275747 -0.47563002 -0.99254245 -0.89321554
-0.54756075 -0.3596127 -0.24449146 -0.67364883 -0.07698595 -0.47129357 -0.51258725 -0.16201383

batch1.running_mean f4 [32]
00000000: 39c9 e242 54ab 0e43 713b bc41 382a 2143
00000010: 0071 ecc2 b93f f2c2 f248 4c43 7499 4643
00000020: 68af 0443 5963 d942 ccbd e142 7ce0 49c2
00000030: 7f9f c642 6edb 66c1 18ec 1443 729a 6442
00000040: be48 7442 7b99 b142 a769 1443 b18f ad42
00000050: 8438 9342 ac16 ed42 ee68 0643 e288 ca42
00000060: 2c35 3ec2 a235 2043 4e97 90c1 5e23 0743
00000070: 5dca a1c2 75ee 0ac3 25e1 6ac2 7711 d741
113.39301 142.66925 23.529024 161.16492 -118.2207 -121.12446 204.28494 198.59943
132.68518 108.69404 112.8707 -50.469223 99.311516 -14.428572 148.92224 57.150826
61.071037 88.79977 148.4127 86.78065 73.61038 118.54428 134.40988 101.26735
-47.551926 160.2095 -18.07388 135.13815 -80.89524 -138.93147 -58.719868 26.883528

batch1.running_var f4 [32]
00000000: f774 1b46 5b5c 5246 b3ed d843 58d4 8d46
00000010: 8f47 1246 feee 1746 8041 da46 d50d cd46
00000020: 6a06 4c46 e7f9 f945 3df5 0f46 3c57 5045
00000030: 9f2c d745 7d45 8843 3fad 6046 8736 0045
00000040: 2c92 5a45 3b1c b545 56c1 5e46 c82c b045
00000050: 39f6 ba45 d235 4246 dfaf 5446 5c87 2146
00000060: be4b 1145 67ec 9746 21cd 2144 348c 4346
00000070: 89fb 9145 6be5 4d46 df33 1645 1899 3645
9949.241 13463.089 433.85703 18154.172 9361.89 9723.748 27936.75 26246.916
13057.604 7999.238 9213.31 3333.4521 6885.5776 272.54288 14379.312 2051.408
3497.1357 5795.529 14256.334 5637.5977 5982.778 12429.455 13611.968 10337.84
2324.734 19446.201 647.20514 12515.051 4671.442 13177.3545 2403.242 2921.5684

conv3.weight f4 [32, 32, 5]
00000000: 022e 1a3e da5f 903e bb36 2f3e b295 a93e
00000010: 020b 7c3e 6a35 193d 72a5 1a3e 0b74 03bd
00000020: 8da1 0fbe 635d 7abe 977e d03e 011b d63e
00000030: 8060 d73e f712 ca3e 3cf9 b03e 20d7 da3d
00000040: 7443 dc3d 502c 5cba f9a6 953d 29d6 f1bc
00000050: 694f 403e 273c 4e3e 9581 4c3e 6ff1 a83d
00000060: 0d38 093e 8897 e23e 7064 f63e c107 e03e
00000070: efbf 0c3f 950e d03e 7123 893e 4f5a 6d3e
00000080: 8778 3b3e f1db 5d3e 07f3 c83d 1b66 803e
00000090: 2ba0 803e 31b8 2d3e f245 363e 2669 e93d
000000a0: edc7 3b3e fa8d 853e 674b 2b3e adc6 f03d
000000b0: fa56 a13d 21e3 503e 2735 823e 7199 003e
000000c0: 079e babc 86c2 bbbd 3254 3d3e de7d b93e
000000d0: 9ca2 8d3e 00a5 c73e fd45 c13e ff0e 4a3d
000000e0: a0fd 903c dc70 b53d 97db d83c ba3e 853b
000000f0: 8245 743e 33a3 f63e bf2d eb3e b041 8b3e
00000100: efa6 133e 54c5 ab3e 6f3c 113e aaeb 2d3e
00000110: 8f00 0e3e 9d00 253e 1472 c73c 4ad6 2c3e
00000120: cbcb b93d 9312 dbbc 1d93 54bd 0bb1 5d3e
00000130: b687 023f 82c4 693e 1491 883e 04df b63e
00000140: 856a d43d ca0f 3b3e a324 803e 7dd7 863e
00000150: 4d70 733e 2126 933c 3f10 a33d bc8d ab3d
00000160: c47c cb3d efee fc3d 8f22 e03e 70d4 b33e
00000170: c432 943e 08f8 143e fa49 b03d 51ad 263e
00000180: a8dd 6c3e 3898 003e 8c3c 923c 8881 f4bd
00000190: d960 443e e94b 903e cd52 c43d 1fd6 1f3e
000001a0: 6d19 a83d 5f85 123d b94a a63d 8357 bcbc
000001b0: 13da a43c 59c6 b73c 55cf 8f3e 7aac a23e
000001c0: 8cd4 943e a1de 943e 9683 9b3e 939b 4f3e
000001d0: a25f 833e 8faf 293e a22a 3d3e 1ea6 5c3e
000001e0: 5462 3b3e 2e70 b83e 2ea7 a33e d9ea a43e
000001f0: 04ee b43e 1b42 7b3d 4c95 3e3d cdf4 babc
00000200: c42e d8bc 9716 b43c 31c9 533e 8255 703e
00000210: 2ad3 2e3e 213f ca3d b5d6 d13c b032 f53d
00000220: 120b 2f3e 3037 1b3e 7102 a63d 211a 29bd
00000230: debb 36bc c4a3 ea3d af9b 923d 7029 0d3e
00000240: 515f 17bc faa0 b63c a62c 223e 2306 713d
00000250: d47e 123e 9bbd 813b c10a d43d cc0e c23d
00000260: 7b5d c93d 429c dc3d 1140 223d 3196 023d
00000270: f427 da3e ecf4 b23e 0b45 823e 62f4 8b3e
00000280: fb12 6c3e a8b0 703e 1648 543e bfce c93d
00000290: 780c fc3c 6864 c73e 564d a93e 3cab 3f3e
000002a0: 1afb fb3c ac49 0fbe a747 b43a 4852 643e
000002b0: a0d8 c83e 27bd ec3e ac11 153f faa9 a43e
000002c0: 2843 a23e 95f3 8f3e f0d9 c53d e37a 88bd
000002d0: cd8d 163e 91c0 e23d 3258 073d d334 753d
000002e0: fe8c ea3c f3d9 933e fb7c cb3e 9e2b b73e
000002f0: 9d20 a33e 3203 6b3e 610b af3e df77 ae3e
00000300: a764 663e afc2 883d 346e 83bd 71bf a73e
00000310: 126d 973e 2ae5 203e 1092 923d 63be 42bb
00000320: 1949 e73c 9bb2 5a3d 185c df3d 3275 8a3c
00000330: 0c6d 88bd d49a 1b3e 4da9 343e 0736 323e
00000340: 3eb8 0cbd dcc0 50bd dd2c da3e d202 fb3e
00000350: 95c1 f73e 1e8b ba3e 3c68 953e c229 a43d
00000360: fb11 3f3e b67e 003e 7379 923d 6fdb 133e
00000370: 3e56 aa3e 7791 a13e 0037 ad3e 6c9c bd3e
00000380: 9062 eb3d e06b 9ebd ea2c 2abe 803c 86bd
00000390: 01c3 b4bd d8b0 b7bd 16f9 c13d 50bd 1a3d
000003a0: 2485 393c bff0 e0bd acee b7bd d1cb a23e
000003b0: b873 d43d 23af 593e a9ce 993e 884b 1c3f
000003c0: 04b1 123e cecd 073e 5a8e b03d 1691 5b3e
000003d0: 1513 943e 0082 c03d f041 4f3e 54d5 503d
000003e0: 5ce7 203e 216f 7a3d dcb2 2d3e b88f 203e
000003f0: 74ee f33d c9fc 823d 4a50 133b ded1 333e
0.15056613 0.2819813 0.17110722 0.3312202 0.24613574 0.037404455 0.15102175 -0.03209309
-0.1402647 -0.24449687 0.4072158 0.41817477 0.4206581 0.39467594 0.3456515 0.10685563
0.10755053 -0.0008398937 0.07307238 -0.029521065 0.18780293 0.20140134 0.19971307 0.08249175
0.13400288 0.44256234 0.48123503 0.43755916 0.5498037 0.40636125 0.26784852 0.23178981
0.18307696 0.21665932 0.09811979 0.250779 0.25122198 0.16964795 0.1780012 0.113970086
0.18337984 0.26084882 0.16727982 0.117566444 0.078779176 0.20399143 0.25431177 0.12558533
-0.022780431 -0.09167962 0.18489149 0.36228842 0.27663124 0.38993073 0.3774871 0.049330708
0.017699063 0.08859417 0.026471896 0.0040663155 0.2385464 0.48171386 0.4593334 0.27198553
0.14419149 0.33548987 0.1418321 0.1698443 0.138674 0.16113515 0.024346389 0.1687862
0.090720735 -0.026742255 -0.05189811 0.21649568 0.5098833 0.22828868 0.26673186 0.35717022
0.103718795 0.18267742 0.25027952 0.2633628 0.23773308 0.017962517 0.07962083 0.08376643
0.099359065 0.123502605 0.43776366 0.35123014 0.2894498 0.14547741 0.0860786 0.16277052
0.2313143 0.12558067 0.017851137 -0.119387686 0.1917757 0.28182915 0.095861055 0.15609024
0.082079746 0.035771724 0.08119721 -0.022990948 0.020123517 0.022433447 0.2808787 0.31772214
0.2906841 0.29076102 0.3037383 0.2027419 0.256589 0.16570877 0.18473294 0.21547744
0.18299228 0.36023086 0.31963485 0.32210425 0.35337842 0.06134234 0.0465291 -0.022821808
-0.026389487 0.021983428 0.20682217 0.23470119 0.1707274 0.09875322 0.025615076 0.119725585
0.17094067 0.15157771 0.081059344 -0.041284684 -0.011153189 0.11457017 0.071586005 0.13785338
-0.009239034 0.022293556 0.15837345 0.058843743 0.14306194 0.0039593703 0.10353614 0.094754785
0.09832283 0.10771991 0.03961188 0.031881515 0.42608607 0.34952486 0.254433 0.27334887
0.23054115 0.23504889 0.20730624 0.09853887 0.030767664 0.3894379 0.33066815 0.18717664
0.030759383 -0.13992947 0.0013754264 0.22297013 0.39227772 0.46238062 0.5823009 0.32160932
0.3169186 0.28115526 0.09660709 -0.06664064 0.1470253 0.110718854 0.033043094 0.05986483
0.028631683 0.2887722 0.3974379 0.35775465 0.3186082 0.22950438 0.3418837 0.3407583
0.22499333 0.06677758 -0.06417504 0.32763246 0.29575402 0.15712419 0.071567655 -0.002971553
0.028233098 0.053392988 0.10906237 0.016901586 -0.06661424 0.15195781 0.17642708 0.17403422
-0.034355395 -0.050965175 0.42612353 0.4902559 0.4838988 0.36434263 0.29181087 0.08015777
0.18659203 0.12548336 0.07152071 0.14439176 0.33268923 0.31556293 0.33831024 0.37033403
0.11493409 -0.07735419 -0.16618696 -0.06554508 -0.088262565 -0.08969277 0.094713375 0.0377782
0.011323247 -0.10983419 -0.0898107 0.31796125 0.10373634 0.21258216 0.30040482 0.6105275
0.14325339 0.13262102 0.086209014 0.21442065 0.28920808 0.093997955 0.20239997 0.050984696
0.15713257 0.061141137 0.1696276 0.15679824 0.11910716 0.06395871 0.0022478276 0.17560527

conv3.bias f4 [32]
00000000: 9819 723d e2bb 0e3d 48bf cbbc c529 973d
00000010: b323 133d 7a53 643d b498 873d 5805 3c3b
00000020: 7371 47bd fc25 8d3d 373b 043e 2349 713c
00000030: cbe4 413d 266e 0d3c b8c7 81bc df81 d8bc
00000040: 9cb1 b4bc 41af 54bd 59cf 70bc d370 38be
00000050: 8b4a 40bc 6894 643d d20c 93bd 5868 b93d
00000060: 684b de3d ff1d 413c 0206 4ebd c014 ac3c
00000070: d066 3dbd 70e2 c3bc 5c27 c7bc 2e28 743d
0.05910644 0.034847148 -0.024871483 0.07381014 0.035922717 0.055743672 0.06620923 0.0028689709
-0.048692178 0.068920106 0.12913214 0.01472691 0.047337335 0.008632218 -0.015842304 -0.026429115
-0.022057347 -0.051924948 -0.014697873 -0.18011789 -0.011736522 0.055805594 -0.0718018 0.09053105
0.10854226 0.011786937 -0.0502987 0.021005988 -0.046240628 -0.023911685 -0.02431076 0.05960863

batch2.weight f4 [32]
00000000: fd1e 9c3f 82c8 a63f 5da3 6a3f e048 263f
00000010: 314f 973f 03c7 4f3f 0240 483f 32b6 5b3f
00000020: 6a9c 643f 2fa1 b53f eec0 4c3f 34d6 af3f
00000030: 5a36 693f 2892 523f a1ca 793f c8a8 613f
00000040: baec a83f aa4c 573f 8c90 563f a492 9e3f
00000050: 8a9b a93f b68d 863f ed30 a13f a874 993f
00000060: b5c3 5f3f 91b6 713f 96fb 973f c4e8 213f
00000070: 16b3 6b3f 8d1f 6c3f d13d 383f 9fbd 643f
1.2196957 1.302994 0.9165552 0.6495495 1.1821042 0.8116304 0.7822267 0.85824883
0.8930117 1.4189814 0.7998189 1.3737245 0.9109856 0.82254267 0.9757481 0.88148165
1.3197243 0.84101355 0.8381431 1.2388501 1.3250592 1.0511997 1.2593056 1.1988726
0.87408 0.944192 1.1873653 0.632458 0.9207014 0.9223564 0.71969324 0.8935184

batch2.bias f4 [32]
00000000: 6eed b9bb a839 7fbe c4a1 763d 9731 debe
00000010: 2ed9 69bc 0eb9 bcbe 9304 dcbe 2ea3 1fbe
00000020: 5ee7 b63a 0e3e 73be 2f6e 8cbe 8bf8 803c
00000030: 390a 0fbe f21d 37be 1a0c 55be ade1 1abe
00000040: d033 48be 6aa8 3cbe 60c7 cbbd 4e82 babb
00000050: cca2 4abe 6140 1fbf 8143 80be 3f0d 4abd
00000060: 613b a5bd d624 323d 7720 89bd 6694 9bbe
00000070: f773 dabb 13d2 8f3d 9273 8fbe f05b cfbd
-0.005674056 -0.24924338 0.060212865 -0.4339721 -0.014272971 -0.36859936 -0.4297224 -0.15589592
0.0013954451 -0.2375414 -0.27427813 0.015743515 -0.13968743 -0.17882517 -0.20805398 -0.15125151
-0.19551015 -0.1842362 -0.09950137 -0.005691803 -0.19788665 -0.6220761 -0.250515 -0.04932904
-0.08067966 0.04349216 -0.06695645 -0.30386657 -0.006666656 0.0702249 -0.2801786 -0.101249576

batch2.running_mean f4 [32]
00000000: 6fa5 0341 367b 0441 fc61 e0c0 4c67 c4c0
00000010: 90c3 0d41 3aa2 c2c0 3482 703f e36a bac0
00000020: bde5 e1c0 105b ff40 c0f6 fcc0 be33 1f41
00000030: b478 ccc0 6d1c ddc0 6114 f7c0 c8a3 d8c0
00000040: 3aab 0d41 3b36 cfc0 bc5c 1fc1 36e4 f140
00000050: 370c ed40 6d1c 9d3f c414 0341 5e60 0941
00000060: 75fc b3c0 f0ef eac0 36ed 0c41 1a1e dac0
00000070: 59ac d4c0 768f 0ac1 3906 e0c0 1e77 adc0
8.227889 8.280081 -7.011961 -6.1376095 8.860245 -6.082303 0.93948674 -5.8255477
-7.059294 7.979866 -7.905121 9.950132 -6.3897343 -6.90972 -7.7212377 -6.769993
8.854303 -6.47537 -9.96014 7.559108 7.407741 1.22743 8.19257 8.586027
-5.6245675 -7.3417892 8.807913 -6.8161745 -6.6460385 -8.660025 -7.0007596 -5.4207907

batch2.running_var f4 [32]
00000000: 1cc4 4042 2778 2442 71e1 0e41 1aac 7f41
00000010: 027b 2342 8b04 4c41 fd5f 9c42 7b98 c341
00000020: 347c 8f41 034c 3742 50b4 0041 56ef 5f42
00000030: 62a3 dc41 17e5 f941 b5d6 ae40 f35e c741
00000040: f113 8542 4adb 2e42 97c9 8541 8124 2442
00000050: b436 0d42 96b9 b941 6a5b 2242 2767 4a42
00000060: 7173 a641 7185 0242 ff96 6e42 bc75 5741
00000070: 2410 d541 15f4 a941 1420 1e42 fd72 8541
48.191513 41.117336 8.930039 15.979517 40.870125 12.751109 78.18748 24.449453
17.935646 45.82423 8.044022 55.983727 27.579777 31.23686 5.4637094 24.921362
66.53895 43.71415 16.723433 41.03565 35.30342 23.215618 40.58927 50.600735
20.806368 32.630314 59.647457 13.466244 26.632881 21.24418 39.531326 16.681147

fc1.weight f4 [50, 3136]
00000000: db60 aa3f e881 6b3f e9c6 cb3e c665 293e
00000010: 1c2e 133e 1732 743e cd5d c93e ca5e f93e
00000020: 9aa2 163f d273 0b3f 0c58 063f ec73 da3e
00000030: 91c6 b93e 7d34 b03e 2042 b93e 5f7f dd3e
00000040: b48c f83e fe0b ef3e 736d f23e 215a d13e
00000050: 8449 a33e e7b2 733e c306 113e b6b8 f53d
00000060: e450 213e 65de 4a3e 62fb 7c3e d613 813e
00000070: bfd8 833e 9563 823e 3a9a 8f3e 34b5 963e
00000080: e63a a83e 86f1 be3e ba34 b93e e727 c13e
00000090: d090 cb3e a56c c13e 0c80 bb3e f5de bd3e
000000a0: 20cb b93e b8be be3e 8500 bd3e e4a2 be3e
000000b0: c5fc b03e 1435 ad3e 86ec b03e 06fb a33e
000000c0: 4ead 883e b38b 923e b9b5 c33e c80c f33e
000000d0: 2962 063f cb7e f23e f7e4 c93e 539e c03e
000000e0: 1cd2 d53e d074 e43e e32a fd3e 587f 073f
000000f0: e4f1 083f a08c e53e 9b71 ba3e 3765 a23e
00000100: 8bde 833e d702 773e 1e0e 8f3e 241c c13e
00000110: 3eae e33e c4c0 d93e 228b d33e a76e ae3e
00000120: 47ea 883e c345 223e 8b0b cc3d 8785 1e3e
00000130: 6d88 713e 47b9 983e dadc 9d3e e492 a93e
00000140: 628a 943e dd40 903e 30f8 9d3e c691 b33e
00000150: 9c64 df3e fb31 033f 09ab fb3e a3e3 fe3e
00000160: 6e16 fb3e 828e f63e e5c1 e43e 2555 c63e
00000170: a84d ad3e 2ace ba3e c017 d73e 3178 f13e
00000180: 1916 093f a928 fe3e 0f2f 4b3f 25c6 633f
00000190: 1b26 d23e a64d 1b3e dd70 f03d 6efe 113e
000001a0: 11a6 853e d4f6 e73e 7d5b 213f 42f4 223f
000001b0: ad76 fa3e 1e21 bc3e 8f1a 9f3e a43d ad3e
000001c0: 4be4 a23e ed7b 9f3e cce2 983e 6f62 863e
000001d0: 7a06 923e c15a 923e d65f 903e bc15 8d3e
000001e0: b607 a63e 657f e13e e045 fd3e 1e28 f23e
000001f0: a89f af3e 9d39 603e ecd3 fb3d 2423 e23d
00000200: 7eae 063e 7992 5a3e 8a77 8b3e ca00 aa3e
00000210: 0799 cd3e ac98 d93e 6b06 f53e 9a78 053f
00000220: b172 e53e d72a bf3e a4aa ab3e dce3 9d3e
00000230: ffaa 873e d278 6b3e 4a40 773e b1e1 b43e
00000240: 26d4 dd3e 8c3c fe3e 7a9f f83e f806 fd3e
00000250: 8dea f03e 48ea fb3e 6fd5 d63e e6d3 ad3e
00000260: ffb2 973e 6ccd a93e 223a cb3e 5394 c23e
00000270: fe27 ec3e acc7 093f 109e 103f 5e5b 013f
00000280: 1175 c03e 1f66 a53e f191 9e3e d931 b03e
00000290: 17f0 af3e 3ff3 ca3e f727 083f 8704 1b3f
000002a0: 421c 1c3f 140d 033f f6a4 be3e bdae 8a3e
000002b0: 5499 933e d9b6 c63e c74a f73e 3921 113f
000002c0: 54c0 0d3f d29e 023f 39b2 be3e d1c7 4b3e
000002d0: 8706 9d3d 31ce 023e 200d 363e 47c5 643e
000002e0: e0ea 923e e556 ac3e c433 9b3e 9ba0 ab3e
000002f0: 13a4 b73e a362 a23e 9513 9a3e b88d b23e
00000300: 3263 c93e a295 003f 2b98 423f fbf9 813f
00000310: 08bc ffbe 43d6 32bf 4457 12bf 43c9 eebe
00000320: 9d70 b7be e087 87be e14e 3dbe 08dc 30be
00000330: bbac 51be f79e 56be 2175 75be 60da 88be
00000340: 87fa 9dbe fd61 a8be 5c58 a0be 775b b1be
00000350: 6d7e b2be cb5c afbe 2d0b afbe fe86 96be
00000360: ba8d 78be 915f 43be 5edf 24be 47b5 3fbe
00000370: 9e49 54be e9f5 86be 8b77 7fbe 34e6 38be
00000380: e247 fcbd be7a abbd e56b 47bd 6202 09bd
00000390: 041e 81bd 7468 cdbd 290b e7bd aa8b 3dbe
000003a0: c705 5ebe a09a 92be 904b 9dbe a98f b1be
000003b0: 1481 93be 24af 42be b959 eabd 536c a2bd
000003c0: b3f2 cabd 5744 12be b97a 64be 95ce 67be
000003d0: 15df 60be fd17 0ebe 9cf3 2abd a43f 943c
000003e0: 32e0 ad3c d611 03bd 447d a3bd 0406 06be
000003f0: 3daf 0ebe 6497 debd 88ec dabd 2b30 debd
1.3310808 0.91995096 0.39800194 0.1654273 0.14373058 0.23847233 0.39329377 0.4870513
0.5884186 0.544736 0.524781 0.42666566 0.36284307 0.34415045 0.36183262 0.4326124
0.48544848 0.46688837 0.47349128 0.40889075 0.31892025 0.23798715 0.14162736 0.119981214
0.15753514 0.198114 0.2470527 0.25210446 0.25751302 0.254666 0.28047353 0.29435122
0.32857436 0.37293643 0.3617304 0.37725756 0.3975892 0.37778202 0.3662113 0.37084165
0.36287785 0.37254882 0.3691446 0.3723365 0.34567848 0.33829558 0.34555453 0.32027453
0.2669472 0.28622207 0.3822458 0.4747069 0.5249353 0.4736236 0.394325 0.37620792
0.41761863 0.4462037 0.49446782 0.52928686 0.53494096 0.4483385 0.364148 0.31717846
0.25755724 0.24122177 0.27940458 0.37716782 0.44468874 0.4252988 0.41317087 0.34068796
0.2674124 0.15846924 0.09963139 0.15480624 0.23587199 0.29828855 0.3083256 0.3311988
0.29011828 0.28174487 0.30853415 0.35072154 0.43631446 0.5124814 0.49153927 0.49783048
0.4904055 0.481556 0.4467918 0.38736835 0.3384831 0.36485416 0.42010307 0.4716201
0.53549343 0.49640396 0.7936868 0.8897422 0.41044697 0.1516634 0.11740277 0.14257213
0.2610326 0.45305502 0.63030225 0.6365396 0.48918667 0.36744016 0.3107495 0.3383609
0.318148 0.31149235 0.29860532 0.26246974 0.28520566 0.28584865 0.28198117 0.27555645
0.32427758 0.44042507 0.49467373 0.47296232 0.34301496 0.21896978 0.1229628 0.11041859
0.13152501 0.21344937 0.2723964 0.33203727 0.40155813 0.42499292 0.4785646 0.5213715
0.44814065 0.37337372 0.33528626 0.30837905 0.26497647 0.22995308 0.24145618 0.3532844
0.4332592 0.4965557 0.4855917 0.4941938 0.47053948 0.4920218 0.41959712 0.33950728
0.2962875 0.33164537 0.3969279 0.38003787 0.46124262 0.538203 0.56491184 0.5053004
0.37589315 0.32304475 0.3097072 0.3441303 0.34362862 0.39638707 0.5318598 0.60553783
0.6098062 0.5119183 0.3723523 0.2708644 0.28827918 0.38811377 0.48299238 0.5669132
0.55371594 0.5102359 0.37245348 0.19900443 0.076672606 0.12773968 0.17778444 0.2234088
0.2869482 0.33660045 0.30312932 0.3352097 0.35867366 0.3171588 0.30093065 0.34873748
0.39333493 0.5022832 0.7601344 1.0154413 -0.49948144 -0.6985819 -0.57164407 -0.46637926
-0.35828105 -0.26470852 -0.18487121 -0.17271435 -0.20476048 -0.20959078 -0.23970462 -0.26729107
-0.308552 -0.3288726 -0.31317413 -0.34640095 -0.3486208 -0.34250483 -0.34188214 -0.29399866
-0.24272814 -0.19079424 -0.16100833 -0.18721496 -0.20731208 -0.2635949 -0.24947946 -0.18056566
-0.12318398 -0.083730206 -0.04868688 -0.033449538 -0.06304553 -0.100296885 -0.112814255 -0.18510309
-0.21681891 -0.28633595 -0.30721712 -0.34679917 -0.28809416 -0.19012123 -0.114428945 -0.079308175
-0.099095725 -0.14283882 -0.2231244 -0.22637399 -0.21960099 -0.13876338 -0.04173623 0.018096752
0.021225069 -0.03199943 -0.07982877 -0.13088232 -0.13934036 -0.10868719 -0.10689646 -0.10849031

fc1.bias f4 [50]
00000000: 2cd2 273e 0d92 6cbe d650 883e caec 893d
00000010: 9f8a 753d b878 493e b2ce 373e a7b8 b8bd
00000020: 982b eabc d9af 93bd 3d5f 48be fb2d a43d
00000030: 99ee b9be 5794 4abe 9eec 143e ccd5 ed3d
00000040: f75e ea3d efe9 5cbe 2c72 18be f722 0d3e
00000050: e907 353e f769 f93d bea9 c3be bf25 21be
00000060: 43df 32be 2339 2bbd 931a 26be 1cd2 5f3e
00000070: 9a3d 543e a8b5 b23e b9c2 fabd 859e 02be
00000080: 7cfc c33d 4696 cb3e 22aa 53be 7e11 91be
00000090: 30f1 9d3d ccaf 48be 9e37 1fbe 6b80 4abe
000000a0: 081c 9cbd 3ffd c33d 050d b93e 1bd2 803e
000000b0: 218b 4bbe db82 33be af43 b1bd bee7 af3d
000000c0: e75c 323e b965 0c3e
0.16388768 -0.23102589 0.26624173 0.06734617 0.059946653 0.19674957 0.17949942 -0.09019595
-0.02858524 -0.07211275 -0.1956758 0.080165826 -0.36314848 -0.1978315 0.14543387 0.11613044
0.11443894 -0.21573614 -0.14887303 0.1378287 0.17678799 0.12178414 -0.3821544 -0.15737055
-0.1746798 -0.041802537 -0.16221075 0.21857494 0.20726624 0.34904218 -0.12244172 -0.12755783
0.09569642 0.39763087 -0.2067037 -0.28333658 0.077120185 -0.19598311 -0.1554856 -0.1977555
-0.07622534 0.09569787 0.36142746 0.25160298 -0.19877292 -0.17530386 -0.08655488 0.08589123
0.17418252 0.13710679
