DOMAIN_ADAPTION/experiments/feature=C:z_nut_GAMMA=0.05_GAMMA_reduction1.0_num_pool=2_[False, False, False, True, True, True]_21_07_2022__23_36_56/best_model/model_fc.pt (torch, 2207 bytes, 4 tensors)

fc2.weight f4 [3, 50]
00000000: ccc1 163e b949 96be 6adf d8bc 6a17 073e
00000010: 4acd 863e e526 71bd 0154 99be d968 a6bc
00000020: 4da0 dcbd b036 ac3c 343a bb3c 35e0 babd
00000030: 5e58 01be 1950 40be c970 3bbd 69f1 1b3e
00000040: 3017 18be 4991 233e ff05 433e 6878 2e3e
00000050: 4270 1dbe 9170 6d3e 3787 ad3d 058f 283e
00000060: a6bf b8be 4162 5fbe 34dc 4a3d 9a1b ef3c
00000070: 0f30 923e 8971 0d3e 0cf4 2b3e 6d32 143e
00000080: 13cd 95bd a59f ed3d 369d 19bd cdc0 c93c
00000090: 2934 abbd f55c 9f3c e37d f1bd 6795 a83d
000000a0: a7de 81bd 8ba4 d9bc 910b 37be 9f0c cc3c
000000b0: 83e0 6dbc a282 28be 4936 d13d 7d9b ac3d
000000c0: 2b3d dfbb dc2b 273d d254 a13c f379 293e
000000d0: 5ac1 613e 4c3a bebd 88d3 2dbe a055 9fbd
000000e0: a098 45bd 0f23 91bd b71b 04bd 5e4f 083d
000000f0: 429d c8be b0b8 84be 0d5b 21be 4a07 83bc
00000100: 8407 3ebe 7c78 7b3e 1830 02be f639 24be
00000110: 0830 ab3d 8029 b73d c431 35be b6bd a8ba
00000120: c979 173d 065b 113e 47b8 a4bd d6ea 423e
00000130: 14fa b4bc f397 bb3d 8625 17be 591d 283d
00000140: b15e 463e e5af af3e 17c5 0abe a440 59be
00000150: 9563 f3bd bc32 0a3e ed0e 413e 0e75 503e
00000160: 5ae3 8fbe c334 aabc 7dcc 15be 616d 39be
00000170: 1def f1bd 44d0 e6bc 13f3 a7be 32dc bfbd
00000180: 23fc 233e c818 9e3d 9635 153e 902a fa3c
00000190: 42dd 5cbd 159b 26bd 3beb 55be 9b2b 9e3d
000001a0: 515f af3c f072 dd3d 0a7c 033e 442c aa3d
000001b0: f8e8 713d 8cf2 e7bd 283f 59bd 1d7a 263e
000001c0: d164 ec3d 6ba5 0a3e 5a5a 0b3c 8033 0abe
000001d0: 24b5 13bd b620 3cbc 10cf 9bbd d0c8 bdbd
000001e0: 8082 ba3d bcf1 31bd 7e04 ac3c f3ea e0bd
000001f0: e714 e23d efb4 f1bd 7132 063e f9c3 31be
00000200: ed7a f9bc e83e 1e3e 098a acbe 76d5 4dbe
00000210: fbc5 1a3e 9cf6 9abd 0d74 3f3e d526 69bd
00000220: 6af8 8bbd 25b8 5abe 8532 e03d 464d 95be
00000230: 9805 5b3d 76cd 2a3e bca7 203e 9a1c 9e3d
00000240: 49f3 88bc ac6a 293e fa31 133f 2425 fdbd
00000250: 56e1 523d 9db7 043d
0.14722365 -0.2935312 -0.02647372 0.13192526 0.26328498 -0.058874983 -0.29946902 -0.020313667
-0.107727624 0.02102217 0.022854902 -0.09124795 -0.12631366 -0.18780555 -0.045761857 0.1522881
-0.14852595 0.1597339 0.19045256 0.17038119 -0.15374854 0.23187472 0.08473056 0.16460808
-0.36083716 -0.21814825 0.04952641 0.029187966 0.2855229 0.13812841 0.16792315 0.14472361
-0.073145054 0.116027154 -0.037503444 0.024628067 -0.08359558 0.019453505 -0.11791589 0.08231621
-0.06341296 -0.026567718 -0.17875506 0.024908362 -0.01451886 -0.16456082 0.10215432 0.084280945
-0.0068127117 0.040813312 0.019693766 0.16550426 0.22046414 -0.09288463 -0.16975224 -0.077800035
-0.048241258 -0.07086765 -0.032252993 0.033278815 -0.39182478 -0.25922155 -0.1575739 -0.015994687
-0.18557554 0.2455768 -0.12713659 -0.16037735 0.083587706 0.08943462 -0.17694765 -0.0012873921
0.036981378 0.14194879 -0.080429606 0.19034895 -0.022091903 0.091598414 -0.14760408 0.041043613
0.1937206 0.34313884 -0.13551746 -0.21216065 -0.11884228 0.13495916 0.1885335 0.20357153
-0.28103143 -0.020777112 -0.14628787 -0.18108131 -0.11813185 -0.02817548 -0.32802638 -0.09368171
0.16014151 0.077195704 0.14571223 0.030537874 -0.053921945 -0.04067524 -0.20890515 0.07723161
0.021407755 0.10812938 0.12840286 0.08309224 0.059060067 -0.11325559 -0.053038746 0.1625752
0.11542667 0.13539664 0.008505428 -0.13496208 -0.03606142 -0.011482408 -0.076078534 -0.092668176
0.09106922 -0.043443426 0.020998236 -0.10982313 0.11039143 -0.118020885 0.1310518 -0.17359914
-0.030454123 0.15453684 -0.33699062 -0.2010096 0.15114586 -0.07566568 0.18696614 -0.0569218
-0.068344906 -0.21359308 0.10947136 -0.29160517 0.05347213 0.1667994 0.15688986 0.07720299
-0.01671757 0.16544598 0.57498133 -0.123606 0.05148443 0.03240167

fc2.bias f4 [3]
00000000: 8e38 e33e 9bb2 783f 6d41 c7be
0.44379085 0.9714753 -0.38917103

fc3.weight f4 [2, 3]
00000000: 7a05 70bd 6e60 75bc 3027 fb3e 4236 be3d
00000010: 2b23 d5bd e333 003f
-0.058598973 -0.014976604 0.49053335 0.092876926 -0.104070984 0.5007917

fc3.bias f4 [2]
00000000: 2c70 3dbf b988 85be
-0.73999286 -0.26080874
