DOMAIN_ADAPTION/experiments_old_top_10_features_full_mmd/feature=D:I_ist_X_GAMMA=1.0_GAMMA_reduction0.999_num_pool=2_[True, True, False, True, True, True]_exp_1/best_model/model_cnn.pt (torch, 762095 bytes, 16 tensors)

conv1.weight f4 [64, 1, 100]
0	0xbdb0907b	-0.086213075
1	0xbcb07ed9	-0.02154486
2	0xbc2c1510	-0.010503069
3	0xbb947cdd	-0.0045314864
4	0x3bc1e01f	0.00591661
5	0xbde16deb	-0.11007293
6	0xbd305be9	-0.043056402
7	0x3caf70fd	0.021416182
8	0xbe167f30	-0.14696956
9	0xb9987cf1	-0.00029084788
10	0xbd2484ab	-0.040165585
11	0xbd7a4782	-0.06110335
12	0x3d09dfcc	0.033660695
13	0xbddb9c39	-0.107231565
14	0xbdbf04c7	-0.09327083
15	0xbe0f8134	-0.14014131
16	0x3c960ce1	0.018316688
17	0xbe0e8857	-0.13919197
18	0x3cbbbe74	0.022917964
19	0xbe0fd827	-0.140473
20	0xbc22b56c	-0.00993095
21	0xbdf00c32	-0.11721076
22	0x3ca996c4	0.020701773
23	0xbe09a11e	-0.13440368
24	0xbe075f23	-0.13219886
25	0xbdc54ba0	-0.09633565
26	0xbe178a01	-0.14798738
27	0x3cdf9393	0.027292049
28	0xbd001e2b	-0.03127877
29	0xbdfbf16e	-0.123019084
30	0xbe14404b	-0.14477651
31	0xbdd14f24	-0.10220173
32	0xbd5cd4ae	-0.053913765
33	0xbde986a7	-0.11402636
34	0xbc2ea9a5	-0.010660564
35	0xbdf15a96	-0.11784856
36	0xbd1fecc5	-0.03904416
37	0x3b3ce9a2	0.002882578
38	0xbe0ff3df	-0.14057873
39	0xbe17c823	-0.1482244
40	0xbe2a412a	-0.1662642
41	0xbd53befa	-0.0516958
42	0x3c0909ab	0.008364121
43	0xbe091828	-0.13388121
44	0xbdaa26e7	-0.08308201
45	0xbbdca2aa	-0.0067332583
46	0x3c072c60	0.008250326
47	0xbc7433f5	-0.014904966
48	0xbd1cf5a7	-0.03832021
49	0xbd5bddf5	-0.05367847
50	0xbd840128	-0.06445533
51	0x3c7b149c	0.015324738
52	0xbd8bfbba	-0.068351224
53	0xbd07c701	-0.03314877
54	0xbda1fc5a	-0.0790946
55	0x3bf0953c	0.007342009
56	0xbe2f984e	-0.17147943
57	0xbdd6e14f	-0.10492193
58	0xbe2de56b	-0.16982047
59	0xbd525e66	-0.051359557
60	0xbdca1dce	-0.09868966
61	0xbe21eee0	-0.1581378
62	0xbe1bd96f	-0.15219663
63	0xbd3f49b2	-0.04670114
64	0x3a0eb922	0.0005444457
65	0x3c320e9f	0.010867744
66	0xbbc3b1cc	-0.005972123
67	0xbe200cd2	-0.1562989
68	0x3bd69737	0.006548788
69	0x3c8ea3a0	0.017412007
70	0xbd9902bd	-0.074712254
71	0xbe347d7c	-0.17625993
72	0xbe1c6b5d	-0.15275331
73	0xbe2d1463	-0.16902308
74	0xbd83256a	-0.064036205
75	0x3b0ae07f	0.002119094
76	0xbc887268	-0.016656116
77	0xbe062f2c	-0.13103932
78	0xbe02fda0	-0.12792063
79	0xbd81214f	-0.06305181
80	0xbe11e9c6	-0.14249334
81	0xbdcbfa0e	-0.099598035
82	0xbd7dc1a0	-0.061952233
83	0xbe039937	-0.12851416
84	0xbd6a8c59	-0.057262752
85	0xbddf554d	-0.10904942
86	0xbba185cc	-0.00492928
87	0xbe3c0853	-0.1836255
88	0xbccaa295	-0.024735728
89	0xbd52d4fd	-0.051472653
90	0xbe5f0516	-0.21779284
91	0xbdeffbc9	-0.11717946
92	0xbe2c415f	-0.16821812
93	0xbe08266f	-0.13295911
94	0xbe032efe	-0.12810895
95	0xbe3d77df	-0.18502758
96	0xbe190c20	-0.14946032
97	0xbe0cb6fd	-0.1374168
98	0x3d53bc05	0.05169298
99	0xbdb820fa	-0.08990665
100	0xbe08c241	-0.13355352
101	0x3c9b8b15	0.018987218
102	0xbca20b2e	-0.019780722
103	0xbb216fa7	-0.00246332
104	0x3c6ec435	0.014573147
105	0xbe23a9b8	-0.15982711
106	0xbdc6e04c	-0.0971075
107	0xbda524df	-0.08063673
108	0x3ca678cc	0.020321272
109	0xbdcfd789	-0.10148532
110	0xbda611e3	-0.0810888
111	0xbc90f5c1	-0.01769531
112	0xbcba7af7	-0.022763712
113	0xbe0f5e6f	-0.14000867
114	0xbe259f94	-0.16174155
115	0xbde700c9	-0.11279447
116	0xbd2cb3db	-0.04216371
117	0x3cb09571	0.021555634
118	0xbce6a70a	-0.028155822
119	0xbc8374fe	-0.016046997
120	0xbd356970	-0.044290006
121	0xbdce0968	-0.10060388
122	0xbdbc2296	-0.09186284
123	0x3c19cfbd	0.009387908
124	0xbd5bcf6a	-0.053664602
125	0xbd628b92	-0.055308886
126	0xbc857161	-0.016289415
127	0xbb3bb99d	-0.002864457
128	0xbd3df2d4	-0.046374157
129	0xbdb0dfea	-0.08636458
130	0xbdfa21c8	-0.122134745
131	0xbe0e4e0d	-0.13896962
132	0xbe03d133	-0.12872772
133	0x3b45028e	0.0030061337
134	0x3a5a723e	0.00083330635
135	0xbe07a990	-0.13248277
136	0x3ba6205e	0.0050697764
137	0xbdd80f92	-0.10549845
138	0xbdd68018	-0.10473651
139	0xbd48328a	-0.048876323
140	0xbe27284e	-0.16323969
141	0xbe10eda0	-0.14153147
142	0xbdc8177a	-0.09770103
143	0xbdea43a3	-0.11438682
144	0xbd0645c3	-0.032781374
145	0xbddb6018	-0.10711688
146	0xbe2c18f6	-0.16806397
147	0xbe2ddbf9	-0.16978444
148	0x3c781d3c	0.015143689
149	0xbd15db38	-0.036586016
150	0xbe3aa5d1	-0.18227316
151	0xbe28b8a5	-0.16476686
152	0xbe158bde	-0.14604136
153	0x3c0b5ce2	0.008506032
154	0xbce277fe	-0.027645107
155	0xbd4930f6	-0.04911896
156	0xbcc60cfe	-0.024176117
157	0xbd827efd	-0.06371877
158	0xbc042bc5	-0.008067076
159	0xbe243a0e	-0.16037771
160	0xbb1db598	-0.0024064537
161	0xbd11de71	-0.035612527
162	0xbd493e9c	-0.049131975
163	0xbc9beda4	-0.019034214
164	0xbdd449e6	-0.103656575
165	0xbe07a166	-0.13245162
166	0xbde4d34c	-0.11173114
167	0xbe237048	-0.159608
168	0xbda85f1f	-0.08221268
169	0xbd011498	-0.03151378
170	0xbd85dbcb	-0.06536063
171	0xbdb3bfb6	-0.087768
172	0xbd425454	-0.047443703
173	0xbe35559a	-0.17708436
174	0xbe1be0d3	-0.15222482
175	0xbe31c96e	-0.17361996
176	0x3c6c00d2	0.014404492
177	0xbe33a4b8	-0.17543304
178	0xbd0e8c21	-0.034801606
179	0xbc208688	-0.0097977
180	0xbde25a53	-0.11052384
181	0xbdc8a22a	-0.09796555
182	0xba2870e0	-0.0006425511
183	0xbe293c5b	-0.1652693
184	0xbe3c6ff0	-0.18402076
185	0xbdc93e03	-0.09826281
186	0xbdc2e146	-0.09515624
187	0xbdfad315	-0.12247292
188	0xbd91e880	-0.07124424
189	0xbccada14	-0.02476219
190	0xbcc86b9a	-0.02446537
191	0xbd479730	-0.048728168
192	0xbc034cf6	-0.008013954
193	0xbe0157cd	-0.1263115
194	0xbd977297	-0.07394903
195	0xbd3f8251	-0.04675514
196	0xbd40c670	-0.047064245
197	0xbdea95de	-0.11454366
198	0x3b9df373	0.004820281
199	0xbe1b8f13	-0.15191297
200	0xbdee537b	-0.116370164
201	0xbe2a01e4	-0.16602284
202	0xbd6f6be3	-0.0584525
203	0xbe193e0a	-0.14965072
204	0x3945da3a	0.0001886868
205	0xbe0c6a30	-0.13712382
206	0xbd2dc271	-0.042421762
207	0x3cb91d35	0.022596935
208	0x3cd18968	0.025578216
209	0xbd053fa9	-0.032531414
210	0xbcfdea26	-0.03099544
211	0xbd5078fc	-0.05089663
212	0xbc43ab88	-0.011942752
213	0xbda1a7a0	-0.078933
214	0xbe16af67	-0.14715348
215	0x3c87a7ef	0.01655957
216	0xbe1617a3	-0.14657454
217	0x3ce4abde	0.027913984
218	0xbd82cad5	-0.063863434
219	0xbcc67b5a	-0.02422874
220	0xbd8e4c79	-0.0694818
221	0xbcfec74d	-0.031100893
222	0xbbdae771	-0.006680422
223	0xbe3010f9	-0.17193975
224	0xbcaa0126	-0.0207525
225	0xbde40c7b	-0.11135193
226	0xbe2b2cde	-0.16716334
227	0xbe1f15c7	-0.15535651
228	0xbd85faed	-0.06542001
229	0x3b5cd9cf	0.003369916
230	0xbe2ed885	-0.17074783
231	0xbd437206	-0.047716163
232	0xbd16852c	-0.036748096
233	0xbe2f5be8	-0.17124903
234	0xbd668d50	-0.05628711
235	0xbe01add6	-0.1266397
236	0xbd795efb	-0.060881596
237	0xbde5f251	-0.11227859
238	0x3bfc41c9	0.007698272
239	0xbe29e4e9	-0.16591229
240	0xbcbd383a	-0.0230981
241	0xbde8f4c7	-0.113748126
242	0xbd46c69c	-0.048529252
243	0xbd8cd0fa	-0.068757966
244	0xbe300ddc	-0.17192787
245	0xbe008873	-0.12552051
246	0xbd95452e	-0.072885856
247	0xbd931c90	-0.07183182
248	0xbdffd2fe	-0.124914154
249	0xbc8aec32	-0.01695833
250	0xbdfc3861	-0.12315441
251	0xbe0336ca	-0.12813869
252	0xbcfc52d0	-0.030801207
253	0xbdb0901b	-0.08621236
254	0xbd2e329d	-0.042528737
255	0xbc2249a3	-0.009905252

conv1.bias f4 [64]
0	0xbd0ef9ee	-0.03490632
1	0xbdbf467f	-0.09339618
2	0x3d9f4d63	0.07778432
3	0x3df49965	0.1194332
4	0xbdd6eda7	-0.10494547
5	0x3caade4c	0.020857953
6	0xbd276dd8	-0.04087624
7	0x3c7fa9aa	0.015604416
8	0x3d90d289	0.070714064
9	0x3c9e0b88	0.019292608
10	0xbd826b9c	-0.06368181
11	0xbbbd3fce	-0.0057754284
12	0x3d718683	0.05896617
13	0xbdbbe469	-0.09174425
14	0xbd65bf92	-0.0560909
15	0xbddc96f6	-0.10770981
16	0x3d81def9	0.06341357
17	0x3d80cf3c	0.06289527
18	0xbdf1d30b	-0.118078314
19	0x3d2d0820	0.042244077
20	0x3d06f1c0	0.032945395
21	0xbd70d534	-0.058797076
22	0x3db58973	0.08864107
23	0x3da8b225	0.082371034
24	0x3da99b10	0.08281529
25	0xbe1f71fe	-0.15570828
26	0xbd201c99	-0.039089773
27	0x3de621f5	0.112369455
28	0xbc04187c	-0.008062478
29	0x3bba95ef	0.005694143
30	0xbc7a03f8	-0.015259735
31	0xbdbfb558	-0.093607605
32	0xbce677f3	-0.028133368
33	0xbdae3fdc	-0.08508274
34	0xbd5dcca3	-0.054150235
35	0xbde004ee	-0.1093844
36	0xbc8b9ce9	-0.017042594
37	0xbd21c425	-0.0394937
38	0xbd8c0343	-0.068365596
39	0x3dd2d7da	0.10295077
40	0x3d1df1ff	0.038560864
41	0x3e0f9b7a	0.14024153
42	0xbcb4f1e6	-0.022088002
43	0xbdbd3881	-0.09239293
44	0xbd606e0d	-0.054792453
45	0x3e012368	0.12611163
46	0xbd8cbbbb	-0.06871744
47	0x3dfcd105	0.12344555
48	0xbc4f48cc	-0.0126516335
49	0x3dc04ecf	0.093900315
50	0x3d02fdb0	0.031980217
51	0xbd7e2fa4	-0.062057152
52	0x3c5d49a3	0.013506326
53	0xbcdb1254	-0.026742138
54	0xbc6f1f67	-0.014594889
55	0xbcef55ef	-0.029215781
56	0xbe368a5b	-0.17826216
57	0xbd545cd8	-0.051846355
58	0xbc65089e	-0.013979105
59	0x3c3f84a5	0.01168934
60	0x3da92d0a	0.08260544
61	0xbe61cc91	-0.22050692
62	0x3d9c600c	0.07635507
63	0xbc2b4279	-0.01045286

conv2.weight f4 [32, 64, 10]
0	0xbd92b63a	-0.07163663
1	0xbd90fdfc	-0.07079694
2	0xbd8770c7	-0.066133074
3	0xbd804f87	-0.06265169
4	0xbd517509	-0.051137004
5	0xbd0ae7a7	-0.033912327
6	0xbdc72e1b	-0.09725591
7	0xbcce396d	-0.025173867
8	0xbca89674	-0.020579554
9	0xbda750eb	-0.08169731
10	0xbd1ee36c	-0.038791105
11	0xbd4e0c60	-0.05030477
12	0xbdb2c7b7	-0.08729499
13	0xbd6e9d98	-0.05825576
14	0xbd8eca9e	-0.0697224
15	0xbce3316a	-0.027733523
16	0xbd9d3c90	-0.07677567
17	0xbd8ad204	-0.067783386
18	0xbce42b7b	-0.027852764
19	0xbda77c3f	-0.08177995
20	0xbdc5019e	-0.09619449
21	0xbcdcc2d0	-0.026948363
22	0xbd619f1d	-0.055083383
23	0xbd38c8a9	-0.04511324
24	0xbd57fd6b	-0.052731913
25	0xbd9cce51	-0.07656539
26	0xbd4a476e	-0.049384527
27	0xbd31fdf1	-0.043455068
28	0xbd712096	-0.058868967
29	0xbd25adf8	-0.040449113
30	0x3d6f1f5e	0.058379523
31	0x3dd3be6b	0.10339054
32	0x3e076e6c	0.13225716
33	0x3dd60f7e	0.10452174
34	0x3e1eb23e	0.15497681
35	0x3dfc2814	0.12312332
36	0x3def7c10	0.11693585
37	0x3dfa36e4	0.12217501
38	0x3def1fea	0.11676009
39	0x3d73747a	0.059437253
40	0x3cc04fed	0.023475612
41	0x3d99400a	0.074829176
42	0x3d827e14	0.06371704
43	0x3cc26b01	0.023732664
44	0x3d6ad0c4	0.057328
45	0x3d63a9a7	0.055581715
46	0x3d7728c7	0.060341623
47	0x3d457123	0.0482036
48	0x3daa44e8	0.08313924
49	0x3cb2107e	0.02173638
50	0xbdaf4759	-0.0855853
51	0xbd9d364f	-0.07676374
52	0xbdd12d1d	-0.10213683
53	0xbdb5c36b	-0.08875164
54	0xbe003bc2	-0.12522796
55	0xbdb4af59	-0.088225074
56	0xbdb32d8f	-0.08748924
57	0xbdc6afe1	-0.09701515
58	0xbe04999f	-0.12949227
59	0xbd979020	-0.074005365
60	0x3d085328	0.03328243
61	0x3db193bb	0.086707555
62	0x3db143a7	0.08655482
63	0x3daa38d5	0.08311621
64	0x3da5a61f	0.08088326
65	0x3da3084a	0.079605654
66	0x3d4856a6	0.04891076
67	0x3d87bcf5	0.066278376
68	0x3d15baa2	0.03655494
69	0x3d41e1cb	0.047334474
70	0xbbaaa5bb	-0.005207745
71	0x3c901806	0.01758958
72	0x3ccc34dc	0.024927549
73	0x3c7f9a0c	0.0156006925
74	0xbc73ea1f	-0.014887362
75	0x3ceac663	0.028659051
76	0x3c891c0f	0.016737012
77	0x3b90de41	0.004421026
78	0x3b8896e1	0.004168377
79	0x3b766c6a	0.003760124
80	0xbd14b2bd	-0.03630327
81	0xbd4f7f05	-0.050658245
82	0xbd845a39	-0.06462521
83	0xbd98b201	-0.074558266
84	0xbd74861a	-0.0596982
85	0xbdb041df	-0.08606314
86	0xbca8b4f7	-0.020594103
87	0xbdb4d1af	-0.088290565
88	0xbd2dd196	-0.042436205
89	0xbdc14607	-0.09437185
90	0xbd15315c	-0.036424026
91	0xbd47fd62	-0.04882563
92	0xbd02662b	-0.031835716
93	0xbd40eb29	-0.047099266
94	0xbd166691	-0.03671891
95	0xbcc6829e	-0.024232205
96	0xbb82915d	-0.003984614
97	0xbd0f1df3	-0.03494067
98	0x3b9d3182	0.0047971616
99	0xbd429ca4	-0.047512665
100	0x3cd4efc0	0.025993228
101	0x3ce27e67	0.027648164
102	0x3cd7292a	0.026264746
103	0x3d95c6f8	0.07313341
104	0x3db395aa	0.087687805
105	0x3d96b470	0.073586345
106	0x3d7fd146	0.062455438
107	0x3db4c0b1	0.088258155
108	0x3d524940	0.051339388
109	0x3da57b94	0.08080211
110	0x3d0e62e2	0.03476227
111	0x3d772bc6	0.06034448
112	0x3d498434	0.049198344
113	0x3db199ae	0.0867189
114	0x3d198020	0.037475705
115	0x3da0047e	0.07813357
116	0x3d4fe526	0.050755642
117	0x3c8a2af1	0.01686618
118	0x3cdd860d	0.02704146
119	0x3c00ce85	0.007861738
120	0x3db0bb32	0.08629455
121	0x3d9a54b6	0.075356886
122	0x3cf7c1f1	0.030243846
123	0x3d1aaa47	0.037760045
124	0x3da91556	0.08256023
125	0x3db56b19	0.08858318
126	0x3dae250d	0.085031606
127	0x3dadcd3e	0.084864125
128	0x3d451640	0.048116922
129	0x3dc538ae	0.096299514
130	0xbd17e301	-0.037081722
131	0xbc58067c	-0.01318514
132	0x3c8e0ec9	0.017341034
133	0x3c9318d9	0.017956184
134	0xbc1eb186	-0.00968588
135	0xbca2080f	-0.019779233
136	0x3c6996de	0.014257161
137	0x3cad888e	0.021183278
138	0x3c8fb340	0.017541528
139	0x3b157072	0.0022802618
140	0x3d9160ee	0.07098566
141	0x3cf287c5	0.029605756
142	0x3cc36432	0.023851488
143	0x3ceb2102	0.028702263
144	0x3db61cbb	0.08892199
145	0x3d67b20d	0.056566287
146	0x3d949d63	0.07256582
147	0x3dab9570	0.08378112
148	0x3d1818ce	0.03713303
149	0x3d82c2ef	0.06384837
150	0x3dafa2df	0.08575987
151	0x3d8a5c3f	0.06755876
152	0x3dad75eb	0.08469757
153	0x3d929ee6	0.07159214
154	0x3cc71f4a	0.024306912
155	0x3c97ffc9	0.018554585
156	0x3d3faefc	0.046797737
157	0x3ca40704	0.020022877
158	0x3d8be5c4	0.06830934
159	0x3da6ba79	0.081410356
160	0xbd067f70	-0.032836378
161	0xbca88ea3	-0.020575827
162	0xbd98ea77	-0.074665956
163	0xbce3f7fb	-0.027828207
164	0xbdbdd844	-0.09269765
165	0xbd9d7822	-0.07688929
166	0xbd67713a	-0.056504466
167	0xbd0388f1	-0.03211302
168	0xbdadb72b	-0.08482202
169	0xbdc45beb	-0.095878445
170	0x3cc5a773	0.024127698
171	0x3d8a06d9	0.06739587
172	0x3da691f5	0.08133308
173	0x3dc4299d	0.095782496
174	0x3db50a72	0.08839883
175	0x3dc878d8	0.09788674
176	0x3dbb30b8	0.09140152
177	0x3cb01148	0.021492615
178	0x3ca24164	0.019806571
179	0x3d8de34a	0.069281176
180	0xbdb465ae	-0.08808456
181	0xbd488ce3	-0.048962485
182	0xbcd9ba35	-0.026578048
183	0xbd5c260e	-0.05374723
184	0xbd8c564a	-0.06852396
185	0xbd99121c	-0.07474157
186	0xbda5c704	-0.080946
187	0xbce6dd4c	-0.028181694
188	0xbd944a5a	-0.07240744
189	0xbcee9346	-0.02912296
190	0x3d0054de	0.031330936
191	0x3c815146	0.015785825
192	0x3d31caf4	0.04340644
193	0x3ad1fae7	0.0016020209
194	0x3cb7bd94	0.022429265
195	0x3c7133d3	0.0147218285
196	0xbd078f42	-0.033095606
197	0xbcd5ebb8	-0.026113376
198	0x3d03f9ce	0.032220654
199	0xbc323444	-0.010876719
200	0xbda107bf	-0.078628056
201	0xbdb56ead	-0.08859
202	0xbd75bd8d	-0.059995223
203	0xbdb7e1b9	-0.089786
204	0xbd9616d0	-0.0732857
205	0xbcf46239	-0.029831992
206	0xbcae6f21	-0.021293225
207	0xbcdf69cb	-0.027272126
208	0xbd8f25c2	-0.069896236
209	0xbdc2e69a	-0.0951664
210	0xbd54eba9	-0.051982556
211	0xbdac5098	-0.084138095
212	0xbdccfc6e	-0.10009085
213	0xbd7e55ea	-0.062093653
214	0xbda1adb5	-0.0789446
215	0xbd0ec2e4	-0.03485383
216	0xbd8127ac	-0.06306395
217	0xbd62dd63	-0.055386912
218	0xbd781812	-0.06056983
219	0xbd707767	-0.05870762
220	0xbdca4f2f	-0.09878384
221	0xbd82d20a	-0.06387718
222	0xbd453fe5	-0.048156638
223	0xbdaf90d4	-0.08572546
224	0xbce141be	-0.027497169
225	0xbd67be0a	-0.05657772
226	0xbd6622ae	-0.056185417
227	0xbd41780e	-0.047233634
228	0xbd9aec50	-0.07564604
229	0xbd1739ce	-0.03692036
230	0xbd2dfe3f	-0.042478796
231	0xbd30606e	-0.043060713
232	0xbdab4ebc	-0.08364627
233	0xbd880f2b	-0.06643518
234	0xbd467ee2	-0.04846085
235	0xbd803c84	-0.062615424
236	0xbd9dcb4e	-0.07704793
237	0xbd8b5ef6	-0.06805222
238	0xbd42b839	-0.04753897
239	0xbda7f2cb	-0.08200606
240	0xbca27ff2	-0.0198364
241	0xbd3620fb	-0.044465046
242	0xbcf683c0	-0.03009212
243	0xbd59e9b1	-0.05320138
244	0xbd3a5a07	-0.045496013
245	0xbd888f79	-0.0666799
246	0xbd978464	-0.073982984
247	0xbd875dec	-0.06609711
248	0xbdb0658c	-0.086131185
249	0xbdc42991	-0.09578241
250	0xbd83514e	-0.06411992
251	0xbd0de628	-0.034643322
252	0xbd35a434	-0.04434605
253	0xbcaf5f30	-0.021407694
254	0xbd8566d1	-0.06513751
255	0xbd5d5163	-0.054032695

conv2.bias f4 [32]
0	0x3dca8bb0	0.098899245
1	0x3c9fe398	0.019517705
2	0xbc16350a	-0.009167919
3	0xbd73d3d9	-0.059528206
4	0xbd1c22b6	-0.03811904
5	0x3c86178e	0.016368654
6	0x3d489592	0.048970766
7	0xbcf73da0	-0.030180752
8	0xbd86c17e	-0.065798745
9	0xbc14ec09	-0.009089478
10	0xbd889705	-0.0666943
11	0x3c9d11f2	0.019173596
12	0x3c931e53	0.017958796
13	0x3d94fd04	0.072748214
14	0xbd0bd61e	-0.034139745
15	0x3d2a7594	0.041616037
16	0xbd400bb5	-0.046886165
17	0xbc96b0a9	-0.018394785
18	0x3c1d5374	0.009602416
19	0xbccbb457	-0.024866266
20	0x3d81851c	0.06324217
21	0x3bcc312f	0.006231449
22	0x3cc273b9	0.023736821
23	0xbd0561a3	-0.032563817
24	0x3c7a5223	0.015278372
25	0x3b27cf15	0.0025605608
26	0xbcadf419	-0.021234559
27	0xbbb1404b	-0.0054092756
28	0x3d319092	0.043350764
29	0x3c7fa388	0.015602954
30	0xbc9c1b39	-0.01905595
31	0x3c28ae99	0.010295534

batch1.weight f4 [32]
0	0x3f87d450	1.0611668
1	0x3f8f9405	1.1217047
2	0x3f90cc3c	1.1312327
3	0x3f65d4b7	0.897777
4	0x3f856f56	1.0424602
5	0x3f89150b	1.0709547
6	0x3f936c6e	1.1517465
7	0x3f5a1963	0.8519499
8	0x3f67fee9	0.9062334
9	0x3f6ecbcd	0.93279725
10	0x3f5b8750	0.85753345
11	0x3f6736a5	0.90317756
12	0x3f6d7685	0.9275897
13	0x3f76e3df	0.96441454
14	0x3f641396	0.89092386
15	0x3f62cf9e	0.8859805
16	0x3f6e6aa5	0.93131477
17	0x3f8590ad	1.0434777
18	0x3f8663fd	1.0499264
19	0x3f884d6f	1.0648631
20	0x3f8d7d74	1.105391
21	0x3f873f40	1.0566177
22	0x3f6d59b5	0.9271501
23	0x3f7bcd7f	0.9836044
24	0x3fa725bc	1.3058391
25	0x3f8cd22c	1.1001639
26	0x3f5c46bd	0.8604544
27	0x3f8621c8	1.0479059
28	0x3f6c8020	0.92383003
29	0x3f75933e	0.959278
30	0x3f5f9a83	0.8734514
31	0x3f7e9c07	0.9945683

batch1.bias f4 [32]
0	0xbe0123c6	-0.12611303
1	0xbe05cbc8	-0.13066018
2	0xbdd3482c	-0.103165
3	0xbe3ebf6d	-0.1862771
4	0xbd8ffec9	-0.07031018
5	0xbe20f549	-0.15718569
6	0xbe520712	-0.2051051
7	0xbe5a0e39	-0.21294488
8	0xbe457590	-0.19283128
9	0xbe9f8fa5	-0.3116428
10	0xbe51f17a	-0.20502272
11	0xbe7011a8	-0.23444235
12	0xbe35e13b	-0.177617
13	0xbe3a9dba	-0.1822423
14	0xbe616743	-0.22012047
15	0xbe23c9e5	-0.15994985
16	0xbe1fa264	-0.15589291
17	0xbe24a736	-0.16079411
18	0xbe246be3	-0.1605678
19	0xbe8c083e	-0.27350038
20	0xbd5ba920	-0.053628087
21	0xbe0475d0	-0.12935567
22	0xbe16e4ce	-0.1473572
23	0xbeaeeb22	-0.34163767
24	0xbd4e3a31	-0.050348464
25	0xbe3aa3af	-0.18226503
26	0xbe61278f	-0.21987747
27	0xbe9af38b	-0.30263934
28	0xbe5ba6b1	-0.21450306
29	0xbeaee638	-0.34160018
30	0xbe1e888c	-0.15481776
31	0xbeb63716	-0.35588902

batch1.running_mean f4 [32]
0	0x42939f60	73.81128
1	0x4263b74f	56.929012
2	0x42b442b8	90.13031
3	0xc29fa676	-79.82512
4	0xc260291c	-56.040146
5	0x42ab299d	85.581276
6	0x42a569bb	82.706505
7	0xc2851f0a	-66.56062
8	0xc2984278	-76.12982
9	0x426cf5aa	59.239906
10	0xc29f3542	-79.60402
11	0xc252fd94	-52.747635
12	0xc25acb87	-54.698757
13	0xc2914483	-72.63381
14	0xc28c4bb5	-70.147865
15	0xc29b0ba6	-77.52275
16	0xc286f8ce	-67.48595
17	0x426258c1	56.586674
18	0x427b6b2a	62.854652
19	0x42921bf7	73.05462
20	0xc1eedc34	-29.857521
21	0xc27bdffa	-62.968727
22	0xc28e129e	-71.03636
23	0x427b0fa7	62.765285
24	0x429697bb	75.29635
25	0x428b4072	69.62587
26	0xc27acb66	-62.69863
27	0x428de8d2	70.95473
28	0xc24b9723	-50.897594
29	0x42871d22	67.5569
30	0xc256b461	-53.67615
31	0x4291e031	72.937874

batch1.running_var f4 [32]
0	0x455da491	3546.2854
1	0x45074b85	2164.72
2	0x45a5c426	5304.5186
3	0x45829ac7	4179.347
4	0x4503ee99	2110.9124
5	0x459562c8	4780.3477
6	0x458ccc6b	4505.5522
7	0x4537ce80	2940.9062
8	0x456ec101	3820.0627
9	0x4512d5b1	2349.3557
10	0x45820c3e	4161.5303
11	0x44ea38bc	1873.773
12	0x44fc2da5	2017.4264
13	0x455942e2	3476.1802
14	0x454b10cc	3249.0498
15	0x457bbdec	4027.87
16	0x453f4608	3060.377
17	0x4505bc4d	2139.7688
18	0x45236758	2614.459
19	0x455c5831	3525.512
20	0x440f79e2	573.9044
21	0x45255639	2645.389
22	0x4552b9fc	3371.624
23	0x4523dea9	2621.9163
24	0x4568f489	3727.2834
25	0x45493437	3219.2634
26	0x45265756	2661.4585
27	0x454f8836	3320.5132
28	0x44db7e0b	1755.9388
29	0x453cef54	3022.958
30	0x44f4a15b	1957.0424
31	0x4559a571	3482.34

conv3.weight f4 [32, 32, 5]
0	0x3ca34e30	0.019934744
1	0x3c9b14fc	0.018930905
2	0xbd8c66f7	-0.068555765
3	0xbc2e4495	-0.010636468
4	0xbd0887b3	-0.033332538
5	0xbc9a714d	-0.018852854
6	0x3b7bb262	0.0038405885
7	0xbc410134	-0.011780072
8	0x3b2b8f8d	0.0026178092
9	0xbc25c63b	-0.010118063
10	0xbd1448b9	-0.036202166
11	0xbd77dac3	-0.06051136
12	0xbe46c3b6	-0.19410595
13	0xbde34662	-0.11097409
14	0xbdce3e24	-0.10070446
15	0xbe33f1ea	-0.17572752
16	0xbe39470c	-0.18093508
17	0xbe4889b8	-0.19583786
18	0xbe4a681f	-0.19766282
19	0xbdc20912	-0.09474386
20	0xbe6d5b1d	-0.23179288
21	0xbe4aed92	-0.19817188
22	0xbde3526f	-0.11099707
23	0xbe2b1095	-0.16705544
24	0xbddf3143	-0.10898068
25	0xbe266e26	-0.16252956
26	0xbe0fff03	-0.14062123
27	0xbe36c7f2	-0.1784971
28	0xbe249b74	-0.16074926
29	0xbde6e6cf	-0.11274492
30	0xbd8c608f	-0.068543546
31	0xbe2c71bd	-0.16840263
32	0xbe274479	-0.16334714
33	0xbe411ec7	-0.18859397
34	0xbe28560b	-0.16439073
35	0xbe318af7	-0.17338167
36	0xbe1d7db5	-0.15379985
37	0xbdfc2f4d	-0.123137094
38	0xbe264bef	-0.16239904
39	0xbe29e0ef	-0.16589712
40	0xbe5a8536	-0.21339878
41	0xbe3bbd33	-0.18333893
42	0xbe0a4260	-0.13501883
43	0xbe72e427	-0.23719846
44	0xbdd608b5	-0.104508795
45	0xbe1f3616	-0.15547976
46	0xbce25fac	-0.02763351
47	0xbe3321f5	-0.17493422
48	0xbe42f4f6	-0.19038758
49	0xbd9d1c9d	-0.07671473
50	0xbe8094f6	-0.25113648
51	0xbe6ce97e	-0.23135945
52	0xbe0d6d5f	-0.13811253
53	0xbe0f2c4f	-0.13981746
54	0xbe2b3ad2	-0.16721657
55	0xbeb4ab81	-0.35287097
56	0xbe92fe07	-0.28709432
57	0xbe0e34ac	-0.1388728
58	0xbe62a4c1	-0.22133161
59	0xbe1e4988	-0.15457737
60	0xbe9bffeb	-0.30468687
61	0xbe70081b	-0.23440592
62	0xbdfb23e3	-0.12262704
63	0xbe454bee	-0.19267246
64	0xbda7ec4e	-0.081993684
65	0xbe71ca98	-0.2361244
66	0xbe83e510	-0.25760698
67	0xbe6c881d	-0.23098798
68	0xbe686603	-0.22695164
69	0xbe123a77	-0.14280115
70	0xbe8da5bf	-0.27665517
71	0xbe125ab5	-0.14292414
72	0xbe1da863	-0.15396266
73	0xbdf19f42	-0.11797954
74	0xbe339ec7	-0.17541037
75	0xbe955680	-0.29167557
76	0xbe10903f	-0.14117526
77	0xbe51873a	-0.20461741
78	0xbe129757	-0.14315544
79	0xbe4efede	-0.20214412
80	0xbe89f572	-0.26945072
81	0xbe7bdd22	-0.24596074
82	0xbe4b4b74	-0.19853002
83	0xbe347b0c	-0.17625064
84	0xbe26dfdb	-0.16296332
85	0xbdec295f	-0.115313284
86	0xbe13e8bb	-0.14444248
87	0xbd214686	-0.039373897
88	0xbe1be5bb	-0.15224354
89	0xbe376b74	-0.17912084
90	0xbd8df213	-0.069309376
91	0xbce40f06	-0.027839195
92	0xbe2f6e32	-0.1713188
93	0xbe0df1ae	-0.13861725
94	0xbe19de67	-0.15026246
95	0xbda2aab0	-0.07942712
96	0xbdcdd046	-0.10049491
97	0xbe334e59	-0.17510356
98	0xbe562ff4	-0.2091673
99	0xbe39423d	-0.18091674
100	0xbeb44d4c	-0.35215223
101	0xbe863257	-0.2621028
102	0xbe74fffd	-0.23925777
103	0xbe4ffe62	-0.20311883
104	0xbe201d57	-0.15636192
105	0xbe924310	-0.2856679
106	0xbe681691	-0.22664858
107	0xbe353106	-0.17694482
108	0xbe42da78	-0.19028652
109	0xbe59d706	-0.21273431
110	0xbe6d5999	-0.2317871
111	0xbe68b600	-0.22725677
112	0xbe365bab	-0.17808406
113	0xbe332e46	-0.1749812
114	0xbe4af031	-0.19818188
115	0xbc831178	-0.01599954
116	0xbd73dd50	-0.059537232
117	0xbde58418	-0.112068355
118	0xbdfc903a	-0.123321965
119	0xbd8914f0	-0.06693447
120	0xbe23580a	-0.15951553
121	0xbe023f0f	-0.12719367
122	0xbdf84d79	-0.12124152
123	0xbe056bf4	-0.13029462
124	0xbe4f2b10	-0.20231271
125	0xbe03df39	-0.12878121
126	0xbd09edbb	-0.033673983
127	0xbe2ad603	-0.16683201
128	0xbe13b925	-0.14426096
129	0xbdc9c0eb	-0.09851249
130	0xbeb45676	-0.35222214
131	0xbe5ffb44	-0.21873194
132	0xbe0efb55	-0.13963063
133	0xbe4e9c33	-0.20176773
134	0xbe62e95b	-0.2215933
135	0xbde5569c	-0.1119816
136	0xbd6ae1a3	-0.05734409
137	0xbd5e852f	-0.054326233
138	0xbe1044e2	-0.14088777
139	0xbe518099	-0.20459212
140	0xbe89be4d	-0.26903
141	0xbe8ed3df	-0.2789602
142	0xbe681a72	-0.22666338
143	0xbe1b2167	-0.1514946
144	0xbe43bd8f	-0.1911528
145	0xbc48a525	-0.012246405
146	0xbe264fbd	-0.16241355
147	0xbe413bdd	-0.18870492
148	0xbda1e664	-0.07905272
149	0xbda90563	-0.082529806
150	0xbe82825e	-0.25490087
151	0xbe1592e9	-0.14606823
152	0xbe3f5bbf	-0.18687342
153	0xbe2b47af	-0.16726564
154	0xbe40b0b4	-0.18817407
155	0xbd8475b2	-0.06467761
156	0xbcd35dac	-0.025801502
157	0xbd8ba829	-0.068191834
158	0xbd764d1f	-0.060132142
159	0xbdaf992d	-0.08574138
160	0x3d9f3ab4	0.077748686
161	0x3d032503	0.03201772
162	0x3b65a569	0.003504122
163	0xbce95e3c	-0.028487317
164	0x3dc83313	0.09775367
165	0xbbeaa48a	-0.007160728
166	0x3bcfa284	0.006336512
167	0x3df31c99	0.11870689
168	0x3d92821c	0.07153723
169	0x3d880098	0.06640738
170	0x3cdb5e55	0.02677838
171	0x3d56e383	0.052463066
172	0x3cc137eb	0.023586234
173	0x3cb9e145	0.022690425
174	0x3d069e17	0.03286561
175	0xbe7a3d83	-0.24437527
176	0xbe63a025	-0.22229059
177	0xbdc7ae39	-0.09750027
178	0xbdf869d5	-0.12129561
179	0xbd988e7a	-0.0744905
180	0xbe69a29f	-0.22815941
181	0xbe17e6e6	-0.14834175
182	0xbe40ea01	-0.18839265
183	0xbe20f45a	-0.15718213
184	0xbe332242	-0.17493537
185	0x3c8d4b64	0.017247863
186	0x3d62a5a1	0.055333737
187	0xbb8fc3d2	-0.0043873573
188	0xbcd79e60	-0.026320636
189	0x3d9c999e	0.07646488
190	0x3ce8036d	0.028321946
191	0xbb6bb423	-0.0035965524
192	0xbd10bbf0	-0.03533548
193	0xbd28c939	-0.041207526
194	0x3d8f6252	0.07001175
195	0xbe39d6dc	-0.18148369
196	0xbe43fcf8	-0.19139469
197	0xbe021af6	-0.12705597
198	0xbe219023	-0.1577764
199	0xbd8753c3	-0.06607773
200	0xbe14069a	-0.14455643
201	0xbe09ce1b	-0.13457529
202	0xbe6f80cf	-0.2338898
203	0xbdf119f2	-0.11772527
204	0xbda3281d	-0.079666354
205	0x3a4f9e28	0.00079199905
206	0x3cd387c2	0.02582157
207	0x3df1479a	0.11781235
208	0x3d4104f6	0.04712387
209	0x3da9edd1	0.08297313
210	0xbe892af4	-0.26790583
211	0xbe61dc2d	-0.22056647
212	0xbe6a1f8d	-0.22863598
213	0xbdc85435	-0.09781686
214	0xbde381f2	-0.111087695
215	0xbe7950b4	-0.24347192
216	0xbe8fd633	-0.2809311
217	0xbe4f7f4e	-0.20263407
218	0xbe29e9d5	-0.16593106
219	0xbe5a0580	-0.2129116
220	0xbe4b9ec3	-0.19884782
221	0xbe23dc98	-0.16002119
222	0xbe587e5c	-0.21141952
223	0xbe6f611b	-0.23376887
224	0xbe037982	-0.1283932
225	0xbe75fb4e	-0.24021646
226	0xbe6df952	-0.2323964
227	0xbe2fe838	-0.17178428
228	0xbdd41cd2	-0.103570595
229	0xbda5d25f	-0.08096766
230	0xbe4a3370	-0.19746184
231	0xbe887333	-0.2665039
232	0xbe93407d	-0.28760138
233	0xbe6585cb	-0.22414319
234	0xbdc25649	-0.09489114
235	0xbe0c2ddb	-0.13689367
236	0xbe934dd0	-0.28770304
237	0xbe62fc87	-0.22166644
238	0xbe739bcf	-0.23789905
239	0xbe407055	-0.18792851
240	0xbe94dcce	-0.2907471
241	0xbe8b4140	-0.2719822
242	0xbe98ab88	-0.29818368
243	0xbdf88316	-0.12134378
244	0xbe72320d	-0.23651905
245	0x3d150cb4	0.036389068
246	0x3db31fc1	0.08746291
247	0x3c59d591	0.013295547
248	0x3cccad61	0.024985017
249	0xbd4f686e	-0.0506367
250	0x3da9090a	0.08253677
251	0x3dc91737	0.09818881
252	0x3b9068dc	0.0044070315
253	0x3d34b774	0.044120267
254	0x3d966ade	0.07344602
255	0x3da5530b	0.0807248

conv3.bias f4 [32]
0	0x3e056869	0.1302811
1	0xbd5c3419	-0.05376062
2	0x3d63d220	0.055620313
3	0xbde552a3	-0.11197402
4	0x3cf93a7e	0.030423399
5	0xbdfc4a01	-0.123188026
6	0xbcde4cc5	-0.027136216
7	0xbd1e39f6	-0.038629495
8	0x3baf82f8	0.005356189
9	0x3d04fd13	0.032467913
10	0xba8f6469	-0.0010939959
11	0xbdb8fdd6	-0.0903279
12	0xbd21afb0	-0.03947419
13	0xbda52f72	-0.0806569
14	0xbd7445d7	-0.059636917
15	0x3e274e6c	0.1633851
16	0x3d9dc1ba	0.07702966
17	0xbc84e76d	-0.016223634
18	0xbc783620	-0.015149623
19	0x39ed5d9f	0.00045273916
20	0x3d91399e	0.07091068
21	0xbd14163b	-0.036154013
22	0x3c761dde	0.015021769
23	0x3d854a8e	0.06508361
24	0x3d3f6461	0.04672659
25	0xbdb12aa1	-0.08650709
26	0xbda8d50e	-0.08243762
27	0x3d8c69ae	0.06856094
28	0x3c3404f1	0.010987506
29	0xbad98dab	-0.0016598006
30	0x3d65d2a8	0.0561091
31	0x3d8f70f6	0.070039675

batch2.weight f4 [32]
0	0x3f966b13	1.1751426
1	0x3ef529a0	0.4788332
2	0x3f16f8e0	0.58973503
3	0x3f811cce	1.0086915
4	0x3f601739	0.87535435
5	0x3f98429c	1.1895328
6	0x3f7e7e52	0.994115
7	0x3f62697d	0.8844221
8	0x3f6ef3a6	0.9334053
9	0x3f89b437	1.0758122
10	0x3f479695	0.77964145
11	0x3f4074c4	0.7517817
12	0x3f9909c5	1.1956106
13	0x3f2ee3ce	0.6831635
14	0x3f4bbe3b	0.79587144
15	0x3f9c3618	1.2204008
16	0x3f8fdc82	1.1239169
17	0x3f440ea0	0.76584816
18	0x3f93f378	1.1558676
19	0x3fa0d461	1.2564813
20	0x3f80fcf0	1.007719
21	0x3f85f408	1.0465097
22	0x3f8cbcc6	1.0995109
23	0x3f6c3c0d	0.9227913
24	0x3f8a24a8	1.0792437
25	0x3f1af5b9	0.60531193
26	0x3f7db704	0.99107385
27	0x3f606ff6	0.8767084
28	0x3ee4de6c	0.44700944
29	0x3f41b4a9	0.7566629
30	0x3f803414	1.0015893
31	0x3f85ac1b	1.0443147

batch2.bias f4 [32]
0	0x3e746462	0.23866418
1	0xbeea63fc	-0.45779407
2	0xbe621c8a	-0.220812
3	0x3dddec65	0.10836104
4	0xbe323d5d	-0.1740622
5	0xbd818787	-0.06324678
6	0x3daa0fe9	0.08303816
7	0xbd1c3154	-0.03813298
8	0x3d286b69	0.04111806
9	0x3d9c9878	0.076462686
10	0xbdfb8641	-0.12281466
11	0xbe02ac00	-0.12760925
12	0x3d3d74e5	0.046254057
13	0xbe6af15f	-0.22943638
14	0xbe156f07	-0.14593135
15	0x3e88a69d	0.26689616
16	0x3e11c560	0.14235449
17	0xbdf1b8e6	-0.11802845
18	0x3df4b0a9	0.11947758
19	0x3d0c82f2	0.034304567
20	0x3d8e3b05	0.06944851
21	0x3d56c6dd	0.052435745
22	0x3d1a47eb	0.037666243
23	0x3d17c928	0.037057072
24	0xbde33e89	-0.11095912
25	0xbec3443c	-0.38137996
26	0x3dac2d45	0.08407072
27	0xbda442c1	-0.08020545
28	0xbed112fe	-0.40834802
29	0xbe758fc5	-0.23980625
30	0x3d9175f9	0.071025796
31	0x3dbddf5e	0.092711195

batch2.running_mean f4 [32]
0	0xc10beaf3	-8.744861
1	0xc08bde28	-4.3708687
2	0xc0a05782	-5.010682
3	0xc10c815e	-8.781584
4	0x40108214	2.2579393
5	0x40df294d	6.9737916
6	0xc0c2338d	-6.068793
7	0xc121b6f9	-10.107171
8	0xc0ee3ae0	-7.444687
9	0xc0d762d7	-6.7308154
10	0xc0cb9651	-6.362099
11	0xc067c453	-3.6213577
12	0x40e56fd6	7.169902
13	0xc0a267a2	-5.0751505
14	0xc09ee68f	-4.9656444
15	0xc0ead114	-7.338022
16	0xc0c99acb	-6.3001456
17	0xc07915a9	-3.891947
18	0x40de7548	6.9518166
19	0x4100259a	8.00918
20	0xc0de330c	-6.9437313
21	0x40680b42	3.6256871
22	0x4061324d	3.518695
23	0xc0f33a34	-7.600855
24	0x4102a067	8.164161
25	0xc0ad78f5	-5.4210153
26	0xc10fae2d	-8.980023
27	0xc088b83d	-4.27249
28	0xc0586fec	-3.3818312
29	0xc02df677	-2.718168
30	0x407acb3a	3.918654
31	0xc0e11c78	-7.034725

batch2.running_var f4 [32]
0	0x41928a33	18.31748
1	0x421a2310	38.53424
2	0x428b9b0d	69.80283
3	0x41e39768	28.448929
4	0x42223379	40.550266
5	0x41d7828b	26.938742
6	0x4285f78c	66.98349
7	0x41d0065e	26.003109
8	0x429934bd	76.603004
9	0x4209cd13	34.450268
10	0x425fe55f	55.973995
11	0x420eb6bf	35.678463
12	0x41558157	13.344077
13	0x428faf88	71.842834
14	0x429ec1a5	79.37821
15	0x41461607	12.380378
16	0x421e3a6f	39.557064
17	0x41e12278	28.14183
18	0x42106ea7	36.10806
19	0x42a52291	82.56751
20	0x427b758d	62.864796
21	0x4170e96e	15.05699
22	0x42d31785	105.54594
23	0x43151905	149.09773
24	0x42861867	67.04766
25	0x42081c4f	34.027645
26	0x42a6752b	83.22884
27	0x41ce2608	25.76857
28	0x429ed772	79.42079
29	0x420a1a9b	34.52598
30	0x4238d06a	46.20353
31	0x426ec5f0	59.6933

fc1.weight f4 [50, 3136]
0	0xbe1e0079	-0.15429868
1	0xbe32a0f2	-0.17444208
2	0xbe202235	-0.15638049
3	0xbdf9a823	-0.12190273
4	0xbe08f94f	-0.13376354
5	0xbdfaa286	-0.1223803
6	0xbe15c529	-0.14625992
7	0xbe1a310e	-0.15057775
8	0xbe27062d	-0.1631095
9	0xbe32462f	-0.17409585
10	0xbe2adae5	-0.16685064
11	0xbe2bd052	-0.16778687
12	0xbe1784de	-0.14796779
13	0xbe27cd9e	-0.1638703
14	0xbe0db518	-0.13838613
15	0xbe173f77	-0.14770304
16	0xbdb8dba2	-0.09026267
17	0xbd7b95cc	-0.061422154
18	0xbce4d2ee	-0.02793261
19	0xbc8b653d	-0.017016048
20	0xbbef59f6	-0.0073044254
21	0xbcd83965	-0.026394555
22	0xbc4bbd8d	-0.012435329
23	0x3c63e413	0.013909358
24	0x3cf38f6b	0.029731473
25	0x3d9eaf51	0.07748283
26	0x3db7d5e9	0.08976347
27	0x3dc9ba41	0.09849978
28	0x3da903dc	0.08252689
29	0x3d940c2e	0.072288856
30	0x3d1ba304	0.03799726
31	0xbccd17a9	-0.025035696
32	0xbd2ee4c2	-0.04269863
33	0xbdcdf1af	-0.10055863
34	0xbdde05af	-0.10840928
35	0xbddf443d	-0.10901687
36	0xbdf8d45f	-0.121498816
37	0xbe0bd77d	-0.13656421
38	0xbde13e1f	-0.10998177
39	0xbd9fa812	-0.07795729
40	0xbd92e09a	-0.071717456
41	0xbd8e5bbc	-0.06951091
42	0xbd926e61	-0.07149959
43	0xbde548a7	-0.11195498
44	0xbe2d7663	-0.16939692
45	0xbe41ed1a	-0.18938103
46	0xbe421986	-0.18955049
47	0xbe5175bf	-0.20455073
48	0xbe813a17	-0.25239632
49	0xbe5d815c	-0.21631378
50	0xbe380727	-0.17971478
51	0xbe196492	-0.14979771
52	0xbddb4078	-0.10705656
53	0xbde2a8db	-0.11067363
54	0xbdf1461f	-0.11780953
55	0xbe038673	-0.12844257
56	0xbe08084d	-0.13284416
57	0xbdc06d8c	-0.093958944
58	0xbda0230e	-0.07819186
59	0xbd95a744	-0.07307294
60	0xbd144fe2	-0.036208995
61	0xbd01cd0b	-0.031689685
62	0xbd12f6db	-0.03587995
63	0xbcaf4798	-0.021396443
64	0xbcd437e0	-0.02590555
65	0x3bc44383	0.0059894933
66	0x3cf0b76e	0.029384341
67	0xbca12d11	-0.01967481
68	0xbc77729f	-0.015103011
69	0xbd55f545	-0.05223586
70	0xbdb6ce18	-0.08926028
71	0xbe113687	-0.14180957
72	0xbe651b2c	-0.22373646
73	0xbe6f6ecb	-0.23382108
74	0xbe7ff7ef	-0.24996923
75	0xbe573222	-0.21015218
76	0xbe4149f5	-0.18875869
77	0xbe1c5db9	-0.15270127
78	0xbe001f89	-0.1251203
79	0xbdde9fed	-0.10870347
80	0xbe16ab75	-0.14713843
81	0xbe1230b6	-0.14276394
82	0xbe20fd58	-0.15721643
83	0xbe3d3b46	-0.18479642
84	0xbe2cf188	-0.16889012
85	0xbe2de78a	-0.16982856
86	0xbe14b12d	-0.14520712
87	0xbe239e65	-0.15978391
88	0xbe0b553f	-0.13606738
89	0xbd93c24b	-0.07214793
90	0xbd097ddd	-0.0335673
91	0xbcd722d0	-0.026261717
92	0xbb0d6ea8	-0.002158085
93	0xbc8bba8a	-0.017056722
94	0xbcbe2e17	-0.023215337
95	0xbd3a71e3	-0.045518767
96	0xbd857cab	-0.06517919
97	0xbdcaf9b0	-0.09910905
98	0x3dd4851c	0.10376951
99	0x3d609773	0.054831933
100	0x3d8d8022	0.06909205
101	0x3d9496e7	0.07255345
102	0x3d965596	0.07340543
103	0x3da9cc05	0.08290867
104	0x3dc30192	0.09521784
105	0x3dcc2a1d	0.0996897
106	0x3dc67039	0.096893735
107	0x3da9b0fc	0.0828571
108	0x3d7c8c50	0.06165725
109	0x3d2ee7a1	0.042701367
110	0x3d69796e	0.05700057
111	0x3d5b117b	0.053483468
112	0x3da79424	0.081825525
113	0x3d993bfc	0.07482144
114	0x3d8a4b19	0.06752605
115	0x3d9b16ae	0.07572685
116	0x3dabb11e	0.08383392
117	0x3dcaea5a	0.0990798
118	0x3dc54e20	0.09634042
119	0x3de53c76	0.11193173
120	0x3da0b96c	0.078478664
121	0x3d98163c	0.07426116
122	0x3d8d715e	0.06906389
123	0x3d89c99b	0.06727906
124	0x3d9b3283	0.07577994
125	0x3da8de19	0.08245487
126	0x3ddde97d	0.1083555
127	0x3df8b3bf	0.12143659
128	0x3dfe6bba	0.12422891
129	0x3daf9adc	0.08574459
130	0x3dc9aae0	0.09847045
131	0x3dac39f6	0.08409493
132	0x3d842ca8	0.0645383
133	0x3d84db88	0.06487185
134	0x3cd88123	0.026428765
135	0x3c81494c	0.015782021
136	0x3c8de1ef	0.017319648
137	0xbd162e9f	-0.036665555
138	0xbd5a8dff	-0.053358074
139	0xbd01f379	-0.031726334
140	0xbcbaacf4	-0.022787549
141	0xbcac2ff0	-0.021018952
142	0x3c043b9b	0.008070852
143	0xbaf4dc9d	-0.001868147
144	0x3c4b09be	0.012392459
145	0x3d0d3172	0.034470983
146	0x3d52b5ca	0.0514429
147	0x3d6b30e4	0.057419673
148	0x3d3f053e	0.04663586
149	0x3cd0fdc8	0.025511637
150	0x3cb5c507	0.022188677
151	0x3d64ad16	0.05582913
152	0x3d11bc53	0.03557999
153	0x3cdbaf5e	0.02681702
154	0x3d0c3bf0	0.03423685
155	0xbbabcb4e	-0.0052427417
156	0x3c82c66e	0.01596376
157	0xbae3e2be	-0.00173863
158	0x3c1e5496	0.009663722
159	0x3d35566d	0.044271875
160	0x3cfff91c	0.031246714
161	0x3c953ad1	0.018216522
162	0x3b1504b2	0.0022738394
163	0xbcd78f68	-0.026313499
164	0xbc8d982d	-0.017284477
165	0x3c99b8db	0.018764904
166	0x3c5417e9	0.012945154
167	0x3d2fe273	0.04294057
168	0x3d4d7181	0.050157074
169	0x3d60057c	0.05469273
170	0x3d2c90cc	0.042130277
171	0x3c9225fa	0.017840374
172	0x3c09f718	0.008420728
173	0xbc0fd4fc	-0.008778807
174	0x3c81e6d6	0.015857141
175	0x3cb2aa09	0.021809595
176	0x3ab67a24	0.0013921899
177	0x3c7c1407	0.015385634
178	0xbb4a22f0	-0.0030843578
179	0xbd1b536c	-0.037921354
180	0x3ca5be24	0.020232268
181	0x3ce585cd	0.028017903
182	0xbb931993	-0.0044891327
183	0xbc8814f9	-0.016611563
184	0x3be0e26b	0.0068629286
185	0x3c503476	0.01270782
186	0x3bae721b	0.005323661
187	0x3bc4ecb9	0.006009665
188	0x3d02f5b8	0.031972617
189	0x3d8d5727	0.069013886
190	0x3d990201	0.07471085
191	0x3dd5126f	0.104039066
192	0x3dd5fd06	0.10448651
193	0x3deac9a3	0.114642404
194	0x3dcb0305	0.09912685
195	0x3dc7bd40	0.097528934
196	0xbd0a6ace	-0.033793263
197	0xbc938e38	-0.018012151
198	0xbb1ac83a	-0.002361788
199	0xbcaf3bb5	-0.021390775
200	0xbc929d57	-0.017897291
201	0xbd2ac3c4	-0.041690603
202	0xbd9293a6	-0.07157068
203	0xbddda850	-0.10823119
204	0xbdfcc27b	-0.12341782
205	0xbdd64019	-0.104614444
206	0xbdfddf81	-0.123961456
207	0xbd81ec7e	-0.063439354
208	0xbd8f5151	-0.06997932
209	0xbd81dbb0	-0.0634073
210	0xbd2a6a2e	-0.041605167
211	0xbd4b8f87	-0.049697425
212	0xbcf19033	-0.029487705
213	0xbce7c094	-0.02829007
214	0x3b8c8e37	0.0042894143
215	0x3ca21189	0.019783752
216	0x3ba9d20a	0.0051825093
217	0x3b4d7de3	0.0031355552
218	0xbbbe30cc	-0.005804157
219	0xbb11bc47	-0.0022237466
220	0x3ca81f48	0.020522729
221	0x3d24efbc	0.04026769
222	0x3d8363d9	0.06415529
223	0x3d93b7c7	0.07212787
224	0x3d827d98	0.06371611
225	0x3d7d6e66	0.061872862
226	0x3cc0dcbc	0.023542754
227	0x3c176be2	0.00924203
228	0x3c3c0f50	0.01147826
229	0xbbf98cdc	-0.0076156687
230	0xbd0e1460	-0.0346874
231	0xbd7f50ff	-0.062333103
232	0xbddee128	-0.10882789
233	0xbde8e6c1	-0.11372138
234	0xbe04c286	-0.1296483
235	0xbde1069e	-0.1098759
236	0xbdfd66a8	-0.12373096
237	0xbd8d86bf	-0.069104664
238	0xbd881748	-0.066450655
239	0xbd45f2fb	-0.048327427
240	0xbcdbd3af	-0.026834337
241	0xbc411a35	-0.011786033
242	0xbc0fdcb6	-0.008780649
243	0xbce08350	-0.027406365
244	0xbd1d87e0	-0.03845966
245	0xbd330571	-0.04370636
246	0xbb8d20d4	-0.004306892
247	0x3c1e0c91	0.009646551
248	0x3cf0b10a	0.029381294
249	0x3d389c9f	0.04507124
250	0x3c4adadc	0.012381282
251	0xbbe559df	-0.006999239
252	0x3bbc0a3c	0.0057385247
253	0x3b3385d5	0.0027393003
254	0xbcefcc8e	-0.029272344
255	0xba7fcaea	-0.00097577146

fc1.bias f4 [50]
0	0x3d3e9de3	0.04653729
1	0x3ca661a2	0.020310227
2	0xbccf867c	-0.025332682
3	0xbb66a59b	-0.0035193923
4	0xbc7ba39e	-0.015358834
5	0xbd83bb55	-0.06432215
6	0x3d0a3094	0.033737734
7	0x3a3591cd	0.0006926328
8	0x3bf8abf2	0.007588857
9	0x3ceef38d	0.029168868
10	0x3d13950e	0.03603082
11	0x3e008bec	0.12553376
12	0x3d981362	0.07425572
13	0xbd0b9585	-0.03407814
14	0x3bdc1fdf	0.0067176665
15	0xbc4306dd	-0.011903492
16	0xbd035ea3	-0.032072674
17	0x3c97a1e8	0.01850982
18	0x3ce81090	0.02832821
19	0xbc3425cf	-0.010995342
20	0x3c4b4b34	0.012408067
21	0xbcc045c7	-0.023470772
22	0x3c06405a	0.008194054
23	0x3d978bc1	0.07399703
24	0x3d077fd9	0.03308091
25	0x3cf7fef1	0.030272933
26	0x3cc8f23c	0.024529569
27	0xbbad668e	-0.0052917665
28	0x3c644f55	0.01393493
29	0xbe07d3e3	-0.13264422
30	0x3cfd4592	0.030916963
31	0x3d4bae1b	0.049726587
32	0xbc9100eb	-0.017700633
33	0xbc927cd7	-0.017881794
34	0x3c2ba903	0.010477307
35	0x3a9ae09a	0.0011816204
36	0x3ae529a4	0.0017483723
37	0xbd572a9f	-0.05253088
38	0x3b9fd408	0.004877571
39	0xbdc73197	-0.097262554
40	0x3c299e8f	0.010352745
41	0xbc95c23b	-0.018281093
42	0x3d4b94e2	0.049702533
43	0xbd4597d6	-0.048240505
44	0x39c7e5b3	0.00038127377
45	0xbd28ae2d	-0.041181732
46	0x3ccd6831	0.025074096
47	0x3d491697	0.04909381
48	0xbca9c59c	-0.02072411
49	0x3ce0c949	0.02743973
