DOMAIN_ADAPTION/experiments/feature=D:I_soll_X_GAMMA=0.5_GAMMA_reduction1.0_num_pool=2_[True, True, False, True, True, True]_exp_3/best_model/model_cnn.pt (torch, 762095 bytes, 16 tensors)

conv1.weight f4 [64, 1, 100]
000000 0c 41 3d 3d 10 f0 dc 3d 7a 42 ee 3d f8 29 df 3d
       0.04620461 0.10787976 0.11633773 0.10896677
000010 e1 01 e8 3d ba cc 94 bb a6 82 56 3d 5f f4 e3 3d
       0.113284834 -0.004541007 0.05237069 0.111305945
000020 5f c3 78 bd 29 2a 9a 3d 04 4b 00 3d c3 60 12 3c
       -0.060733195 0.07527573 0.03132154 0.008934203
000030 77 42 c1 3d 19 5e 5b bd b5 36 32 bd 2c 4e cf bd
       0.09436505 -0.053556535 -0.043509204 -0.10122332
000040 44 ad 53 3d 29 31 d6 bd 01 97 43 3d ad 6d 00 be
       0.05167891 -0.10458595 0.04775143 -0.12541838
000050 8a a2 75 3b 31 b5 e7 bd 41 3b 97 3c cb a2 0a be
       0.0037480914 -0.113138564 0.018460872 -0.13538663
000060 5a f4 13 be 69 19 f1 bd 65 f2 2c be 5a e1 8f bb
       -0.14448681 -0.11772425 -0.16889341 -0.0043908777
000070 e9 d1 95 bd 65 5c 27 be 4b 77 44 be 64 b4 22 be
       -0.07315428 -0.1634384 -0.19186132 -0.15889126
000080 58 4a e4 bd 78 fb 3e be 62 1b bd bd 50 31 4b be
       -0.111469924 -0.18650615 -0.092337385 -0.1984303
000090 df 91 07 be ee 59 c9 bd c6 b2 74 be ee 2e 85 be
       -0.13239239 -0.09831606 -0.23896322 -0.26012367
0000a0 b3 03 94 be 91 37 31 be b8 a2 01 be 82 1d 90 be
       -0.28909072 -0.17306353 -0.12659729 -0.28147513
0000b0 8b 1c 6d be 41 ec 2f be 27 42 2f be 96 84 46 be
       -0.2315542 -0.17179967 -0.17115079 -0.19386515
0000c0 d6 24 68 be 17 00 82 be 3c 48 89 be c6 2d 51 be
       -0.22670302 -0.25390694 -0.26812923 -0.20427617
0000d0 14 73 9a be 4e 13 89 be a5 21 a8 be 2e 2e 83 be
       -0.30165923 -0.2677254 -0.3283817 -0.2562117
0000e0 69 a9 dd be 83 2b c1 be 16 e7 ea be 1d e5 b2 be
       -0.43293312 -0.3772851 -0.4587943 -0.34940425
0000f0 12 02 d1 be 5c 34 f4 be 86 40 f6 be 02 19 cc be
       -0.40821892 -0.47696197 -0.48096102 -0.3986283
000100 0c b8 be be c0 16 bd be 00 cd c8 be 0f ba 0c bf
       -0.37249792 -0.3693142 -0.39218903 -0.549714
000110 55 56 ca be 58 3b c4 be ab 06 f3 be 88 87 12 bf
       -0.3951899 -0.38326526 -0.47466025 -0.57238054
000120 96 7c 0d bf 67 f1 09 bf 7b 21 cd be fc dd 9f be
       -0.5526823 -0.53883976 -0.40064606 -0.31224048
000130 e6 b7 a8 be a4 c9 df be 23 5b d0 be 8a 44 a0 be
       -0.32952803 -0.43708527 -0.40694532 -0.3130229
000140 bd f7 c1 be 6c 2b a7 be d0 9c 88 be 8c 8f 9c be
       -0.37884322 -0.32650316 -0.26682138 -0.30578268
000150 ee 96 66 be cf 8c 87 be ab 76 0e be 7d b9 9b be
       -0.22518513 -0.26474616 -0.13912456 -0.30414954
000160 1a ca f3 bd 06 e3 ec bd c4 b0 8a be cb 04 14 be
       -0.11903782 -0.11566739 -0.27087986 -0.14454953
000170 ae 57 20 be 01 1b b2 bd eb 76 4e bd d4 af 24 be
       -0.15658447 -0.08696557 -0.050406378 -0.16082698
000180 bd b7 25 be 46 8b 24 be a5 be f1 3b 9b f1 13 be
       -0.16183372 -0.16068754 0.007377463 -0.14447634
000190 31 0f ad 3b 4a a1 31 3e fc bf 0b 3e 25 c4 24 3e
       0.005281352 0.17346683 0.13647455 0.16090448
0001a0 39 7a 44 3e c5 ab 63 3c 6e a5 a1 3d 80 b6 ee 3d
       0.19187249 0.0138959335 0.07892881 0.11655903
0001b0 89 45 60 3e 0f 1e c7 3d 13 08 06 3e 0f c1 4c 3e
       0.21901526 0.0972253 0.13089018 0.19995521
0001c0 e9 70 4d 3e 34 c1 c2 3d 11 8c 8f 3d 35 32 fb 3d
       0.20062603 0.09509507 0.070091374 0.122654356
0001d0 75 67 52 3e 98 74 8a 3e 94 5d 65 3e ad f7 80 3e
       0.20547278 0.2704208 0.22398978 0.25188962
0001e0 82 a9 63 3e de 23 2a 3e 09 40 41 3e 12 0d 95 3e
       0.22232631 0.16615245 0.18872084 0.29111534
0001f0 4c 4a 67 3e f9 a4 72 3e da dc 8e 3e da d4 96 3e
       0.22586936 0.23695745 0.2790287 0.29459268
000200 1a aa 84 3e 67 b7 61 3e 8f e6 3b 3e 6e 83 38 3e
       0.25911027 0.22042619 0.1834967 0.18018886
000210 06 db 44 3e ca 6c a3 3e 82 06 a8 3e 48 53 4c 3e
       0.19224176 0.31918937 0.32817465 0.19953644
000220 c0 01 aa 3e 8d 7c 6c 3e 08 92 6d 3e 47 b1 91 3e
       0.3320446 0.23094387 0.23200238 0.28455564
000230 8a b3 37 3e 70 7e 52 3e 7c 5d 79 3e 92 17 6d 3e
       0.17939582 0.20556045 0.24352068 0.23153523
000240 3d 2e a2 3e fa 5c 75 3e e9 e9 3a 3e 86 21 38 3e
       0.31675902 0.23961249 0.18253292 0.17981538
000250 10 cd b4 3e b1 9e 9c 3e a5 a5 2c 3e c3 a1 39 3e
       0.353127 0.30589822 0.16860063 0.18128113
000260 a4 e2 4c 3e dc 1b b4 3e 5d cd 9c 3e f7 8f 93 3e
       0.20008332 0.35177505 0.3062543 0.28820774
000270 bc 51 a1 3e de e0 87 3e bd 79 a3 3e 8a 00 2e 3e
       0.3150767 0.26538748 0.31928816 0.16992393
000280 1b 71 a4 3e dd 27 93 3e fa 43 8c 3e 75 fa 96 3e
       0.32117543 0.2874135 0.27395612 0.2948796
000290 78 fd 56 3e 7c 5b 3c 3e ee 31 49 3e 2e 61 13 3e
       0.20995128 0.18394274 0.19647953 0.1439254
0002a0 49 e2 5e 3e 89 9d 85 3e 0d d9 66 3e 2d 79 4e 3e
       0.21766008 0.26096752 0.22543736 0.20163412
0002b0 be 0b 6e 3e 05 f1 c8 3d e4 7d fe 3d 9f ff c1 3d
       0.23246667 0.09811596 0.124263555 0.09472584
0002c0 46 f9 8b 3e 41 63 a8 3d 3b d4 5a 3e 98 ba 6b 3e
       0.27338618 0.08222056 0.21370022 0.23020399
0002d0 03 fa 04 3e 78 f2 08 3e 15 42 63 3e e3 9f 69 3d
       0.12985997 0.13373744 0.22193177 0.057037245
0002e0 19 8a 05 3d f4 24 e0 3d 54 92 de 3d 70 fa 9d 3d
       0.032602403 0.10944548 0.108677536 0.07713783
0002f0 e6 c3 f5 3d c1 fb 1f 3e 6f b3 17 3e 77 8a f7 3d
       0.12000255 0.1562338 0.14814542 0.12086957
000300 d7 33 22 3e 79 26 10 3d e2 fd ad 3d 26 06 dd 3d
       0.15840088 0.03519294 0.0849569 0.10792188
000310 f5 e5 cb 3d 54 5f d9 3c a8 ab 0c 3e c6 c2 db bc
       0.0995597 0.026534714 0.13737357 -0.026826274
000320 bb 21 6a 3e 3f 48 34 3e b3 44 8a 3e 9a 3e 2b 3e
       0.2286443 0.17605685 0.27005538 0.167231
000330 72 d3 9e 3e b0 9f 24 3e 47 df 74 3e 2b 39 9c 3e
       0.31020695 0.16076541 0.23913299 0.30512366
000340 4b 84 96 3e 42 d7 5e 3e 16 00 5b 3e 41 34 42 3e
       0.29397807 0.21761802 0.21386752 0.18965246
000350 dc 84 5a 3e e4 85 0d 3e 9a 3a 81 3d 8b 6a 5f 3e
       0.21339744 0.13820606 0.063100055 0.21817987
000360 3e d9 39 3d 42 11 5b 3e 9b 82 e1 3d 60 9d 10 3e
       0.045373194 0.21393302 0.11011239 0.14122534
000370 7c 87 bd 3d f7 b1 fd 3d 1e 6c 10 3e 31 5e ff bc
       0.09254357 0.1238746 0.14103743 -0.031172844
000380 34 ae df 3d 24 7d 55 3c 79 8e 60 bd 70 89 56 bd
       0.109218985 0.013030324 -0.054823373 -0.052377164
000390 bd 2d 11 3d 28 2c cb 3d d3 a6 b9 bd 50 6b e2 3c
       0.03544401 0.099205315 -0.09065022 0.027639061
0003a0 ec a6 1b 3d 1d 88 db bd 49 ad 3d b9 49 f5 99 bd
       0.038000986 -0.10719321 -0.00018088998 -0.075174876
0003b0 c6 04 be bc 0e 41 a8 bd 10 75 20 3d 3c f0 16 be
       -0.023195636 -0.08215533 0.03917414 -0.1474008
0003c0 44 fa 97 bc 56 b0 d7 bd db 86 3e bd 97 e8 9f bd
       -0.018551953 -0.1053168 -0.046515327 -0.07808035
0003d0 74 79 3b be a8 98 14 be fe 84 d5 bd c4 5a d8 bd
       -0.1830805 -0.14511359 -0.10425757 -0.10564187
0003e0 63 7b 2c be 87 8a 90 bd 4b 99 34 be c6 48 44 be
       -0.16843943 -0.07057672 -0.17636602 -0.19168386
0003f0 53 34 d2 bd 92 fa 20 be e2 0a 03 be 55 b5 da bd
       -0.10263886 -0.15720585 -0.1279712 -0.106791176

conv1.bias f4 [64]
000000 48 fe 70 bf 08 44 6e be 06 c3 76 be fc c0 19 be
       -0.94138 -0.2326814 -0.24097833 -0.15015024
000010 2e 30 82 be 21 d4 a1 be 60 fc c1 be 44 f6 2c bf
       -0.25427383 -0.31607154 -0.3788786 -0.6756327
000020 57 a4 8a bf 43 a1 11 be bc 45 92 be e2 34 aa bd
       -1.0831403 -0.14221673 -0.28568828 -0.08310868
000030 47 9e 2e be b1 22 0d be a3 01 28 bf 1e ca 7b be
       -0.17052566 -0.13782765 -0.656275 -0.2458882
000040 0a 4c e7 be 09 11 0e bf 5d 42 13 bf 00 44 27 be
       -0.451752 -0.55494744 -0.5752314 -0.16334534
000050 b6 3b 48 bd b8 76 13 bf 2d 00 2c 3d f8 95 e1 3d
       -0.04888507 -0.57603025 0.041992355 0.110149324
000060 9d 43 a1 3d 56 53 6b be 26 7f c9 bd a7 89 05 be
       0.07874224 -0.22981009 -0.09838705 -0.13040791
000070 0a 02 31 3b ab d6 66 be 87 e1 46 be 9e b3 d5 bd
       0.0027009272 -0.22542827 -0.1942197 -0.1043465
000080 c8 62 16 be e5 a2 d9 bd ef 47 f0 be 7e cc 85 bd
       -0.1468612 -0.10626773 -0.4692988 -0.065331444
000090 3c 99 81 be a9 77 23 be 26 5d 05 bf 36 b1 cf be
       -0.2531222 -0.15963615 -0.5209526 -0.4056489
0000a0 2f 15 8d be 75 03 3a bf 17 0a 2e be ee 9c b6 be
       -0.27555224 -0.72661525 -0.16996036 -0.35666603
0000b0 54 e6 21 bf 94 18 69 be 86 01 ff be 3b 42 33 bf
       -0.6324208 -0.22763282 -0.4980585 -0.70022935
0000c0 6d 3a fd bd a3 a6 eb be 92 94 92 be d6 c2 07 bf
       -0.123646595 -0.4602557 -0.28628975 -0.5303167
0000d0 8b 37 74 be 13 96 99 be c9 05 10 bf 39 d9 3d be
       -0.23849313 -0.2999731 -0.5625883 -0.18539895
0000e0 88 53 e8 be 9e fc 35 be 59 e8 0e bd 8d 31 a7 be
       -0.4537623 -0.17772147 -0.034889553 -0.32654992
0000f0 05 ab c2 be f1 e1 de be 97 28 7f be b2 ef 78 be
       -0.38021103 -0.43531755 -0.24917828 -0.24310187

conv2.weight f4 [32, 64, 10]
000000 f8 66 9c 3d b5 ce a1 3d 30 c7 ad 3d b5 88 b7 3d
       0.07636827 0.07900754 0.084852576 0.08961622
000010 11 2c d2 3d 53 96 f8 3d 17 9a 74 3d 07 e8 08 3e
       0.10262311 0.12138047 0.059717264 0.13369761
000020 f3 b8 0f 3e 45 28 a6 3d b4 f1 0b 3e 18 44 01 3e
       0.14035396 0.081131496 0.13666421 0.12623632
000030 89 2f b6 3d 92 68 f1 3d b9 62 d9 3d 1b 0b 18 3e
       0.08895785 0.11787523 0.10614533 0.14847986
000040 54 ec cb 3d d4 78 de 3d 97 e9 18 3e f2 16 bf 3d
       0.099571854 0.1086289 0.14932857 0.09330548
000050 33 a2 d4 3c 76 c5 c4 3d cc a2 8c 3d c1 eb a2 3d
       0.025956249 0.09607975 0.068669885 0.07955123
000060 62 50 95 3d b8 9a 4d 3d bc 1e a1 3d 7a 30 b0 3d
       0.072907224 0.05019638 0.0786719 0.08602996
000070 0d e2 93 3d 45 f7 bc 3d 54 dd 3f 3e 7e 6b 66 3e
       0.0722085 0.092268504 0.18736774 0.22501943
000080 b5 dc 74 3e 98 2b 47 3e f0 3b 69 3e b1 ec 35 3e
       0.23912318 0.19450223 0.2277677 0.17766072
000090 4d a2 23 3e 2a ad 31 3e fc 32 44 3e c4 e8 22 3e
       0.15979882 0.17351213 0.19160074 0.15909106
0000a0 42 8b a9 bd 8c a7 00 bd 97 c2 2e bd 30 76 a9 bd
       -0.082785144 -0.031409785 -0.042666044 -0.082744956
0000b0 f3 a3 49 bd b9 5b 51 bd a9 42 3e bd 89 45 70 bd
       -0.04922862 -0.051112864 -0.04645029 -0.058660064
0000c0 47 26 c3 bc d0 d0 ae bd 99 07 b9 3d 93 d4 ce 3d
       -0.023821963 -0.085359216 0.09034652 0.10099139
0000d0 42 8a 9d 3d 8f e4 bc 3d 02 8b 6c 3d ff 09 c6 3d
       0.07692386 0.092232816 0.057749756 0.09669875
0000e0 f6 96 cb 3d 6c 4f bc 3d 48 98 7b 3d 32 46 f3 3d
       0.09940903 0.09194836 0.061424524 0.11878623
0000f0 df a9 aa 3d fb d7 11 3e 8d bc 13 3e 32 54 12 3e
       0.083331816 0.14242546 0.14427395 0.1428993
000100 0c 15 13 3e 4e 92 14 3e 13 e6 ee 3d 34 0f 0d 3e
       0.14363497 0.14508936 0.11664977 0.13775331
000110 3f e2 e1 3d b2 bc ec 3d f6 f4 2d 3d 3e d9 8c 3d
       0.11029481 0.11559428 0.04246994 0.06877373
000120 fe f5 a2 3d 97 4f 99 3d 25 1a 53 3d 47 ac d8 3d
       0.079570755 0.07485884 0.051538605 0.10579734
000130 27 c9 d5 3d 0c 48 25 3d 9a 0a 8a 3c 13 88 2d 3a
       0.104387574 0.040351912 0.016850758 0.0006619703
000140 d2 b2 0b 3e 67 6f 03 3e 24 a7 f2 3d 5f 17 e4 3d
       0.13642433 0.12835465 0.11848286 0.1113727
000150 c0 3d 04 3e ae ce d6 3d 62 f8 2f 3e ba ab d7 3d
       0.12914181 0.1048864 0.17184594 0.10530801
000160 10 61 1b 3e b1 1e cd 3d 0c c7 95 3b 5b 75 33 bc
       0.15173745 0.100156195 0.0045708474 -0.010953273
000170 9e 78 0e 3b 6e dd 86 bc 68 68 2e bc c3 39 42 bb
       0.0021739374 -0.016463008 -0.01064501 -0.002963648
000180 17 c5 44 3c ab a3 ca bc 62 7f 16 3c 9a 18 4c bd
       0.0120098805 -0.024736246 0.009185644 -0.04982815
000190 b0 b8 a6 bd 12 ee a2 bd d3 85 a5 bd d8 a3 0a bd
       -0.08140695 -0.079555646 -0.080821656 -0.03384766
0001a0 13 fb a3 bc 25 38 0b bd f1 68 3a bd f5 ee 84 bc
       -0.020017182 -0.03398909 -0.045510236 -0.016227225
0001b0 5c 4a 5f bd d3 9f e4 bc 9c 53 91 bd fc 49 39 bd
       -0.054514274 -0.027908241 -0.07096025 -0.045236573
0001c0 b2 46 66 bd 34 51 98 bc 19 77 8a bd ca a7 da bc
       -0.056219764 -0.018593408 -0.06760997 -0.026691336
0001d0 2b 9b 5c bd 3d cf 9e bd fc 67 89 bd b9 50 b0 bd
       -0.053858917 -0.07754371 -0.067092866 -0.086091466
0001e0 a3 32 6b 3e 1c 22 5d 3e 8f 72 27 3e a6 d1 28 3e
       0.22968535 0.21595043 0.16352294 0.16486225
0001f0 55 6f 50 3e 3a c5 50 3e 17 4d 48 3e 08 f3 42 3e
       0.2035497 0.20387736 0.19560657 0.19038022
000200 98 fd 18 3e 12 57 42 3e 74 20 c3 bd b3 0d 92 bd
       0.14940488 0.18978527 -0.09527674 -0.07131519
000210 73 e7 26 bd 3a 31 24 bd 79 9e 8a bd 15 31 9f bd
       -0.04074807 -0.04008601 -0.067685075 -0.077730335
000220 f8 c1 32 bd ea 30 16 bd 50 e4 24 bd a2 3b 63 bd
       -0.043642014 -0.03666774 -0.0402568 -0.055476792
000230 f3 6d 0d 3e f8 ec c4 3d 73 73 b5 3d d6 ed bb 3d
       0.13811474 0.09615511 0.08859911 0.09176223
000240 11 02 1a 3e bf 7e ee 3d f1 41 06 3e b0 8b 10 3e
       0.15039851 0.11645269 0.13111092 0.14115787
000250 d5 b6 bf 3d 1d a7 f4 3d 86 c2 ed 3c 82 e7 3a 3c
       0.09361044 0.11945937 0.02902342 0.011407735
000260 b1 80 e4 3c e3 55 6a 3c c8 68 0b bd 44 82 25 bd
       0.027893396 0.014302704 -0.034035474 -0.040407434
000270 12 7f 52 bc 64 e6 26 bd fd 70 db 3b 0d 0d 8c 3c
       -0.012847679 -0.04074706 0.006696819 0.017096067
000280 2c a6 d4 3d 57 06 f1 3d a7 2b 85 3d 9d 0d e8 3d
       0.10383257 0.11768787 0.06502467 0.113307215
000290 e8 a9 4c 3d 1a e2 89 3d a1 f4 b6 3d ac 93 ec 3d
       0.049966723 0.067325786 0.08933378 0.11551604
0002a0 43 ff 83 3d 10 80 60 3d 54 d1 75 3d e9 cd d1 3d
       0.06445172 0.05480963 0.060014084 0.10244352
0002b0 06 74 eb 3d 08 5c 03 3e b3 ba f5 3d 65 b9 03 3e
       0.11496739 0.12828076 0.11998501 0.12863691
0002c0 06 e9 f8 3d b1 f6 50 3d 6a b5 47 3d a9 7e c8 3d
       0.12153821 0.051016513 0.048756994 0.097897835
0002d0 b0 85 97 3d 94 93 f1 3d 60 c4 14 3e 64 ad fc 3d
       0.07398546 0.117957264 0.14528036 0.12337759
0002e0 23 2a ea 3d 58 2f e9 3d 0f 40 ea 3d bf 35 32 3e
       0.11433818 0.11385983 0.114379995 0.17403315
0002f0 eb ef 0b 3e 3e 7d 3e 3e 03 ea 8b 3e e7 f0 ae 3e
       0.1366574 0.18602464 0.27326974 0.3416817
000300 28 79 bf 3e db 73 a8 3e d2 c8 af 3e 48 16 a7 3e
       0.37397122 0.3290089 0.343329 0.32634187
000310 d4 6c 8a 3e 87 ea 89 3e a1 b7 a2 3e 16 70 84 3e
       0.27036154 0.26936743 0.31780723 0.25866765
000320 c5 ca 96 bd f3 a1 aa bd 76 51 5f bd de 4e ac bd
       -0.07362894 -0.083316706 -0.054521047 -0.0841348
000330 2a 2f 8a bd b1 72 c3 bc 93 92 77 bc dd 5b ab bc
       -0.06747277 -0.0238584 -0.01511063 -0.020917827
000340 9e a4 81 bd bd 14 b5 bd b4 6b 9e 3d d5 70 3e 3d
       -0.06330226 -0.08841846 0.077353865 0.046494324
000350 f8 92 03 3d 51 78 95 3d 8f 81 77 3d bd 19 e2 3d
       0.032122582 0.07298339 0.06042629 0.110400654
000360 4e 18 a7 3d c3 d0 8a 3c 25 50 2f bb 8c 29 2f bc
       0.081589326 0.016945248 -0.002675065 -0.010691058
000370 7e 0f a0 3d 17 13 f2 3d 86 c6 0d 3e cd a4 d7 3d
       0.07815455 0.11820047 0.13845262 0.1052948
000380 b1 5b 2d 3e 44 85 15 3e 96 55 1b 3e fe 90 2b 3e
       0.16929509 0.14601618 0.15169367 0.16754529
000390 a3 2e 15 3e 47 bc 3e 3e 62 40 cb 3d af 23 cb 3d
       0.14568572 0.1862651 0.099243894 0.099189155
0003a0 29 25 70 3d 7f 94 9b 3d 0c 90 c0 3d 96 17 a4 3d
       0.05862919 0.07596683 0.09402475 0.08012311
0003b0 c4 07 87 3d ed e1 99 3d 27 c6 c4 3d 89 82 7a 3d
       0.06593278 0.07513795 0.09608107 0.061159644
0003c0 04 bf 57 3e 00 b2 47 3e 25 c0 5c 3e a3 42 4c 3e
       0.2106896 0.19501495 0.21557672 0.19947295
0003d0 23 40 5b 3e e9 d1 4a 3e ef 65 48 3e 01 15 55 3e
       0.21411185 0.19806637 0.19570135 0.20808794
0003e0 40 35 43 3e d3 ea 36 3e ee 43 d4 3d 15 ff 0a 3e
       0.19063282 0.17863016 0.10364519 0.13573869
0003f0 b3 e1 03 3e 76 b1 1e 3e 91 8c e9 3d 40 e4 03 3e
       0.12879066 0.15497383 0.11403764 0.12880039

conv2.bias f4 [32]
000000 62 4b 5b b9 3e c8 aa 3c 06 30 81 bc f1 8b 04 bd
       -0.0002091355 0.020847436 -0.01576997 -0.03236002
000010 59 87 0a bd ee 23 ee bc 47 70 90 3c 64 89 89 3c
       -0.033820484 -0.029069867 0.017631663 0.016789146
000020 f0 74 1b bd a3 1b 04 bc cd af 1a bd 16 52 09 bd
       -0.037953317 -0.00806323 -0.037765313 -0.03352555
000030 2b 65 19 3d 0a 6c a1 3c 88 a7 21 bc d2 53 a2 3c
       0.037449997 0.019704837 -0.009866603 0.01981536
000040 42 fc 09 bd 52 c5 fc bc 3b ef ea bc 6a c7 1f 3c
       -0.033687837 -0.030855808 -0.028678527 0.009752134
000050 6d ec 8e 3d 28 dd 0d 3c db 6c dc 3c 21 15 e1 bc
       0.069786884 0.008658685 0.026907375 -0.027475895
000060 8d 63 ac bc a7 da aa bc 6c e1 c0 3c ba 12 c5 bc
       -0.021043563 -0.020856215 0.02354499 -0.024056781
000070 ee 8b 0f 3d 70 d2 9c bc 67 f5 27 3c 30 15 f7 3c
       0.035045557 -0.019143313 0.01025138 0.03016147

batch1.weight f4 [32]
000000 b5 11 32 3f 42 37 a5 3f 75 0c 65 3f f2 05 af 3f
       0.6955827 1.2907488 0.8947213 1.3673689
000010 63 14 c5 3f b8 49 4d 3f a0 02 cb 3e 01 f9 d0 3e
       1.5396847 0.8019061 0.3965044 0.40814975
000020 b6 79 b5 3f 7b ce 4e 3f d4 a7 84 3f ea 3d 85 3f
       1.4177768 0.80783814 1.0363717 1.040952
000030 b4 b6 4a 3f b5 7e d9 3f 69 15 89 3f 62 8d 69 3f
       0.7918503 1.6991793 1.0709659 0.9123136
000040 56 dd 9c 3f 89 8c a6 3f d0 c2 87 3f 9a 33 9c 3f
       1.2255046 1.3011638 1.0606327 1.2203248
000050 79 4a 5c 3f a5 36 c7 3f 9a 98 a0 3f 6a 08 97 3f
       0.86051136 1.5563551 1.254657 1.1799443
000060 91 89 eb 3e fc 81 bf 3f c7 7e af 3f 1b c8 a1 3f
       0.46003392 1.4961543 1.3710564 1.2639192
000070 5a 13 af 3f 4c 20 d6 3f d0 29 6f 3f 09 34 ca 3f
       1.3677781 1.6728606 0.93423176 1.579713

batch1.bias f4 [32]
000000 6c de 19 bf 17 d4 2e 3e 39 c3 53 bf fe 53 0b bf
       -0.60105014 0.17073093 -0.8271976 -0.54425037
000010 d7 db 13 bf 14 fd e7 be df b0 ab bd 9a 8e 0c bf
       -0.57757324 -0.4531027 -0.08383345 -0.5490509
000020 12 d0 df 3d 6f 51 c2 be ae 15 ca be 40 49 1f bf
       0.10928358 -0.37952754 -0.39469665 -0.62221146
000030 93 5d 16 bf 97 af 2e be ab 9b df be 1e 52 e9 be
       -0.5873653 -0.1705917 -0.43673453 -0.45570463
000040 da 20 ea be 68 70 30 bf 3d 12 c9 be a9 2e 9c be
       -0.4572819 -0.6892152 -0.39271727 -0.3050435
000050 fd 7b ca be 8e 22 14 bf a2 03 34 bf 41 22 2a bf
       -0.3954772 -0.57865226 -0.70318043 -0.6645852
000060 ff 3c f5 be 3f 75 11 bf 46 5a 67 3d a3 7c 27 be
       -0.478981 -0.5681953 0.056482576 -0.16356139
000070 22 33 74 3e d2 87 24 bd b7 80 8e 3e 16 ba f3 be
       0.2384763 -0.04016859 0.27832577 -0.4760291

batch1.running_mean f4 [32]
000000 41 b4 ba 43 54 5b 58 c4 08 50 70 44 4c e7 8d c3
       373.40823 -865.427 961.2505 -283.807
000010 fd 5c fb c3 8a 7f 1a 44 b2 86 ba 43 d1 ca 62 43
       -502.72647 617.9928 373.0523 226.79225
000020 ff 4c 9f 44 c4 f8 6a c3 a1 ce d9 c3 9d eb 04 44
       1274.4061 -234.97174 -435.6143 531.68146
000030 72 f0 3b 44 9a 4a 14 c4 5c 7c 80 44 92 c9 19 c3
       751.75696 -593.16565 1027.8862 -153.78738
000040 f6 e7 6b 44 6b 4d b5 c3 55 4b b6 c3 b1 e6 a8 c3
       943.6244 -362.60483 -364.58853 -337.80228
000050 26 81 b3 c3 66 df db c3 33 17 ad c3 95 33 ba c3
       -359.00897 -439.7453 -346.18124 -372.40298
000060 48 40 df 41 9b a3 11 c4 dd 80 a7 44 42 48 3c c4
       27.906387 -582.55634 1340.027 -753.129
000070 9c 58 8c 44 24 c1 27 c4 0e af c7 c3 8f a4 e6 c3
       1122.769 -671.0178 -399.3676 -461.2856

batch1.running_var f4 [32]
000000 3a b4 08 48 63 49 8d 49 a5 73 1c 49 5d dc b0 47
       139984.9 1.1574204e+06 640826.3 90552.73
000010 65 39 47 48 b0 8c d1 48 71 02 df 47 d9 1c 51 47
       204005.58 429157.5 114180.88 53532.848
000020 a3 e0 87 49 35 bc 9f 47 f1 61 0c 48 6f 61 87 48
       1.1131084e+06 81784.414 143751.77 277259.47
000030 b8 8d 08 49 4e 46 9b 48 b9 ca 91 49 9c f2 b0 46
       559323.5 318002.44 1.1943271e+06 22649.305
000040 e8 50 28 49 88 25 0a 48 7f 7f db 47 64 e0 63 48
       689422.5 141462.12 112382.99 233345.56
000050 d0 61 0b 48 df eb 18 48 eb 4b f1 47 af 2e 0b 48
       142727.25 156591.48 123543.836 142522.73
000060 96 73 25 48 bd 7c 81 48 54 a6 95 49 d0 3d 55 49
       169422.34 265189.9 1.2259305e+06 873437.0
000070 e1 75 5f 49 ae 93 ba 48 fb ab e5 47 92 9c 36 48
       915294.06 382109.44 117591.96 186994.28

conv3.weight f4 [32, 32, 5]
000000 1d bd fc bd 9f 4d dd bd 61 5f 20 be 31 f8 71 bd
       -0.12340758 -0.10805821 -0.15661384 -0.059074584
000010 bf b1 82 bd 02 0f 6f be 77 ad 57 be e8 f1 80 be
       -0.063815586 -0.23345569 -0.21062265 -0.2518456
000020 ef 6a 71 be 3f 44 87 be cd ef 82 bb 06 9d c0 bc
       -0.23575948 -0.26419255 -0.0039958716 -0.023512375
000030 c8 70 19 be 6d c6 04 bd 9e 7b 07 3c d3 83 2a be
       -0.14984429 -0.032415796 0.008269219 -0.1665185
000040 fd e3 7a be 5a 0a 9a be 5b a7 a4 be a8 44 6f be
       -0.24501033 -0.30086023 -0.32158932 -0.23366034
000050 00 38 82 be 70 ab 98 be 9f 60 84 be 10 e3 b4 be
       -0.2543335 -0.29818296 -0.25854966 -0.35329485
000060 a0 ef a9 be 0d 67 ec bd 4c 2e b8 bd 39 28 e1 bd
       -0.33190632 -0.11543093 -0.089932054 -0.10994
000070 3d a3 84 bd 95 52 b5 3c c2 13 f8 3d e6 05 ee 3c
       -0.06476448 0.022134105 0.121131435 0.029055547
000080 36 70 4b 3d a4 a0 d1 3c fb b6 98 3d 2f 52 20 3e
       0.04966756 0.025589295 0.07456776 0.1565635
000090 3f ec f7 3d a5 69 eb 3d c6 87 79 3d bf 5a 64 3d
       0.12105607 0.114947595 0.0609205 0.055750605
0000a0 76 c9 21 be 3c 5e 62 be 8e bf 51 be cb 9f a6 be
       -0.15799507 -0.2210626 -0.20483229 -0.32543787
0000b0 21 b9 44 be c5 66 12 be d4 80 08 bc 5e 17 14 be
       -0.19211246 -0.14297016 -0.008331496 -0.14462039
0000c0 f3 2f 13 be bd 57 3c bc 7e 43 37 be 2c 95 87 be
       -0.1437376 -0.011495528 -0.1789684 -0.26480997
0000d0 42 70 79 be 24 ed 97 be d4 8c c2 be 10 c0 05 3d
       -0.24359229 -0.2967311 -0.37998068 0.03265387
0000e0 5e c2 2f 3d 93 e2 36 3e 08 64 a1 3d 3b ad 0a 3e
       0.042909972 0.17859869 0.078804076 0.13542645
0000f0 95 28 02 3e 26 bc 0c 3e af fb 65 3e be a5 05 3e
       0.12710793 0.13743648 0.22459291 0.13051507
000100 de b4 67 3e 91 bf 4e be 40 ef a9 be db dd c1 be
       0.22627589 -0.20190264 -0.33190346 -0.37864575
000110 31 93 d7 be 8c 71 bb be b3 e2 52 bd 71 a3 d1 3c
       -0.42104486 -0.36610067 -0.05148573 0.02559063
000120 fa 03 a7 bb 35 a7 8e 3c f3 4a 34 bd 4f ed 56 bd
       -0.0050969096 0.017413715 -0.04401679 -0.05247241
000130 f8 a8 3b 3d 6f 14 17 bd b5 27 41 3c 37 0d 4a bd
       0.045815438 -0.03688472 0.011789252 -0.04932901
000140 ca 4c ef bc 56 18 92 bd 5d b2 49 bd 12 8a 47 bd
       -0.02921142 -0.07133548 -0.049242366 -0.04871566
000150 8b c6 37 bd fc 19 94 bd 19 59 02 be ac d9 21 bd
       -0.04486708 -0.072315186 -0.127293 -0.03951423
000160 2f 69 fd bd 3f 7a bb bd 22 10 68 be 42 13 46 be
       -0.12373578 -0.09154176 -0.22662404 -0.19343284
000170 93 9b ae be 62 65 99 be 03 da 9a be 2d b4 09 be
       -0.3410307 -0.2996016 -0.30244455 -0.13447638
000180 68 f5 3c be 73 ad 92 be 6b 2c ab be f6 9b a0 be
       -0.1845299 -0.28647956 -0.33432326 -0.3136899
000190 63 43 0c be 61 f9 14 be 70 ed 3c be 6c c0 44 be
       -0.13697581 -0.14548256 -0.1844995 -0.19214028
0001a0 b6 ec 18 be 0d 39 9d be c3 88 9b be db d1 a4 be
       -0.14934048 -0.3070759 -0.30377778 -0.32191357
0001b0 49 41 bc be f7 6a cc be 3e d0 f8 bd e6 09 33 be
       -0.3676856 -0.39925358 -0.12149094 -0.17484245
0001c0 8e dc 13 be 44 80 1b be b6 91 2e be 4c a4 49 be
       -0.14439604 -0.15185648 -0.17047772 -0.1969158
0001d0 d8 b0 6d be 70 19 8a be 99 33 85 be b6 54 3a be
       -0.23211992 -0.26972532 -0.26015928 -0.18196377
0001e0 41 fc f4 bd b7 79 b6 bd 0e 42 97 bd e2 b1 86 bd
       -0.11962176 -0.08909934 -0.07385646 -0.06576897
0001f0 33 ce e8 bd ca cb 9b be 9c 20 65 be 5a ba bc be
       -0.113674544 -0.30428916 -0.2237572 -0.36860925
000200 44 24 ad be a2 7d 93 be ac 25 ba bd b7 c3 48 bd
       -0.3381673 -0.28806788 -0.090892166 -0.049014773
000210 6c a2 0f 3d c9 70 05 bd d0 5c 48 bd fc 0a 4d be
       0.035067007 -0.032578263 -0.048916638 -0.20023721
000220 3c 2b 1e be 92 ca 29 be ab 75 7d be f2 f0 9a be
       -0.1544618 -0.1658118 -0.24751918 -0.30261952
000230 46 af 22 be 4e c2 8b be b0 52 7c be 7a a9 40 be
       -0.15887174 -0.2729668 -0.24640918 -0.1881465
000240 ad 81 70 be ad f2 87 bd e8 af 85 be 8e a3 a7 be
       -0.23486967 -0.066380836 -0.26110768 -0.3274197
000250 94 4a 6f be 00 5c 7d be 6b 61 c6 bd 97 26 8e bd
       -0.23368293 -0.24742126 -0.0968655 -0.06940954
000260 14 ad 32 be 25 93 53 be c6 79 88 be 3f 49 7a be
       -0.17448837 -0.206616 -0.26655406 -0.24442004
000270 36 a1 61 be 29 6e 8c be db fc 87 be 98 b8 97 be
       -0.22034153 -0.27427796 -0.265601 -0.2963302
000280 b6 23 94 be 23 bb a7 be 46 22 b4 be 25 30 cb be
       -0.28933495 -0.3275996 -0.351824 -0.3968517
000290 88 98 98 be ab c0 b6 3d 53 5c f3 3d 68 4b 3d 3e
       -0.29803872 0.08923467 0.11882844 0.18485796
0002a0 6b 59 d1 3d 93 6e 8a 3d 52 ad 11 be d5 2b fe bd
       0.10222133 0.067593716 -0.14226273 -0.12410704
0002b0 24 fd 1b be 45 9e 19 be 7f a0 03 be cb 4c 50 be
       -0.15233284 -0.15001781 -0.12854193 -0.20341794
0002c0 67 a0 3a be 8c fb ba bd ae 2b 46 be d1 43 71 be
       -0.18225251 -0.0913001 -0.193526 -0.23561026
0002d0 64 92 a9 be 84 38 52 be 4d e7 80 be d9 64 90 be
       -0.331195 -0.20529372 -0.25176468 -0.2820194
0002e0 47 75 d2 be ba 0d 2f bf f5 c4 1e bf 5d 33 2d bf
       -0.411051 -0.6838032 -0.6201928 -0.676565
0002f0 4c b5 32 bf cc de 17 bf 96 dd a1 3e e5 02 92 3e
       -0.6980789 -0.59324336 0.3161437 0.28517833
000300 a4 d9 81 3e ce 8d 7c 3e b0 57 bf 3e 4a 20 fd 3d
       0.2536136 0.24663469 0.37371588 0.12359674
000310 1f ee c5 3d 69 2c 07 3e 7a 46 90 3d b3 92 11 3e
       0.096645586 0.13200535 0.07044692 0.14216118
000320 a4 35 b9 be 93 cd a8 be 09 da c1 be 8b 73 48 be
       -0.36173737 -0.3296934 -0.3786166 -0.19575326
000330 9f a3 04 be 1b 46 51 be 0d 76 19 be 9a 79 8a bd
       -0.12953041 -0.204369 -0.14986439 -0.06761475
000340 48 79 16 be bd 76 ee bd b6 db d6 bd c5 c0 f5 bc
       -0.14694703 -0.11643741 -0.10491125 -0.029999146
000350 8b 30 7f bd 5d 66 b1 3c 48 3b 77 bd 5b 87 e3 bd
       -0.062302154 0.021655256 -0.06035927 -0.111098014
000360 c9 2f 0e be 98 e3 5c bd 31 fb e5 bc 71 c2 ad bd
       -0.13885416 -0.053927988 -0.028073879 -0.084843524
000370 d5 6e 1f be 86 2c c4 bd d2 ee 15 be 29 a1 45 be
       -0.15569623 -0.09578805 -0.14641884 -0.19299759
000380 22 9f ed bd 7f d8 a1 be 2c ac 85 be b8 7b 4d be
       -0.11602618 -0.31610486 -0.2610792 -0.20066726
000390 28 40 21 be 0a 2f 34 be 31 95 58 bf d2 29 69 bf
       -0.1574713 -0.17596069 -0.8460265 -0.9107944
0003a0 a1 f3 6b bf fc 0e 57 bf 58 80 38 bf a8 af a1 3b
       -0.92168623 -0.8400724 -0.7207084 0.00493427
0003b0 ea 33 09 be 52 e1 af bd a0 7c 15 be c9 c0 1e be
       -0.1339871 -0.08587898 -0.14598322 -0.15503229
0003c0 a2 d0 90 be 08 0e 72 be 40 5d 6a be c0 b5 22 bd
       -0.28284174 -0.23638165 -0.22887135 -0.03972411
0003d0 7a 93 0c be c3 71 71 be 0f 6a 2f be 68 fa 83 be
       -0.13728133 -0.23578553 -0.17130302 -0.25776982
0003e0 91 cf 92 be 9f 22 db be cd dc 68 be d8 23 19 be
       -0.28673986 -0.4279985 -0.22740479 -0.1495508
0003f0 77 98 57 be 85 4a 2e be b9 49 2d be e3 4a 83 3e
       -0.21054254 -0.17020614 -0.16922654 0.25643072

conv3.bias f4 [32]
000000 b8 ad 7f 3d 5d cd ff bd f9 83 92 3d ad 04 91 bd
       0.06242153 -0.12490342 0.07154078 -0.0708097
000010 f2 6f f6 3c f5 15 96 bd 48 bc d0 bc b7 c2 35 bd
       0.030082677 -0.07328407 -0.025480404 -0.044375148
000020 6b a5 1a 3c cd d4 b5 3c 74 27 d5 3c ec f7 96 bd
       0.009438853 0.022196198 0.02601979 -0.07371506
000030 aa 64 b8 bc 50 df 45 bd 30 3b 9f bd ca 5d 28 3d
       -0.022508938 -0.04830867 -0.07774961 0.04110507
000040 49 b8 b4 3d 72 f5 c1 bd d3 6a 43 bd 93 c2 06 bd
       0.08824212 -0.09470643 -0.047709297 -0.032900404
000050 3e ec 79 3d ea fd 1e 3c 59 d8 18 3d 49 28 3a 3d
       0.061016314 0.0097040925 0.0373157 0.045448575
000060 ef 52 39 3e f3 7f d8 bd 1e 4c fa bd b6 63 cf 3d
       0.18098043 -0.105712794 -0.122215495 0.1012644
000070 9a e3 c5 bd c2 b8 61 bc ab 16 bb bc 36 d2 6f bd
       -0.09662552 -0.01377696 -0.022837957 -0.058550082

batch2.weight f4 [32]
000000 f9 c5 e0 3e 3b e2 26 3f e3 c2 8c 3f f3 09 ac 3e
       0.4390104 0.6518895 1.0996975 0.3360134
000010 8d c7 01 3f b9 e0 d4 3f 96 8a 75 3f d5 ba 00 3f
       0.50695115 1.663108 0.9591459 0.50285083
000020 05 84 89 3f a0 0a 5e 3f e5 01 b6 3e 60 52 ea 3f
       1.0743414 0.8673496 0.3554832 1.8306389
000030 99 71 4d 3f ba 07 99 3e aa 2d 23 3f b5 a7 b0 3e
       0.8025146 0.29888707 0.6374155 0.3450295
000040 5e 78 63 3f b1 7c 4c 3f af 25 36 40 7e bd 5b 3f
       0.8885554 0.79877764 2.84605 0.8583602
000050 cc fa ae 3e 5a b7 c0 3e 1c b5 4d 3f 5f f2 36 3e
       0.34175718 0.37639886 0.80354476 0.17865895
000060 ef 42 09 40 47 46 05 3f b9 e0 b5 3f ac a4 4b 3f
       2.1447103 0.5206036 1.4209205 0.79548144
000070 d6 77 a4 3f 1b 97 6f 3f 0a 0d 95 3f 84 b5 9e 3f
       1.2849071 0.93589944 1.1644604 1.2399144

batch2.bias f4 [32]
000000 11 67 16 bf a9 9a 3d be 27 bf ee 3d d2 bf f2 be
       -0.58751017 -0.1851603 0.11657553 -0.47411972
000010 89 e2 63 be 9d ac 00 3f 44 dd 16 be 09 e7 af be
       -0.22254385 0.50263387 -0.14732844 -0.34355953
000020 56 20 1d 3e dd ea aa 3e fb dd 58 bd 08 c4 30 3f
       0.15344366 0.3338231 -0.052946072 0.6904912
000030 89 01 ee bd 65 e9 41 bd ca 53 8a be 3b 22 d2 be
       -0.116213866 -0.047341723 -0.2701705 -0.4104174
000040 e6 1c 1b be 20 6c 05 3e 94 3f 0a 40 60 d0 16 bf
       -0.15147743 0.13029528 2.1601305 -0.58911705
000050 a1 e0 09 bf 8b a0 eb be 22 50 36 bf b1 c4 98 be
       -0.5385838 -0.46020922 -0.7121602 -0.29837564
000060 66 e2 b7 3f db a0 8b be 43 f1 c2 be a7 86 3f be
       1.4365966 -0.2727116 -0.38074693 -0.1870371
000070 dd 60 09 3f 4e 8b 66 bd e2 59 b7 3e 9e fd 17 3f
       0.53663427 -0.056285195 0.35810763 0.59371364

batch2.running_mean f4 [32]
000000 f1 26 17 c1 20 62 3e c1 3c be c6 c0 fe f3 14 c1
       -9.447007 -11.898956 -6.210722 -9.309568
000010 2d 47 7c c1 a3 ce b8 bf f6 29 ea c0 c7 0f 54 c1
       -15.767377 -1.443806 -7.317622 -13.253852
000020 48 65 b3 bf 7a 93 83 c1 96 8d 2b c1 d9 87 a5 40
       -1.4015284 -16.44701 -10.722067 5.172833
000030 58 7f c1 c0 5e 9f 71 c1 02 bb 54 c1 7c bb 05 c1
       -6.046795 -15.101408 -13.295656 -8.358273
000040 6f d2 e1 c0 8a d4 15 c1 d6 43 bf 3f 07 aa 65 41
       -7.0569377 -9.364389 1.4942577 14.354011
000050 5c a6 b1 c0 d0 a4 15 c1 9d 4b 33 41 7a 47 bc c0
       -5.5515575 -9.352737 11.20596 -5.883725
000060 83 bc 88 c1 62 39 4b c1 5c 99 90 41 3c 71 8d c0
       -17.092047 -12.701509 18.074883 -4.4200726
000070 5f 37 8d c1 48 ef e0 c0 e7 62 1d c1 94 38 8f c1
       -17.652037 -7.029209 -9.836646 -17.902626

batch2.running_var f4 [32]
000000 c3 a9 1e 42 62 29 9e 42 4f 77 aa 43 00 88 5b 42
       39.665783 79.080826 340.9321 54.882812
000010 4d 85 9a 42 0c f9 99 43 5b aa ac 43 c6 74 2e 43
       77.26035 307.94568 345.3309 174.45615
000020 9e ed 72 43 48 a6 9c 42 66 30 ac 42 1c e5 66 43
       242.92819 78.32477 86.09453 230.89496
000030 09 9f 73 43 79 1d b4 42 f1 1f a8 43 30 a5 a3 41
       243.62123 90.05756 336.24954 20.455658
000040 e3 83 92 43 d2 dc d1 42 77 48 38 43 64 d3 ef 42
       293.03036 104.93129 184.28307 119.91287
000050 9e 49 8c 41 b4 50 aa 42 e4 95 2f 42 54 69 69 42
       17.535946 85.15762 43.896378 58.35286
000060 62 86 b7 42 26 0f 0c 42 02 71 15 43 bd 10 57 43
       91.76247 35.014793 149.44144 215.06538
000070 6e 64 96 42 b6 7d e1 43 d1 96 24 43 18 29 87 42
       75.19615 450.98212 164.58913 67.58026

fc1.weight f4 [50, 3136]
000000 c0 5f 92 3c ce 78 91 3c 10 04 86 3c 97 f4 fe 3c
       0.017867923 0.0177578 0.016359359 0.031122489
000010 20 ff ad 3b 34 6a ff 3c 3b df 8e 3c 82 53 51 3d
       0.0053099543 0.031178571 0.017440429 0.05110503
000020 87 9a 54 3d cb fb 1d 3d ff dd 6f 3c 12 c3 73 bc
       0.05190518 0.038570207 0.01464033 -0.014878051
000030 86 ed d9 b9 80 a2 cc bc 83 06 1b bc 20 81 31 bd
       -0.00041566434 -0.02497983 -0.009462002 -0.043336034
000040 72 ce 8a bd 3a 35 8c bd ca 0e af bd 3a 43 94 bd
       -0.067776576 -0.0684609 -0.08547743 -0.07239385
000050 d0 34 a1 bd e1 7b bf bd 1a 52 42 bd 46 34 89 bc
       -0.07871401 -0.093498 -0.04744158 -0.016748559
000060 f2 8a a4 bc 6f d7 cb 3b f7 e4 e4 bb 7e 7d 2c bb
       -0.020085786 0.00622075 -0.0069853025 -0.0026319916
000070 43 04 00 bc db be ee 39 75 df 9a bc 01 a0 96 bc
       -0.007813516 0.00045537096 -0.01890538 -0.018386843
000080 71 f3 e6 3c 50 4f ab 3c 11 51 35 3d ba 83 74 3d
       0.028192254 0.020911843 0.044266764 0.059695937
000090 1f 63 5f 3d 51 49 6e 3c fb fe a8 3c 4e 06 43 3d
       0.05453789 0.014543847 0.020629397 0.047613434
0000a0 6a f4 28 3d e9 19 20 3d e7 ea 50 3d b4 7f 1a 3d
       0.041248716 0.03908721 0.05100527 0.037719443
0000b0 28 7d f0 3b ed 04 49 3b 74 10 51 3c 8e b6 95 3c
       0.0073391385 0.0030673102 0.01276027 0.018275525
0000c0 94 5e 9c bc 33 1e d9 ba 3f 24 6a bb 13 94 0e bc
       -0.019088067 -0.0016564786 -0.003572717 -0.008702296
0000d0 4b 25 3d 3c a4 a6 dc bb 72 fb 01 bd bf 21 34 bd
       0.011544536 -0.0067337323 -0.031733938 -0.043977495
0000e0 a7 0e 5b bd 2a 88 50 bd 76 ff 92 bd 94 5f b6 bd
       -0.05348077 -0.050911106 -0.071776316 -0.08904949
0000f0 da db cc bd e3 3e e1 bd 66 ca fa bd c0 31 d8 bd
       -0.10002871 -0.10998323 -0.12245636 -0.10556364
000100 75 24 c1 bd a8 9b 5d bd 02 71 7b bc 8a 47 be bb
       -0.09430782 -0.054103523 -0.015346767 -0.005806868
000110 ef 31 e8 3a a0 a7 2b bb b1 70 cb 3c e5 37 0a 3d
       0.0017715077 -0.0026192442 0.024834009 0.03374471
000120 7e b0 84 3c 40 78 de 3c 50 62 e8 3c 79 3d 22 3d
       0.01619744 0.027156949 0.028367192 0.039609406
000130 56 1b 2d 3d 95 fb 2a 3d a4 ec 46 3d 85 aa 66 3d
       0.042262398 0.041743834 0.04856552 0.056314964
000140 29 e5 87 3c b4 40 ff 3c af 9b d7 3c 9b 1f 8c 3c
       0.016588764 0.031158783 0.026319353 0.017104914
000150 ab c8 d2 3c 1f eb 0e 3d 73 39 63 3d dd 54 d8 3c
       0.025730452 0.034892198 0.05547471 0.026407653
000160 bd ab 12 3d 6d 45 33 3d 25 d5 5c 3d 9f c3 05 3d
       0.035808314 0.04376738 0.053914208 0.032657262
000170 be f3 f6 3c a7 f5 7b 3b 11 ab 23 bb 98 4b f5 bb
       0.030145522 0.003844598 -0.002497379 -0.007485818
000180 3d e6 aa 3c b1 a7 56 3c 5b 9a 0f 3e 96 8d 81 3e
       0.02086174 0.013101504 0.14023726 0.25303334
000190 cc 2b 4b 3e 3e 0b 00 3e 0b 22 9f 3d 0d 2f b8 bc
       0.19840926 0.12504289 0.07770165 -0.022483373
0001a0 22 5e 13 be a0 3d 5e be 7b db 58 be e0 99 56 be
       -0.14391378 -0.21703196 -0.21177475 -0.20957136
0001b0 39 4e 5c be 75 16 48 be fa 50 39 be ac d5 58 be
       -0.21514215 -0.19539817 -0.18097296 -0.2117526
0001c0 81 47 36 be 28 f0 1e be 50 09 d5 bd 6b e3 48 bd
       -0.17800714 -0.155213 -0.10402167 -0.049045008
0001d0 c5 d9 8a 3b 61 e3 2f 3d c3 0e 55 3d 19 1a 94 3d
       0.004237386 0.042941455 0.05201603 0.0723154
0001e0 8c 96 b8 3d bd ae d1 3d 5b 9c 03 3e 88 8d e5 3d
       0.090130895 0.10238407 0.12852614 0.112086356
0001f0 eb 9e 51 3d a8 9d b8 bc c4 dd 73 bd 6f c0 f3 bd
       0.051176947 -0.022536114 -0.059537664 -0.11901938
000200 19 f6 18 be 27 ec 0e be 72 81 a7 bc 3d 60 9e 3d
       -0.14937629 -0.13957272 -0.020447467 0.077332
000210 52 e8 fe 3d ed b3 0d 3e ab ab 97 3d 82 43 f6 3c
       0.12446655 0.13838167 0.0740579 0.030061487
000220 3d ee fa 3b 2f 5d 2b bd 4f 39 42 bd 0f ea 3f bc
       0.0076577947 -0.041836914 -0.047417935 -0.011713519
000230 f2 63 25 3d eb 95 b0 3d 69 d6 1b 3e 7f ec 36 3e
       0.04037852 0.086223446 0.1521851 0.17863654
000240 01 45 5e 3e ba 41 67 3e 4f 7b 63 3e 22 b5 66 3e
       0.2170601 0.22583666 0.22215007 0.22530034
000250 6b 54 77 3e 7e 91 6a 3e bd d6 5a 3e e4 b6 42 3e
       0.24153297 0.22907063 0.21370979 0.1901508
000260 80 b0 dc 3d 9f fc c2 3c 97 b3 24 bb 7f ec 3c bd
       0.10775852 0.0238021 -0.0025131458 -0.046123978
000270 3c 96 bc bc ac ce 66 bd 4d 02 17 bb ac cb a8 3d
       -0.023020856 -0.05634944 -0.0023042143 0.08241972
000280 97 f4 b6 3d 6a 76 c2 3d 54 06 cd 3d ba 50 5b 3d
       0.089333706 0.09495242 0.100109726 0.053543784
000290 f4 85 29 3d c6 ae 87 3d 1e 8a d3 3c 14 0d 30 3d
       0.041387513 0.06625132 0.025822695 0.042981222
0002a0 0c fa 1a 3d 1b bf 49 3d 06 4e 16 3d c3 55 eb 3b
       0.03783612 0.049254518 0.036695503 0.0071818545
0002b0 e6 e5 72 bc 01 34 5f bd 44 ab 25 bd bf 0c 09 bc
       -0.01482532 -0.054492954 -0.040446535 -0.008364855
0002c0 11 68 8b b8 9e 84 94 3c 96 e0 1b bd 89 87 bd bd
       -6.6474204e-05 0.018129643 -0.03805598 -0.09254367
0002d0 07 9f a7 bd 84 de a0 bd 22 39 9e bd 55 8d 67 bd
       -0.08184629 -0.078549415 -0.07725741 -0.05653127
0002e0 bc 73 72 3c 91 7b a7 3d c6 21 1a 3e 14 15 3f 3e
       0.014798101 0.08177865 0.15051946 0.18660384
0002f0 e3 12 72 3e 2d dc 9f 3e 2d ba a2 3e 62 79 a0 3e
       0.23640017 0.31222668 0.31782666 0.31342608
000300 2f 25 88 3e 17 80 88 3e 87 7f 8a 3e ac 64 f2 3e
       0.2659087 0.26660225 0.2705042 0.47342432
000310 ae 51 58 bc 57 12 f3 bc 53 6e 5e bd a7 fa 88 bd
       -0.013203068 -0.029671831 -0.054304432 -0.06688433
000320 88 20 b4 bc e8 8f c4 bb 1e 45 ed 39 89 59 56 3b
       -0.021988168 -0.0059986003 0.0004525566 0.0032707176
000330 d6 97 ab bb bf 72 71 bb 25 46 81 bc 90 6c 23 bd
       -0.005236606 -0.0036842076 -0.015780518 -0.039898455
000340 c2 3f 08 bd 14 bc 8a bc 3a e2 bd bb 01 1d 03 bd
       -0.03326393 -0.016935386 -0.0057947906 -0.032010082
000350 03 81 7c bd ea 0f 08 be c4 76 31 be 75 be 15 be
       -0.061646473 -0.1328732 -0.17330462 -0.14623435
000360 d0 4a 07 be 3c 87 c5 bd 5a f5 7d bd 21 50 41 bd
       -0.13212132 -0.096449345 -0.062001564 -0.047195558
000370 3c 94 2c bd ed 5d 39 bd 01 4b 5b bd 91 70 83 bd
       -0.042133555 -0.04525559 -0.053538326 -0.06417955
000380 5d aa 31 bd ec 60 3a bc a0 db 2e bd 56 b2 ac bd
       -0.04337536 -0.011375647 -0.04268992 -0.084324524
000390 16 95 d0 bd e4 1c f6 bd de 26 ed bd 32 bf fd bd
       -0.10184686 -0.12017229 -0.11579679 -0.12389983
0003a0 ca f6 06 be 95 af c3 bd 39 ef c0 bd 56 da 80 bd
       -0.1318008 -0.09554974 -0.09420628 -0.06291644
0003b0 a3 cc 8a bd e9 22 3a bc af d4 b2 bc f3 8f 26 bd
       -0.067773126 -0.011360862 -0.021829931 -0.040664624
0003c0 7e 2f 8c bd 6b 1c b9 bd d4 89 d7 bd 84 77 f8 bd
       -0.06844996 -0.090386234 -0.105243355 -0.12132171
0003d0 7f 3f 01 be be b7 16 be 7d cc 14 be 9b f3 1c be
       -0.12621878 -0.1471853 -0.14531131 -0.15327303
0003e0 83 5d 2d be d1 c8 36 be 46 00 64 be 36 be 64 be
       -0.16930203 -0.17850043 -0.2226573 -0.22338185
0003f0 2b b0 56 be 81 f8 5b be 73 8a 89 be f4 2b 8a be
       -0.2096564 -0.21481515 -0.2686344 -0.2698666

fc1.bias f4 [50]
000000 55 da 47 be 08 50 2a 3e 02 1b 0d be 0c 68 a2 3e
       -0.19516881 0.16632092 -0.13779834 0.31720006
000010 9f f8 85 3e 7f 72 64 be 22 31 cb 3d 23 df 54 3e
       0.26166245 -0.22309302 0.09921481 0.20788245
000020 84 7f 43 3e 62 fd 76 3e f1 6e 9e be 27 76 1f be
       0.19091612 0.24120095 -0.30944017 -0.15572415
000030 ab 2f b4 bd de e5 aa 3d c1 67 ef 3d 9f 96 90 3d
       -0.087981544 0.08344625 0.11689711 0.07059979
000040 6f 0a 04 3e 10 f5 51 3e 9e d4 8a 3d d6 07 d0 bd
       0.12894605 0.2050364 0.06778835 -0.101577446
000050 5d b8 d7 3d 10 fe b9 3b a6 51 fb 3c d2 0c 0b 3e
       0.105332114 0.0056760386 0.030678581 0.1357911
000060 6a da df bc 45 c5 fd bd 84 e0 c5 bd 96 af 8b 3e
       -0.027325828 -0.12391142 -0.096619636 0.272824
000070 29 06 d4 3d 2b 36 b8 3d 85 dc 66 be d6 4e 9a 3e
       0.103527375 0.08994707 -0.22545059 0.30138272
000080 79 d2 44 3e c4 67 a5 3e 87 f5 27 3e 65 a8 67 be
       0.19220914 0.3230573 0.16402255 -0.22622831
000090 59 6f 07 be 0a df 68 3d 5b a3 39 3e c3 d0 25 be
       -0.1322607 0.05685333 0.18128721 -0.16192918
0000a0 75 ff df bd 96 63 76 be 6f 08 9a 3d a4 f0 d6 bd
       -0.109373964 -0.24061427 0.0752114 -0.10495117
0000b0 96 08 1b bd 2d ba 23 3d ec c1 c4 be 57 b2 9b be
       -0.037849985 0.039972473 -0.384292 -0.304095
0000c0 88 8b 2e 3e cc 8e 56 be
       0.17045414 -0.2095291
