DOMAIN_ADAPTION_2D/experiments/features=S:z_bottom_GAMMA=0.05_[True, True, False, True, True, True]/best_model/model_fc.pt (torch, 2207 bytes, 4 tensors)

fc2.weight f4 [3, 50]
00000000: 0c7e 05bd e69f da3c e216 953d 5dc1 11be
00000010: 5994 5fbd 0fb1 bcbd a1d5 4f3d 491c 59bc
00000020: 1d44 173e 1b9d 53bd 577d d1bb 6bed 7e3d
00000030: a195 373e 2c19 ac3d 8069 123c 6b54 ebb9
00000040: 02eb 903d 0444 893d 72ce 56bc 3de2 d93b
00000050: f810 f3bd 46be 0abd 066e efbb 6fea 403d
00000060: 0f9f 273d cbf5 debc fda0 1abe 1c11 fc3d
00000070: f0ae 14bd 6477 333d b998 d8bc faa0 13be
00000080: 512c 0d3e 4d1d 70bd e163 9a3c 04ef e63c
00000090: 8e33 cebc c380 14bd c776 133e b3a0 64be
000000a0: 2cce db3d b553 ff3d 9ec8 f23d cd60 d93d
000000b0: 2cd0 7a3b a906 69bd c7e5 6a3c 18a7 f53d
000000c0: a6d9 ffbd a96a 54bc b8f1 133c ceff ac3c
000000d0: 0bcb 6b3d a4c6 333e 4b9a 243d 27c9 083d
000000e0: cca8 e2bd 6547 023d 3349 16be 097e f93c
000000f0: 98e3 8e3d ad98 f2bd 8670 51bd 298a b5bd
00000100: d1ef 06bd 7c23 1fbb 7e3c 81bc 0975 7d3d
00000110: d57a 923d e115 383c 1f79 e73d bda4 2c3d
00000120: edd1 063d 7622 90bc fd1f debd d2fa cb3d
00000130: e104 843e 8262 16be e6c8 07bd 7d85 993c
00000140: e868 b4bd e107 9a3d 9782 07be ba0d 25bc
00000150: 9ecf 4e3d 10f6 35bd 2dce 8d3d 6e88 3d3d
00000160: 87e3 2bbe 65f6 1f3e e571 ddbc 1443 5ebd
00000170: e3e2 c9bc c0c3 c0bd 982e 3ebc cf20 473e
00000180: e851 d03d b848 33be 357c 033e 012a 343c
00000190: 5a0c e93d bda6 163e 2a9b 45bc 42c8 d1bd
000001a0: b6bf 3c3d 2daf 84ba bad7 e7bc 0dab ab3d
000001b0: 751a d03d 2561 32bd 4845 50bd 5720 f83d
000001c0: 2e6e a33d c254 0dbd 1dd6 173e 8ec8 afbd
000001d0: 90d2 11be 8b2c c53a 6c1e 953d c2a3 ec3b
000001e0: 02da 933d 0d18 4fbc d981 2b3e daa9 b23c
000001f0: e8c7 e7bd c139 26bd f357 02bd 0d31 043d
00000200: c207 f1bb 38cd b33d e888 fd3c dd07 caba
00000210: c960 80bd 4bcb fbbb 6193 8b3d 3649 173c
00000220: 6c06 173d 7162 a139 3c4a 8d3d 3c81 543d
00000230: 26e9 56bc d17a 0b3e b40f 213d f4a1 86bc
00000240: 8362 44bd a611 d7bb f647 be3b c6c7 b83d
00000250: 68e1 273c d6ba 2abd
-0.03259091 0.026687574 0.07279755 -0.14233918 -0.054584835 -0.09213459 0.05074084 -0.013251373
0.14772077 -0.0516635 -0.0063931155 0.06223814 0.17928173 0.08403239 0.008936286 -0.0004488559
0.07076074 0.06702426 -0.013110744 0.006649284 -0.11868471 -0.033872865 -0.007306817 0.047098573
0.040923174 -0.027216813 -0.15100475 0.12307951 -0.036299646 0.04381503 -0.026440011 -0.14416876
0.13786437 -0.058621693 0.018846454 0.028190143 -0.025171068 -0.03625561 0.14400779 -0.22326927
0.107326835 0.12467138 0.11854671 0.106141664 0.0038271053 -0.056891117 0.01433701 0.11994761
-0.12492685 -0.012964883 0.009029798 0.02111807 0.057566684 0.17556244 0.040186208 0.03339496
-0.11067352 0.03180637 -0.14676361 0.030455606 0.06977004 -0.11845527 -0.0511327 -0.088642426
-0.03294355 -0.0024282625 -0.015775915 0.06187919 0.071523346 0.011235685 0.11302399 0.042149294
0.032915045 -0.017594557 -0.10845945 0.099599496 0.25784972 -0.14686015 -0.033150576 0.01874041
-0.08809072 0.07521034 -0.1323341 -0.010074073 0.050490968 -0.044424117 0.069240905 0.046272688
-0.16786014 0.15621336 -0.027031848 -0.05426319 -0.02464432 -0.09412336 -0.0116077885 0.19446109
0.101718724 -0.17508209 0.1284035 0.010996343 0.11379309 0.14712043 -0.01206092 -0.10243274
0.046081267 -0.0010123007 -0.028301109 0.08382235 0.10161296 -0.043549675 -0.05084732 0.12115543
0.079799995 -0.03450466 0.14827771 -0.08583175 -0.1424048 0.0015043182 0.07281193 0.00722167
0.07219316 -0.0126400115 0.16748752 0.021809507 -0.11317426 -0.040582422 -0.031822156 0.03227334
-0.007355661 0.08779377 0.030949071 -0.001541372 -0.0626846 -0.0076841465 0.0681522 0.009233763
0.03687136 0.00030781658 0.06898925 0.05188106 -0.01311711 0.1362107 0.039321616 -0.016434647
-0.04794551 -0.006563383 0.0058069183 0.09022479 0.010246612 -0.041682087

fc2.bias f4 [3]
00000000: e57f bd3d 0d94 b1bd 1637 aa3d
0.092529096 -0.086708166 0.08311288

fc3.weight f4 [2, 3]
00000000: d116 cfbd 12a2 383e ec9c e43e 8bad b03e
00000010: 3b7e fdbd be38 e73e
-0.10111774 0.18030575 0.44650972 0.34507403 -0.12377592 0.45160478

fc3.bias f4 [2]
00000000: c767 0c3d 3b07 31bd
0.034278657 -0.043219786
