DOMAIN_ADAPTION/C1_C2_experiments/experiments_full_mmd/others/feature=C:Pos._Diff._X_GAMMA=0.5_GAMMA_reduction0.999_num_pool=2_[True, True, False, True, True, True]_exp_1/best_model/model_fc.pt (torch, 2207 bytes, 4 tensors)

fc2.weight f4 [3, 50]
-0.19004855 0.019711483 -0.11681016 -0.07567421 0.17045416 0.048301756 -0.11387115 -0.05107418
-0.011674918 0.04109455 0.19674842 -0.04113487 -0.04724412 0.020987255 -0.02039689 -0.0066139903
0.055259813 0.24727349 0.051948905 0.076631755 -0.0032094815 -0.20494576 0.070948996 -0.026452987
-0.20055501 -0.04085054 -0.14065094 -0.08002653 0.040872984 -0.11544889 0.09241513 -0.14138034
0.03459711 -0.017195553 -0.21513015 0.033880707 -0.11006637 0.01430202 -0.017920066 -0.102577165
0.011780146 -0.08421485 0.09272681 -0.10826506 0.04748664 0.064048 0.012301037 -0.14906077
-0.14118102 0.19417842 -0.024048327 -0.018581208 -0.05082051 0.013941908 0.046750482 0.036699664
-0.051423747 0.025589889 -0.02427301 -0.022825321 0.050718106 -0.004329533 -0.09814698 -0.017782941
-0.05763044 -0.083508305 -0.008135234 0.03538915 0.029587101 0.033534855 -0.038942583 -0.025650881
0.011338501 0.010194649 -0.06729532 -0.0436911 -0.025519868 0.009181867 0.023617432 -0.06737251
-0.025895419 -0.073123276 -0.047756482 0.016540848 -0.018891998 -0.01859686 0.03565434 -0.049343463
-0.079046085 -0.046186335 -0.021794695 -0.14923166 0.040722605 0.04073409 0.017231796 0.04694398
-0.03368874 -0.023437 -0.051939335 0.07695387 0.07553856 -0.059021883 0.0068717552 -0.12245885
0.022147652 -0.041017238 0.10905671 -0.0109895235 0.042794894 0.04861159 0.037785035 0.0651968
-0.063682556 -0.035671197 -0.084321335 -0.084933594 -0.083112255 -0.024786165 -0.048777405 0.034851942
0.039698444 0.01801643 0.030663325 -0.008712976 0.044553798 0.07925174 0.027803985 0.013354814
-0.06748453 -0.036214683 0.006413574 0.08742942 0.014386509 0.062317476 0.01814488 0.010331073
-0.0020002474 0.0043137274 -0.042987347 0.020800745 0.034942858 0.17273062 -0.011735882 0.034313954
0.039851952 -0.1711457 0.00087737443 0.008964431 0.09597734 -0.03910976
00000000: 169c 42be fa79 a13c 2a3a efbd 15fb 9abd
00000010: 898b 2e3e 10d8 453d 4735 e9bd 2933 51bd
00000020: 2848 3fbc c252 283d 6b78 493e 0a7d 28bd
00000030: 0d83 41bd 77ed ab3c 6117 a7bc 2cba d8bb
00000040: 1d58 623d 4335 7d3e 60c8 543d 1cf1 9c3d
00000050: 2a56 52bb 4ddd 51be b54d 913d efb3 d8bc
00000060: 4b5e 4dbe e552 27bd cd06 10be f3e4 a3bd
00000070: 6e6a 273d 7870 ecbd 2544 bd3d 02c6 10be
00000080: b3b5 0d3d b0dd 8cbc 144b 5cbe 7fc6 0a3d
00000090: 7a6a e1bd 0553 6a3c 1acd 92bc fa13 d2bd
000000a0: 8301 413c d678 acbd 8ee7 bd3d 12ba ddbd
000000b0: 5a81 423d 992b 833d 4a8a 493c 63a3 18be
000000c0: c291 10be b5d6 463e ff00 c5bc 9e37 98bc
000000d0: 2b29 50bd 9a6c 643c 6f7d 3f3d 6352 163d
000000e0: b5a1 52bd e3a1 d13c 31d8 c6bc 2bfc babc
000000f0: cabd 4f3d c1de 8dbb 4901 c9bd 88ad 91bc
00000100: e50d 6cbd 6706 abbd a549 05bc 37f4 103d
00000110: a660 f23c d85b 093d 4282 1fbd cc21 d2bc
00000120: 1fc5 393c 7507 273c 21d2 89bd 70f5 32bd
00000130: 0b0f d1bc 8b6f 163c 5879 c13c 99fa 89bd
00000140: a122 d4bc a8c1 95bd 4d9c 43bd ac80 873c
00000150: 64c3 9abc 7158 98bc 490a 123d 5f1c 4abd
00000160: eae2 a1bd e22d 3dbd ca8a b2bc 2fd0 18be
00000170: bfcc 263d cad8 263d b229 8d3c 5548 403d
00000180: 34fd 09bd f4fe bfbc 57be 54bd fe99 9d3d
00000190: f6b3 9a3d eec0 71bd 762c e13b b5cb fabd
000001a0: fe6e b53c b101 28bd 2059 df3d 670d 34bc
000001b0: b349 2f3d f21c 473d 7bc4 1a3d e685 853d
000001c0: 006c 82bd f61b 12bd aab0 acbd aaf1 adbd
000001d0: c236 aabd 5b0c cbbc d1ca 47bd e9c0 0e3d
000001e0: d69a 223d 3197 933c a731 fb3c dfc0 0ebc
000001f0: 0b7e 363d bc4e a23d 2fc5 e33c 26ce 5a3c
00000200: 5435 8abd d955 14bd f528 d23b 320e b33d
00000210: 64b5 6b3c 9c40 7f3d 92a4 943c a943 293c
00000220: 9516 03bb 2b5a 8d3b 8013 30bd 5366 aa3c
00000230: 3e20 0f3d 4ce0 303e db47 40bc ca8c 0c3d
00000240: cd3b 233d d240 2fbe 9aff 653a 8cdf 123c
00000250: c58f c43d 8e31 20bd

fc2.bias f4 [3]
-0.011042882 0.14359726 0.00095726846
00000000: 34ed 34bc 290b 133e 33f1 7a3a

fc3.weight f4 [2, 3]
0.48275566 0.24646151 -0.13591665 0.5231201 0.2788887 -0.2120941
00000000: c02b f73e 6860 7c3e bc2d 0bbe 33eb 053f
00000010: 80ca 8e3e 322f 59be

fc3.bias f4 [2]
-0.3711683 -0.30111352
00000000: c509 bebe 8d2b 9abe
