DOMAIN_ADAPTION/C1_C2_experiments/side_experiments/experiments_no_mmd_all_single_features/feature=D:z_bottom__GAMMA=1.0/best_model/model_fc.pt (torch, 2207 bytes, 4 tensors)

fc2.weight f4 [3, 50]
-0.10675728 0.123180255 0.123298824 0.057633642 0.07173842 -0.04473298 -0.031473786 0.0034932827
0.1120281 -0.04997915 0.09277252 0.06385206 -0.13611557 0.07920152 -0.05099435 0.11431777
0.04502688 0.09051948 0.052267406 -0.023425203 0.12686223 -0.018886948 -0.028559666 -0.03479752
0.125749 -0.051062796 0.10613533 -0.06194781 -0.04748866 -0.045014743 0.0040190225 -0.020924209
-0.10408235 0.020992132 -0.07842721 0.07824654 -0.06351181 -0.017343277 -0.10089703 -0.074496545
-0.13682368 0.0046658586 -0.015787113 0.053734705 0.023498876 0.07779336 0.06764912 -0.042153526
-0.11578964 0.04860921 0.033642493 -0.08764087 0.10026904 -0.0029996082 -0.049581084 -0.049820915
-0.08634089 0.018018639 -0.10612006 -0.06473431 -0.13175355 0.12006427 -0.030958295 -0.104813434
0.009274128 -0.041900206 -0.0059630712 -0.1282808 -0.04572124 -0.07799101 0.11684879 0.033259884
0.051098436 0.024284374 -0.039450075 -0.050807185 0.010037863 0.08652039 -0.019371046 -0.062249415
-0.05905598 0.02443634 -0.027877208 -0.006209175 0.06493636 -0.11224623 -0.10200996 0.06789522
-0.10811734 0.00084013847 -0.0136082405 -0.057900146 0.022792714 -0.039139014 -0.00025957404 5.1452877e-05
0.01749 -0.10681679 0.008264356 0.11991039 0.05768085 -0.08782802 0.06483511 0.05200505
0.07995144 0.060013033 -0.09168194 0.0046377047 0.10206669 -0.13864347 0.05750877 0.0488468
-0.12355022 -0.137094 -0.05053323 0.014122971 -0.047198657 0.10034621 -0.09847392 0.041047256
0.0588395 0.13027197 -0.03435314 -0.096791185 0.04585633 -0.008788832 0.09118453 0.0632414
0.08931938 0.056416932 -0.07394368 -0.08979678 0.09790201 0.10165055 0.0005484148 0.14120778
0.042903353 0.05917647 -0.047772612 -0.08282235 -0.08392458 0.08819328 0.10869469 0.01359649
-0.11058874 0.059559654 0.11812655 0.057937354 -0.07382945 0.0047462243
00000000: 90a3 dabd ee45 fc3d 1884 fc3d 4111 6c3d
00000010: 98eb 923d ee39 37bd a8ea 00bd 8fef 643b
00000020: fd6e e53d f0b6 4cbd 85ff bd3d dec4 823d
00000030: e161 0bbe 6834 a23d 74df 50bd 6f1f ea3d
00000040: 1b6e 383d 4762 b93d 5916 563d 36e6 bfbc
00000050: 2ce8 013e cdb8 9abc f6f5 e9bc d887 0ebd
00000060: 59c4 003e 3927 51bd 7b5d d93d fdbc 7dbd
00000070: 7883 42bd 6161 38bd 01b2 833b 3f69 abbc
00000080: 2129 d5bd b1f7 ab3c 729e a0bd b93f a03d
00000090: 7b12 82bd 7d13 8ebc 1aa3 cebd a591 98bd
000000a0: 821b 0cbe 0fe4 983b fa53 81bc ec18 5c3d
000000b0: b780 c03c 2052 9f3d 9f8b 8a3d 2da9 2cbd
000000c0: 1e23 edbd 731a 473d b6cc 093d 0e7d b3bd
000000d0: db59 cd3d 1395 44bb 8915 4bbd 0411 4cbd
000000e0: 7ed3 b0bd d39b 933c 7955 d9bd 6c93 84bd
000000f0: 67ea 06be 42e4 f53d 409c fdbc 6da8 d6bd
00000100: 83f2 173c 8d9f 2bbd de65 c3bb 0b5c 03be
00000110: 3246 3bbd c0b9 9fbd 6b4e ef3d 843b 083d
00000120: 984c 513d 06f0 c63c 6796 21bd 321b 50bd
00000130: d975 243c 9a31 b13d 07b0 9ebc 3ef9 7ebd
00000140: afe4 71bd b82e c83c be5e e4bc 5676 cbbb
00000150: 5bfd 843d 5ae1 e5bd 99ea d0bd a60c 8b3d
00000160: a06c ddbd bd3c 5c3a 19f5 5ebc b428 6dbd
00000170: c9b7 ba3c 3b50 20bd 7017 88b9 1bcf 5738
00000180: 3047 8f3c c3c2 dabd 3967 073c 9493 f53d
00000190: c142 6c3d 2ddf b3bd 45c8 843d 3f03 553d
000001a0: 95bd a33d 3ad0 753d bec3 bbbd e3f7 973b
000001b0: 5708 d13d 8ef8 0dbe 518e 6b3d 9513 483d
000001c0: e607 fdbd 5f62 0cbe effb 4ebd 0964 673c
000001d0: 6153 41bd 5082 cd3d b2ac c9bd 2b21 283d
000001e0: b001 713d 0466 053e e1b5 0cbd 753a c6bd
000001f0: d9d3 3b3d 09ff 0fbc f4be ba3d b584 813d
00000200: 14ed b63d 7115 673d c96f 97bd 60e7 b7bd
00000210: d980 c83d 2a2e d03d 7fc3 0f3a c698 103e
00000220: 6dbb 2f3d 0763 723d 37ad 43bd c49e a9bd
00000230: a6e0 abbd ae9e b43d 529b de3d d0c3 5e3c
00000240: 597c e2bd d3f4 733d 55ec f13d b84f 6d3d
00000250: e533 97bd 3786 9b3b

fc2.bias f4 [3]
0.099494636 -0.110460065 0.047675993
00000000: d8c3 cb3d e338 e2bd e747 433d

fc3.weight f4 [2, 3]
0.2840941 -0.14117745 -0.2628288 0.48518202 -0.0696985 0.368689
00000000: c874 913e d290 10be 7f91 86be c769 f83e
00000010: 16be 8ebd cec4 bc3e

fc3.bias f4 [2]
0.37448534 -0.36221293
00000000: 8bbc bf3e f973 b9be
