DOMAIN_ADAPTION/experiments_fc/feature=D:I_ist_X_GAMMA=1.0_GAMMA_reduction1.0_num_pool=2_[False, False, False, True, True, True]_exp_1/best_model/model_cnn.pt (torch, 762095 bytes, 16 tensors)

conv1.weight f4 [64, 1, 100]
000000 bd b9 15 bd 10 2f 09 3d 12 c1 32 3d 26 30 76 3d
       -0.036554087 0.033492148 0.043641157 0.06010451
000010 7b 86 b7 3d ff de b2 bc 48 db 60 3d 5e d8 04 3e
       0.08961197 -0.021834848 0.054896623 0.12973163
000020 b9 a9 2d bd 30 09 ee 3d 29 aa a2 3d ab 0a 77 3d
       -0.04239819 0.11622846 0.07942612 0.06031291
000030 9d 69 23 3e 87 2e e8 3c 26 87 30 3d 43 ad 5e 3b
       0.15958257 0.028342498 0.043097638 0.0033977784
000040 e0 39 29 3e a4 bd 92 3b f2 b6 35 3e 69 fa a1 3c
       0.16525984 0.0044781733 0.1774557 0.019772725
000050 28 19 1a 3e 1a 63 49 3d 83 5a 42 3e 06 9d 1c 3d
       0.15048659 0.049166776 0.1897984 0.038235687
000060 a3 19 57 3d d2 1c c6 3d 84 11 31 3d 4a 5a 65 3e
       0.052514683 0.09673466 0.043229595 0.22397724
000070 e6 48 32 3e 93 fa ac 3d 33 bf 93 3d 56 96 f7 3d
       0.17410621 0.08446231 0.07214203 0.12089221
000080 fc b5 2a 3e 52 37 f0 3d 42 16 6c 3e af 72 00 3e
       0.16670984 0.117293015 0.23055366 0.12543748
000090 e3 f9 58 3e fc 25 85 3e d5 14 fc 3d 39 bb fe 3d
       0.21189074 0.26005542 0.12308661 0.12438054
0000a0 a2 c0 ea 3d e3 64 65 3e 42 be 95 3e d7 56 24 3e
       0.11462523 0.22401766 0.29246718 0.16048752
0000b0 34 d5 53 3e 31 18 91 3e 4b 8f 9a 3e 26 c4 8b 3e
       0.206868 0.2833877 0.3018745 0.27298087
0000c0 d1 dc 80 3e 16 ea 78 3e 37 7f 62 3e 60 02 9b 3e
       0.2516847 0.24308047 0.22118841 0.3027525
0000d0 eb f6 60 3e 3a 98 7a 3e ff 0e 4e 3e 2b 48 93 3e
       0.21969192 0.24472132 0.20122908 0.28765997
0000e0 a4 74 c9 3d f8 26 26 3e e0 2f ca 3d 71 71 51 3e
       0.098367006 0.16225803 0.09872413 0.2045343
0000f0 41 68 23 3e d2 38 c3 3d 44 2c b7 3d af 2b 40 3e
       0.15957738 0.09532322 0.0894399 0.18766664
000100 40 4c 6d 3e 23 de 6e 3e ae 0a 59 3e 38 4c 81 3d
       0.23173618 0.23326926 0.2119548 0.06313366
000110 48 65 5b 3e 8b 85 63 3e d1 a2 05 3e ce 85 84 3c
       0.21425354 0.22218911 0.13050391 0.016177084
000120 0c 83 11 3d d3 58 97 3c 94 2a e6 3d 43 3f 32 3e
       0.035525367 0.018474972 0.1123859 0.17406945
000130 14 1d 1b 3e 88 48 01 3d d4 31 f8 3c 6b 78 c5 3d
       0.15147811 0.03156331 0.030297197 0.096421085
000140 06 2b 5e 3c 91 9c 56 3d f1 c9 b1 3d b3 23 47 3c
       0.013560062 0.052395407 0.086810954 0.012154507
000150 1e 22 a6 3d 07 9f f1 3c db df 00 3e 46 ed 48 bd
       0.08111976 0.029494775 0.12585394 -0.049054407
000160 13 b9 eb 3d 17 48 ba 3d 49 ad 88 bd 7c 49 2a 3d
       0.115099095 0.09095781 -0.066736765 0.041573986
000170 3b 29 16 bb 69 22 57 3d 62 08 9c 3d 71 84 64 bd
       -0.002291276 0.05252305 0.076187864 -0.05579037
000180 1f c5 84 bd 74 28 9f bd 57 ed 6e 3d 15 32 cb bd
       -0.0648291 -0.07771388 0.058331814 -0.09921662
000190 24 96 c4 bd f0 48 6b 3d 38 93 92 3c c6 34 11 3d
       -0.095989496 0.057442605 0.017892465 0.03545072
0001a0 ff fa 50 3d 63 de f1 bd 35 c1 70 bd d7 4b 2a bd
       0.05102062 -0.11809995 -0.058778007 -0.041576233
0001b0 37 b8 5d 3d ed 5e 84 bd 90 3a 3e bd ec 35 83 3c
       0.05413076 -0.06463418 -0.04644257 0.016016923
0001c0 aa 00 31 3c 49 a9 d9 bd 55 09 02 be ec 13 a3 bd
       0.010803381 -0.10627992 -0.12698872 -0.07962784
0001d0 5e d4 34 bc 2d e0 5c 3d 28 82 11 3a bc 00 61 3c
       -0.01103696 0.05392473 0.0005550706 0.013733085
0001e0 75 04 5a bc 72 44 8f bd 3e bc 7d bd 2b 5a 22 3d
       -0.013306727 -0.06995477 -0.0619471 0.039636772
0001f0 45 63 c7 bc 2f ba d4 bc 06 7a 2c 3c b6 7d cb 3c
       -0.024339328 -0.025967686 0.0105271395 0.024840217
000200 77 e3 a4 bc ed af 6a bd 84 02 bd bd 1c b5 df bd
       -0.020127995 -0.057296682 -0.092289954 -0.10923216
000210 3c 7b cb bd e1 eb 04 3d 3d b5 f8 3c ec 73 cf bd
       -0.099356145 0.032451514 0.030359859 -0.10129532
000220 29 5b 0d 3d 3f 86 9a bd 1c cc 9c bd fc 85 a5 bc
       0.034510765 -0.07545137 -0.07656118 -0.02020549
000230 21 5f 08 be bc 00 e4 bd f7 02 89 bd 80 31 ab bd
       -0.13317539 -0.111329526 -0.066900186 -0.08359051
000240 37 2d 0e bb d6 33 9d bd 71 41 0e be 5a d1 0f be
       -0.002169443 -0.076759025 -0.13892151 -0.14044705
000250 cd f6 2b 3d e3 f5 29 bc 58 62 1f be 49 a5 0d be
       0.041983414 -0.010373565 -0.15564859 -0.13832583
000260 f9 f6 f4 bd 69 91 0a 3d cb 2e 17 bb be 14 c7 bc
       -0.11961169 0.03383008 -0.0023068662 -0.024301883
000270 5c 24 1b ba c4 e3 24 bd b6 19 65 3c ea 28 0d be
       -0.0005918199 -0.040256277 0.013983181 -0.13785139
000280 41 45 a1 3c 24 eb 59 bc bd 2f d4 bc e2 8c a0 3b
       0.019686343 -0.013300691 -0.02590167 0.004899607
000290 98 71 a1 bd 4a 93 da bd fc ed b0 bd 0e 6b 09 be
       -0.078829944 -0.106726244 -0.08639142 -0.13419744
0002a0 30 6f 72 bd 3f 2e 10 bc 1b 17 2b bd be c3 82 bd
       -0.059188068 -0.008800088 -0.041770082 -0.06384991
0002b0 05 a4 b8 bc 18 f6 1a be 79 0e 01 be 90 f5 16 be
       -0.022539148 -0.1513294 -0.12603177 -0.14742112
0002c0 bf eb 20 3d 28 aa 1a be 6c c8 4d bc 00 f6 44 3c
       0.039287325 -0.15103972 -0.012559991 0.012021542
0002d0 d9 27 b6 bd 73 1c 9c bd 50 d6 b1 3c 01 ab 11 be
       -0.08894319 -0.07622614 0.021708637 -0.14225389
0002e0 d7 07 24 be 81 86 9b bd 13 e7 97 bd 61 77 d1 bd
       -0.16018616 -0.07594014 -0.07417121 -0.10227848
0002f0 6b e8 59 bd 94 b4 01 bc df 24 fc bb b0 2f 04 bd
       -0.053200167 -0.007916588 -0.007694825 -0.03227204
000300 58 10 18 3c 78 45 dd bd d3 33 60 bd ca fe e1 bc
       0.00928124 -0.10804266 -0.054736923 -0.027587313
000310 b7 b4 ed bc 96 8c c6 bd 3e 44 a7 3c 41 05 0c be
       -0.029016836 -0.096947834 0.020418283 -0.13673879
000320 57 e7 9b bc db ec 80 bd 79 ef 2f 3d f6 36 21 bd
       -0.01903121 -0.062951766 0.04295299 -0.039359055
000330 ed ad e7 3d 25 40 c3 bc f9 88 99 3d c2 38 11 3e
       0.113124706 -0.023834297 0.074968286 0.14181808
000340 dd e1 11 3e f5 73 bd 3d fd 7f d1 3d dd f0 b2 3d
       0.14246316 0.09250633 0.1022949 0.08737347
000350 ef 62 09 3e 97 19 9d 3d 8d 70 6d 3c 0d 22 3e 3e
       0.13416646 0.076708965 0.014492166 0.18567677
000360 9e 67 fb 3c 29 3f 50 3e 09 87 ff 3d 97 26 2e 3e
       0.030689057 0.20336594 0.12476928 0.17006908
000370 bc 84 02 3e db f4 3b 3e ad 36 5d 3e e2 9d 6e 3d
       0.12745947 0.18355124 0.21602888 0.058256038
000380 49 43 5f 3e fc 7f 0f 3e ca 81 af 3d 39 c0 e7 3d
       0.21803011 0.14013666 0.08569677 0.113159604
000390 bb cd 55 3e c2 c0 8c 3e ac 50 e9 3d 3e d9 7f 3e
       0.20879261 0.27490813 0.1139234 0.24985215
0003a0 1b a4 84 3e 14 ec 0d 3e 76 0c 85 3e f1 a8 3e 3e
       0.25906453 0.13859588 0.2598607 0.18619134
0003b0 c4 03 84 3e 88 cd 5b 3e d3 82 aa 3e 57 3e 2f 3e
       0.25784123 0.21465123 0.33302936 0.17113625
0003c0 b3 d5 a0 3e f5 60 5c 3e 24 66 8f 3e 52 4c 85 3e
       0.3141304 0.21521361 0.28007615 0.2603479
0003d0 40 1d 1b 3e d3 c5 47 3e ea 40 7e 3e 80 f9 72 3e
       0.15147877 0.19509058 0.2482945 0.23727989
0003e0 5d 7f 3b 3e 28 1a 92 3e a5 89 2a 3e f9 fe 20 3e
       0.18310304 0.2853558 0.1665407 0.15722264
0003f0 61 90 81 3e 84 a4 3e 3e 46 9a 65 3e 1a 02 80 3e
       0.25305465 0.18617445 0.22422132 0.25001603

conv1.bias f4 [64]
000000 f3 7d 6c bc 0c 63 03 3d 84 2f bf bd dd 29 71 3d
       -0.0144343255 0.03207688 -0.09335235 0.058877815
000010 4e 18 bf bd 15 da 92 3c 33 cc 19 bc f0 75 85 bd
       -0.093308076 0.017926255 -0.009387064 -0.065166354
000020 9a 2a eb 3c 69 62 f3 bc 69 eb 5e bd c9 80 fb bc
       0.028706837 -0.029710012 -0.054423723 -0.030701058
000030 cb 5f 52 bd fb 18 b7 bd b9 e3 95 bd 0a 21 ad bd
       -0.051360887 -0.089403115 -0.07318825 -0.08453567
000040 e5 1b 90 3c 76 67 78 3e 4f ca f1 bd 11 17 42 3d
       0.017591426 0.24258217 -0.118061654 0.04738528
000050 47 58 26 3d e8 23 b8 bd c2 c8 ac 3d cb 55 06 3e
       0.04061153 -0.089912236 0.08436729 0.13118665
000060 dd 8c 9b 3d f6 c9 0e be 79 96 6a bc 93 2d 10 3d
       0.07595227 -0.1394423 -0.014318102 0.035199713
000070 e6 3f 5a bc f2 1d cd 3c 6d 9b b4 3d 30 55 bb bd
       -0.013320899 0.025038693 0.088187076 -0.091471076
000080 02 f8 30 be 90 c7 4c 3d 13 01 d5 3c 8c 4d 2f 3c
       -0.17282107 0.049995005 0.026001489 0.010699641
000090 05 e7 39 3d 76 35 99 bc af 4a b4 bd 9c 3b a6 bd
       0.045386333 -0.01870225 -0.08803307 -0.08116838
0000a0 75 4f 0c 3e 3c b2 e0 3d 1d f2 fa bd 4c 20 db bd
       0.13702185 0.109714955 -0.12253211 -0.106995195
0000b0 91 33 d4 bc 87 34 16 bd 82 fc ca bd 98 01 c5 bd
       -0.025903495 -0.036671188 -0.09911443 -0.096194446
0000c0 74 34 37 3d f9 17 e3 bb db f4 47 3c 88 94 00 bd
       0.044727758 -0.006930348 0.012204374 -0.03139165
0000d0 93 6c a5 bd 76 9f 11 3d dc b8 2f be 42 ab 03 3e
       -0.080773495 0.035552464 -0.17160362 0.12858298
0000e0 aa 04 f8 bd 6e 31 53 bd cd 50 69 bc ee 66 f6 bc
       -0.121102646 -0.05156081 -0.014240456 -0.030078378
0000f0 38 75 85 3d 2b 84 e7 bd de cf 8d 3d f3 03 7f bc
       0.06516498 -0.11304506 0.06924413 -0.015564906

conv2.weight f4 [32, 64, 10]
000000 77 4a ed bd 19 82 dc bd ae 94 bc bd 84 54 fd bd
       -0.11586469 -0.10767002 -0.09208046 -0.12369636
000010 b5 70 80 bd e8 2a 0e 3c 46 ce 83 bd f1 3c d5 3c
       -0.06271497 0.008677222 -0.06435828 0.026030036
000020 24 93 46 3d 44 61 18 bc af 98 1f bd 61 4e 4f bd
       0.048480168 -0.009300534 -0.03896397 -0.050611857
000030 88 65 b3 bd e1 4a 6f bd 68 b5 8f bd b8 a4 e8 bc
       -0.087596 -0.05842102 -0.07017022 -0.028398857
000040 27 20 9e bd c0 29 8c bd 65 c7 ea bc 2f a3 a8 bd
       -0.07720976 -0.06843901 -0.028659532 -0.0823425
000050 4b b7 21 be e5 85 bf bd 7f 9b 06 be 05 54 0a be
       -0.15792577 -0.0935171 -0.13145255 -0.13508613
000060 47 32 10 be 51 86 00 be 78 4d ac bd d4 08 68 bd
       -0.1408168 -0.12551238 -0.084132135 -0.056649044
000070 53 89 4f bd d3 74 33 bc 11 18 bb bd c9 15 3b bd
       -0.050668072 -0.010953146 -0.0913545 -0.045675073
000080 0c 64 b5 bc 0b 3d a8 bd 0f ed 2d bd 5d 04 aa bd
       -0.022142433 -0.08214768 -0.042462405 -0.083016135
000090 93 30 cf bd fa 69 a6 bd a4 5a 74 bd ca 4a a9 bd
       -0.10116687 -0.08125682 -0.059656754 -0.08266218
0000a0 a3 76 da bc 1d a0 53 3d 79 23 25 3d 79 ca dd bc
       -0.026667899 0.051666368 0.040317032 -0.027074086
0000b0 aa 9c ca 3c 05 22 ba 3c 0e 89 10 3c b2 b5 0e bd
       0.024732906 0.0227213 0.008821739 -0.034841247
0000c0 fc b3 23 b9 f6 23 66 bd 07 d1 17 bd 41 3f 1a 3c
       -0.00015611941 -0.05618664 -0.03706458 0.009414495
0000d0 79 36 12 3d c6 2f 1a b9 f8 f2 e4 bc ee 9b 2b 3d
       0.03569648 -0.00014704381 -0.027947888 0.041896753
0000e0 be 3d 6a 3c f5 5e 17 bc e1 3e cd bc 8d 0c 0b 3d
       0.014296947 -0.009238948 -0.025054397 0.033947516
0000f0 ce 83 eb bd a5 e1 9f bd 0b 11 62 bd a3 ee 88 bb
       -0.11499749 -0.0780671 -0.055192035 -0.0041788383
000100 9b 94 9d bb 4f 35 a0 3c cb 37 07 3d 1d 89 4d 3d
       -0.004808975 0.01955667 0.033012193 0.05017959
000110 11 42 db 3c e8 9d 7c 3d 3e bf bc bd a3 4c 2e bd
       0.026764901 0.06167403 -0.09216164 -0.042553555
000120 bc 7d 24 bd 87 26 69 bd 4c c7 1e bd 6c 2e 26 3d
       -0.040158972 -0.05692151 -0.038764283 0.040571615
000130 c1 63 2d 3b 1d ff d4 3c 05 5a 93 3d b7 ac 25 3d
       0.0026457163 0.026000554 0.07194904 0.040447917
000140 d0 89 be 3d cd e0 b5 3d f4 88 e1 3d b8 74 5a 3d
       0.093036294 0.08880768 0.1101245 0.053333968
000150 95 38 b9 3d a1 74 8c 3d 72 35 c1 3d 5f 03 15 3c
       0.09043995 0.06858183 0.09434022 0.009095042
000160 fd 0e 92 3d 81 c4 f3 3c 90 a4 e6 3b 2f 07 c5 3c
       0.07131765 0.029756786 0.0070386603 0.024051277
000170 30 ab 48 3d fc 91 06 3d 18 ae 6a 3d 43 1b a0 3d
       0.048991382 0.032854065 0.057294935 0.078177
000180 60 51 d5 3d ac f8 97 3d fa e0 ee 3d 31 ad 9e 3d
       0.10415912 0.07420477 0.116640046 0.077478774
000190 6a 3d 99 bd 0f 1d af bc 60 a8 99 bd b8 ab e6 bc
       -0.07482417 -0.02137616 -0.07502818 -0.028158054
0001a0 81 c9 10 3d 8d 35 db bc 24 4d 1c bd d6 c8 22 3d
       0.03534842 -0.026758933 -0.038159505 0.039742313
0001b0 52 8c 40 bd 5f 0d a2 bc c4 f7 c0 3d 9e 9f fb 3d
       -0.04700882 -0.019781766 0.094222575 0.12286304
0001c0 eb 0c de 3d c7 10 12 3e 32 4a b3 3d 23 01 07 3e
       0.10842308 0.14264213 0.08754386 0.13184027
0001d0 1c 61 d3 3d 49 c2 95 3d 35 18 bb 3d 9c cd 91 3d
       0.103212565 0.073124476 0.091354765 0.07119295
0001e0 24 b8 07 bd 5b 59 c4 bc dc d6 9e bd 3a f0 25 3d
       -0.033134595 -0.02396839 -0.07755825 0.0405123
0001f0 ae d7 ac 3d e7 87 b7 3d 7b 6a 04 bd cf ee 0e bd
       0.08439575 0.08961468 -0.03232811 -0.034895714
000200 e1 17 92 bd 1f 0e be bc 01 e3 17 bd 7c 06 58 bc
       -0.07133461 -0.023200093 -0.037081722 -0.01318514
000210 c9 0e 8e 3c d9 18 93 3c 86 b1 1e bc 0f 08 a2 bc
       0.017341034 0.017956184 -0.00968588 -0.019779233
000220 de 96 69 3c 8e 88 ad 3c 40 b3 8f 3c 72 70 15 3b
       0.014257161 0.021183278 0.017541528 0.0022802618
000230 70 16 68 bd 94 e9 ce bd bf 73 f5 bd 0d 62 e6 bd
       -0.056662023 -0.10103145 -0.119849674 -0.112491705
000240 9f 24 7c bd 84 f4 c2 bd 78 ea 85 bd 24 9e 73 bd
       -0.061558362 -0.09519294 -0.06538862 -0.059476987
000250 96 0e dd bd 30 e2 9a bd d6 41 8c bc df 26 76 bd
       -0.10793798 -0.07562673 -0.017121237 -0.060095664
000260 3c 59 7d bd 96 f0 0a bd 01 ed 3e bd a8 21 70 bd
       -0.06185268 -0.033920847 -0.046612743 -0.058625847
000270 9b 30 01 bd 6a 4b ef bc 29 e4 94 3c 1c e3 c0 3c
       -0.031540494 -0.029210765 0.018175201 0.023545794
000280 7f d5 b1 bd e9 63 5c bd 67 00 7b bd 32 77 f3 bc
       -0.08683299 -0.05380622 -0.06127968 -0.029719923
000290 02 d8 a9 bd 6e 36 e3 bc 10 51 85 bc fe 48 dc 3b
       -0.08293153 -0.027735915 -0.016274005 0.0067225685
0002a0 75 23 a8 3c 87 39 3d bc f2 83 29 be 37 6b c1 bd
       0.02052472 -0.01154936 -0.1655424 -0.09444278
0002b0 4b a2 cf bd 49 60 60 bd 13 ef 3a bd 08 64 49 bd
       -0.10138377 -0.054779325 -0.045638155 -0.049167663
0002c0 10 b6 72 bd 55 1f 1f be 2b d1 06 be dd 39 e4 bd
       -0.05925566 -0.15539296 -0.13165729 -0.11143849
0002d0 9d a0 b3 bd 48 67 48 bd 2e 62 bf 3d 73 19 59 bd
       -0.08770869 -0.04892662 0.09344898 -0.053002786
0002e0 8a 43 8c bd a2 1b 39 3d 30 17 20 3d 4d 8b e6 bc
       -0.068488196 0.04519237 0.039084613 -0.028142596
0002f0 c6 39 94 bd 9b 4c ee bc aa 12 88 bd 93 2d c3 bd
       -0.07237582 -0.029089263 -0.06644185 -0.09530177
000300 25 c6 84 bd 7c 58 c5 bd 2f 99 8e bd 48 a8 8e bd
       -0.064831056 -0.09636018 -0.06962811 -0.06965691
000310 e2 60 5e bd 86 40 6a 3c 13 53 c4 3d 18 5a cc 3c
       -0.054291613 0.01429761 0.09586158 0.024945304
000320 dc a2 0e 3d 79 cf d3 3c 47 bd 5c bd fb d3 b1 bd
       0.034823284 0.025855767 -0.053891446 -0.0868301
000330 d6 c9 8c bd b3 12 ce bc 1b b3 8e bc 7f be bc bc
       -0.06874435 -0.0251554 -0.017419389 -0.023040054
000340 82 72 85 bd a3 8d ba bd 8b 00 8a 3d 9f c6 68 3d
       -0.06515981 -0.09109046 0.06738385 0.056830045
000350 a6 39 9f 3c f8 ab 41 3d f6 1b 98 3d 9e ff f7 3d
       0.019436669 0.047283143 0.07427208 0.12109302
000360 5c 11 a9 3d 91 80 06 3e 2e 01 15 3e d7 75 0a 3e
       0.08255264 0.13134982 0.14551231 0.13521515
000370 49 b6 3d be 79 6d 48 be b4 50 38 be 9c 29 4e be
       -0.18526568 -0.1957301 -0.17999536 -0.2013306
000380 ec 46 34 be d4 92 22 be 2f 2a e4 bd 28 74 e6 bd
       -0.1760518 -0.15876323 -0.111408584 -0.11252624
000390 f3 3f 8d bd 7a 2d c6 3c 9f 79 a1 bd 20 02 af bd
       -0.06896963 0.024191607 -0.078845255 -0.08545327
0003a0 72 5c 03 be 6d 11 d6 bd 8e 1d a1 bd 41 31 b2 bd
       -0.12828234 -0.104525425 -0.07866965 -0.08700801
0003b0 13 9d bc bd 6e aa 97 bd 34 b8 3c bd e3 d2 87 bd
       -0.09209647 -0.07405554 -0.046074107 -0.0663202
0003c0 13 27 e5 bc 46 9c 6f bd ab 6d f4 3c f8 e6 c3 3c
       -0.027972734 -0.058498643 0.02983745 0.023913845
0003d0 05 13 1e 3d 93 6c fc 3c 3b e6 f8 3c 0b 27 29 3d
       0.038592357 0.030813491 0.03038322 0.041297
0003e0 b6 22 fc 3c c6 25 0a 3d 7b 00 0d be db dc d3 bd
       0.03077827 0.03372743 -0.13769715 -0.10344859
0003f0 18 ff dd bd 34 c7 a1 bd 36 28 d8 bd ec f4 a2 bd
       -0.10839671 -0.07899323 -0.10554545 -0.079568714

conv2.bias f4 [32]
000000 c2 23 03 3d e6 b5 0d 3d 7d 84 02 3c bb b4 4d bc
       0.032016523 0.0345973 0.007966158 -0.0125552965
000010 34 7e 2b bd 05 34 4f bc 2c 3f 8c 3c b2 ec cd 3b
       -0.041868404 -0.01264668 0.017119966 0.00628432
000020 7b bc 27 bd ae 2e d6 bb 13 24 ec bc 24 9d 82 3a
       -0.040951233 -0.0065363264 -0.028825795 0.0009965044
000030 44 d4 87 3c 89 89 30 3d 0f 2b c7 bb e8 c1 c8 3c
       0.016580708 0.043099914 -0.006078131 0.024506524
000040 2a 46 b1 bc fc 4f 08 bd fc e2 a0 bc 06 17 58 3a
       -0.021639902 -0.033279404 -0.019639485 0.0008243177
000050 16 cd f3 3c 17 bf 46 bb 74 1f b6 3b 60 74 c4 bc
       0.029760879 -0.00303263 0.0055579487 -0.023981273
000060 d6 dc 6c bc 7c 1a fe ba e5 aa d6 3c b6 03 65 bc
       -0.014456948 -0.0019386555 0.026204536 -0.013977936
000070 51 17 dc 3c 2f a2 23 3c 42 22 1e 3c b2 c8 c0 b8
       0.026866587 0.009987398 0.009651722 -9.192656e-05

batch1.weight f4 [32]
000000 4b 8e 71 3f 91 4e 67 3f c0 6d 8b 3f 16 de 40 3f
       0.94357747 0.9035426 1.0892868 0.75338876
000010 7e 91 8b 3f 1d 4b 80 3f bb 54 65 3f be a3 7d 3f
       1.0903776 1.0022923 0.89582413 0.99077976
000020 15 22 82 3f 27 0d 7b 3f ee 2a 7f 3f 4a 22 5d 3f
       1.0166651 0.98066944 0.9967488 0.86380446
000030 28 da 69 3f 79 8a a2 3f 38 8a 9f 3f 74 f7 7e 3f
       0.91348505 1.2698509 1.2464056 0.99596334
000040 e3 ba 60 3f ce a5 70 3f f4 ea 85 3f 12 46 8a 3f
       0.87785167 0.94003 1.0462327 1.0802634
000050 43 15 67 3f 21 e6 86 3f a2 6b 6e 3f 96 ac a3 3f
       0.9026682 1.053898 0.93132985 1.2787044
000060 72 72 77 3f b0 0a 5f 3f 4d fa 67 3f 44 fd 9d 3f
       0.96659005 0.8712568 0.90616304 1.2342916
000070 ac 31 64 3f 1e 5b 7d 3f 7d a9 8e 3f 60 ed 70 3f
       0.89138293 0.9896716 1.1145474 0.94112206

batch1.bias f4 [32]
000000 15 54 12 be bd 4c 00 be 40 f3 76 3d 6f ac 4d be
       -0.14289887 -0.12529273 0.060290575 -0.2008531
000010 00 1b 24 bd ad 51 94 bd d7 34 f1 bd c7 26 df bd
       -0.04006481 -0.07242141 -0.117776565 -0.10896068
000020 d6 32 d7 bd 8d dc 08 bd 53 9c d3 bd 34 77 b1 bd
       -0.10507743 -0.03341346 -0.10332551 -0.08665314
000030 d9 b6 1c be 45 6d 94 bd 29 f6 75 ba ac ef d8 bd
       -0.15304126 -0.07247404 -0.0009382689 -0.10592589
000040 26 0c 18 be c7 c6 19 be e3 f8 ee bc 48 ea 22 3d
       -0.14848384 -0.15017234 -0.029171413 0.03977421
000050 78 48 f9 bd d0 2f 82 bd 04 07 23 be b4 cf fc 3b
       -0.121720254 -0.06356776 -0.15920645 0.00771519
000060 de 5c bc bd c7 25 fb bd 43 a1 1b be 57 d7 9e bd
       -0.091974005 -0.12263065 -0.15198235 -0.077559166
000070 78 93 24 be d2 be ec bd 95 ba 01 be 65 01 8a bd
       -0.1607188 -0.115598336 -0.12668832 -0.06738547

batch1.running_mean f4 [32]
000000 f0 92 d9 c2 59 e1 9b 42 5e 30 bf 42 5a 6d cd c2
       -108.78699 77.94013 95.59447 -102.71358
000010 92 c2 a7 c2 92 6b f2 c2 c4 3f db 42 46 48 d3 c2
       -83.88002 -121.2101 109.62454 -105.64116
000020 86 98 b5 c2 50 5a d7 42 05 80 d7 42 c2 73 c9 42
       -90.7979 107.67639 107.75004 100.72609
000030 73 0e e7 42 80 5d f1 c2 79 e7 c1 c2 cf 07 b6 c2
       115.52822 -120.68262 -96.952095 -91.01525
000040 fb c8 d2 42 0b e2 03 c3 1a 0f bb 42 89 bf d3 42
       105.39254 -131.88298 93.529495 105.87409
000050 20 5f cc 42 ed 8a de c2 d7 37 f9 42 7a fb c6 c2
       102.18579 -111.27134 124.60906 -99.491165
000060 40 28 57 42 d3 6c cb c2 1a f1 da 42 d1 41 f2 c2
       53.789307 -101.71255 109.4709 -121.12855
000070 f8 0e 8b c2 7d 75 bc 42 94 cf ba c2 d9 e9 de 42
       -69.529236 94.22947 -93.405426 111.45673

batch1.running_var f4 [32]
000000 cb 60 fc 45 ef a7 80 45 e0 db bf 45 a5 03 de 45
       8076.099 4116.9917 6139.4844 7104.4556
000010 3f 7d 95 45 be 29 1c 46 11 70 fc 45 40 cd ec 45
       4783.656 9994.436 8078.0083 7577.6562
000020 d1 48 ae 45 4b a4 f3 45 56 31 f5 45 4e 5c d5 45
       5577.102 7796.5366 7846.167 6827.538
000030 e3 12 0c 46 bb 9b 19 46 0b 7e c6 45 87 ab af 45
       8964.722 9830.933 6351.7554 5621.441
000040 b5 1e eb 45 da a9 38 46 bd cb b8 45 9a d2 ea 45
       7523.8384 11818.463 5913.4673 7514.325
000050 92 29 db 45 56 b7 03 46 de 49 23 46 d8 13 cf 45
       7013.1963 8429.834 10450.467 6626.4805
000060 54 48 f5 44 59 e6 d9 45 2c a0 fb 45 e6 19 1a 46
       1962.2603 6972.7935 8052.0215 9862.475
000070 fd 94 4c 45 4e 2b bb 45 d3 e9 b7 45 eb 94 02 46
       3273.3118 5989.413 5885.228 8357.2295

conv3.weight f4 [32, 32, 5]
000000 5e d4 2b bd 7d a7 db bc 3c 3c ce bd e2 ce ef bc
       -0.041950576 -0.026813263 -0.100700825 -0.029273454
000010 07 33 2c bd 4b b8 de 3c 6a dd c2 3d f1 54 c0 3d
       -0.04204085 0.027187487 0.09514888 0.09391201
000020 25 22 00 3e ee 5b eb 3d 0c 49 c7 3d 98 e4 eb 3d
       0.12513025 0.114921436 0.097307295 0.1151821
000030 dc b0 eb 39 1a 70 af 3d 37 cb e3 3d 93 75 00 bd
       0.00044954463 0.085663036 0.111227445 -0.031362128
000040 a7 dd 85 bd 8d f7 c8 bd 92 c1 e2 bd a2 0d 17 bc
       -0.065364175 -0.098128416 -0.11072077 -0.009219559
000050 49 f5 aa bd 85 68 c9 bd 97 de 01 bd 32 ec dc bd
       -0.08347566 -0.09834389 -0.03170642 -0.10787238
000060 a0 5b 85 bd fc 19 fd bd 40 1a bd bd 8c ea f5 bd
       -0.06511617 -0.12358472 -0.092335224 -0.12007627
000070 a7 9a ae bd c3 bf ac bc fb f1 9e 3d 73 45 c5 39
       -0.08525591 -0.021087533 0.07760998 0.00037626512
000080 cc 50 ed 3c 97 d6 f6 3c d5 ca 9d 3d 6d 2e 28 3d
       0.028969191 0.030131621 0.07704703 0.0410599
000090 92 00 f6 3b b8 a4 38 3c 98 a5 54 bd 1b e1 96 bd
       0.007507392 0.011269741 -0.051915735 -0.07367154
0000a0 81 7a 80 bd c8 74 a2 bd 4a 41 58 bd 2d a6 31 be
       -0.06273366 -0.079324305 -0.05279664 -0.17348547
0000b0 87 aa 4b bd 9c 22 aa bb 7a 9b 13 3e 32 a2 63 3c
       -0.049723174 -0.005192114 0.14414778 0.013893651
0000c0 d8 95 07 3d 22 e6 24 3e 2d 53 82 3d 93 69 27 3d
       0.033101887 0.16103414 0.06363521 0.040872168
0000d0 ee d1 f1 3d 71 2e cc 3d 7f 20 83 3d 6e be f4 3b
       0.11807619 0.099697955 0.064026825 0.00746899
0000e0 0c 6f cb 3c 27 cd 15 3e fc 8c 08 3d 49 cc a2 3d
       0.024833225 0.1462904 0.03333758 0.079491206
0000f0 a6 56 50 3d 5b 71 b0 3d 82 d2 37 3e 46 5a ac 3d
       0.050863884 0.08615371 0.17951396 0.08415656
000100 a1 10 1e 3e fa b9 a5 bd f8 40 21 be 55 1e 21 be
       0.15436031 -0.08092113 -0.1574744 -0.15734227
000110 e2 ba 31 be 2e 4a c8 bd 49 b2 f6 bd 28 df 14 bd
       -0.17356446 -0.09779774 -0.12045724 -0.03634563
000120 67 78 93 bd 71 0f 68 bd 0a 52 ff bd 55 93 b5 bd
       -0.07200699 -0.05665535 -0.124668196 -0.08865992
000130 eb cb 04 bc 18 a2 9d bd bf 4e 1b bd 19 f8 ea bd
       -0.008105258 -0.076969326 -0.037916895 -0.11473102
000140 43 ee 62 3d d1 75 35 3d aa bc 9a 3d ae 82 9b 3d
       0.055403005 0.04430181 0.07555516 0.075932845
000150 c8 4f bd 3d ac 02 30 bd 61 22 f2 bd 4a a9 1d bd
       0.09243733 -0.042971298 -0.118229635 -0.038491525
000160 24 0f 0b be 90 b5 d0 bd eb b5 9a 3d 53 45 0f 3e
       -0.13579994 -0.1019088 0.07554229 0.13991289
000170 8e c1 89 3c 48 ca 8c 3d 84 6e 97 3d b2 b7 78 3c
       0.016815927 0.068745196 0.07394126 0.015180515
000180 10 59 82 3c 72 78 20 bd c2 25 44 bd dd 39 74 3b
       0.015911609 -0.039177366 -0.04788757 0.0037265935
000190 2b 64 6a 3c 80 e6 75 3d 46 c9 94 3d 33 26 c5 3d
       0.0143061085 0.060034275 0.07264952 0.096264265
0001a0 e3 0c 21 3e 64 3f b8 bd c3 e2 7a bd 99 53 6d bd
       0.15727572 -0.08996466 -0.061251413 -0.057941053
0001b0 86 c8 c1 bd 38 2a ed bd 41 20 98 3d a3 a9 a6 3c
       -0.09462075 -0.11580318 0.07428027 0.020344561
0001c0 a0 67 9e 3d a7 16 82 3d 1b 6f df 3c df 02 a2 3c
       0.07734609 0.06351977 0.027274659 0.01977676
0001d0 12 66 39 bc 2c 35 54 bd 52 06 36 bd 9d 92 fe 3c
       -0.011315839 -0.05180852 -0.04443962 0.03107577
0001e0 bd de 97 3c f9 c4 46 3d 86 a3 55 3d 22 66 48 3d
       0.018538827 0.04852769 0.0521579 0.048925526
0001f0 c4 6f 72 bc 54 da cc bd cc 20 a4 3b b0 70 f5 bd
       -0.014797155 -0.1000258 0.0050087925 -0.11984384
000200 af 3b a9 bd 7b d1 c1 bc 60 ef 92 bc 99 54 a8 3d
       -0.08263337 -0.023659458 -0.017936409 0.08219261
000210 2f f7 1a 3e 0a 09 a1 3d 37 98 45 3d 80 7b 85 bd
       0.15133356 0.07863052 0.048240867 -0.065176964
000220 00 46 8d 3a ab 1b 74 3c ba 9b 66 bd f9 1d d2 bd
       0.0010778308 0.014899175 -0.056300856 -0.10259623
000230 0f d7 15 3d 9d 4b 8f bd 68 7e 53 bd a6 fa bf bb
       0.03658205 -0.06996844 -0.051634222 -0.005858737
000240 ba 04 93 bd b9 22 07 3e fd 65 21 3b 9a d2 e1 bb
       -0.07178636 0.1319684 0.002462744 -0.0068915607
000250 c2 21 f4 3d 2d 20 08 3e 1c 4c d0 bd d7 3b 18 bd
       0.11920501 0.13293524 -0.10170767 -0.037166443
000260 6e 7e cd bd fe 57 d3 bd a3 f7 26 be 68 f7 e7 3d
       -0.1003388 -0.103195176 -0.16305403 0.11326486
000270 63 32 20 3e a8 4f 1f 3e e3 25 3c 3e 55 b9 35 3e
       0.15644221 0.1555773 0.18373828 0.1774648
000280 bc 85 78 bb 27 98 ec bc 0c 0f 5e bd 9d b8 f8 bd
       -0.0037921509 -0.028881146 -0.05421357 -0.12144587
000290 8a 1d 0f bd e3 b4 15 3e 09 03 2a 3e c0 a9 84 3e
       -0.03494028 0.14619784 0.1660272 0.2591076
0002a0 de 7e 57 3e 8f 26 36 3e 72 05 61 3e be 81 7c 3e
       0.2104449 0.17788146 0.21974733 0.24658868
0002b0 61 0a 5b 3e c0 de 52 3e dc 67 58 3e 02 69 9a bd
       0.21390678 0.20592785 0.21133369 -0.0753956
0002c0 86 fc 3a bd b3 4b 2c 3d 09 00 81 bd 5c 45 c0 bd
       -0.04565098 0.04206438 -0.06298835 -0.09388229
0002d0 20 1d a8 bd 61 da 8b 3c b7 c4 e3 bc 8e 3e 11 bd
       -0.0820868 0.017071905 -0.027803762 -0.035460047
0002e0 2b 2e dc bd 1a 21 63 bd f6 78 2a 3c 26 ba 11 bd
       -0.10750993 -0.05545149 0.010404816 -0.035577916
0002f0 c4 03 a8 bd fa 8b 78 bc 2d 55 30 3e 65 9f 28 3e
       -0.08203843 -0.015170092 0.17219992 0.16467054
000300 77 9d dd 3d 8e dc c3 3d 06 be 4c 3e c3 de f7 bc
       0.1082105 0.09563552 0.19994363 -0.030257588
000310 9b e0 1a bc bf 10 72 3d 18 39 c2 bc a1 7a a0 bb
       -0.009452964 0.059098 -0.023708865 -0.004897431
000320 98 32 b9 3c 01 8f 37 3d 73 ab 8b bd 12 8b 7c 3b
       0.022607133 0.044814114 -0.06819811 0.003853504
000330 e0 76 83 bd 59 ad 06 3e fa 4a 26 3e d1 02 71 3e
       -0.06419158 0.13152064 0.16239539 0.2353623
000340 8d 6e 29 3e 19 68 56 3e 2e 85 e2 3d 10 5c 1c 3e
       0.16546078 0.20938148 0.11060558 0.15269494
000350 5d 29 f2 3d 5d cb 67 3e aa 02 2c 3e 45 dd 09 3e
       0.11824296 0.2263617 0.16797891 0.13463314
000360 13 31 d3 3d 54 71 2d 3e d6 12 35 3e 12 b5 b9 3d
       0.103120945 0.16937762 0.17682967 0.090677395
000370 18 ef 54 3e e3 66 82 3e 04 c6 46 3e 0f d4 10 3e
       0.20794332 0.2546912 0.19411474 0.14143394
000380 6d 5d 56 3e 1e d7 0f be 68 d0 07 be 72 0b c5 bd
       0.20934077 -0.14046904 -0.13263094 -0.09621324
000390 2f cf a2 bd 9d 39 f4 bd bf b3 d0 bc f3 1d 02 be
       -0.079496734 -0.11925051 -0.025476335 -0.12706737
0003a0 da 3e 62 be 35 19 52 be e3 29 06 be df 4d f0 3a
       -0.22094288 -0.20517428 -0.13101916 0.0018333754
0003b0 0a db e8 bd 16 2c 52 bd 0e c6 ef bd fc 57 04 be
       -0.113699034 -0.051311575 -0.11707698 -0.12924188
0003c0 ef b1 a5 3d 5b d1 e1 3d ce 3c 95 3d 05 0a 5e 3e
       0.08090579 0.110262595 0.07286988 0.2168351
0003d0 2a 34 6b 3d 3c c8 5c bd e6 36 53 3d 1c a0 2d bc
       0.057422794 -0.053901896 0.051566027 -0.010597255
0003e0 43 9d e3 bc 56 97 0f be 6a 06 67 3e 80 d7 7e 3e
       -0.02778495 -0.14022574 0.2256104 0.24886894
0003f0 b4 c3 1b 3e 20 64 3f 3e 35 94 57 3e 11 b4 89 3e
       0.15211374 0.18690538 0.2105263 0.26895192

conv3.bias f4 [32]
000000 bc 1f 46 3d c5 cb 42 bd 5f 44 29 3d 86 d8 87 bd
       0.048370108 -0.04755761 0.04132497 -0.066330954
000010 84 dd f5 3c 10 4f 65 bd e4 bc d7 bc 6f e1 33 bd
       0.030012853 -0.055983603 -0.026335187 -0.043916162
000020 51 a4 7a bc d9 e4 07 3c 4c 4f 9a 3c 46 ec ad bd
       -0.015297965 0.008294308 0.01883664 -0.08492331
000030 e1 4e 55 bd 8d f0 b5 bd b1 b4 97 bd 00 71 d0 3d
       -0.052077178 -0.08883772 -0.07407511 0.10177803
000040 64 23 4f 3d 17 74 6c 3c 81 76 48 bd 92 a8 0e 3d
       0.05057086 0.014431975 -0.04894114 0.03482873
000050 8a d8 60 3d 94 1e 43 bb 34 df c3 3c 67 f1 46 3d
       0.054894008 -0.0029772865 0.023910142 0.048570063
000060 09 88 f4 3c c0 b7 93 bd 80 63 cd bd e9 a4 aa 3d
       0.029850023 -0.07212782 -0.10028744 0.08332235
000070 bd 70 c7 3c f5 83 5f bc 4c b2 1f 3d 48 7a 62 3d
       0.02434575 -0.013642301 0.038988397 0.055292398

batch2.weight f4 [32]
000000 32 60 6b 3f 58 91 8d 3f f1 7b 83 3f 19 fa 81 3f
       0.9194366 1.105998 1.0272199 1.0154449
000010 70 61 5e 3f 15 29 7a 3f 75 e8 71 3f 96 7d 86 3f
       0.8686743 0.97718936 0.94495326 1.0507076
000020 22 c2 8d 3f c9 dd 6b 3f b0 23 79 3f 2b db 98 3f
       1.107487 0.9213529 0.9732008 1.1941885
000030 ab 67 8c 3f ec 79 82 3f a9 62 8b 3f bb 64 73 3f
       1.0969137 1.0193458 1.0889484 0.9507558
000040 e6 b7 7b 3f a6 f6 83 3f 7f 77 84 3f 5b c6 63 3f
       0.9832748 1.0309646 1.0348967 0.8897454
000050 81 0f 94 3f 21 ae 84 3f a0 c2 7f 3f 7c cd 89 3f
       1.1567231 1.036564 0.9990635 1.0765834
000060 a1 47 73 3f 3d bb 78 3f 29 df 40 3f 5b 23 8d 3f
       0.9503117 0.971607 0.75340515 1.1026415
000070 27 7f 5a 3f 06 4b 86 3f 01 29 79 3f e2 4d 87 3f
       0.8535027 1.0491645 0.9732819 1.0570643

batch2.bias f4 [32]
000000 4e e1 08 bd 03 36 b6 3d 07 f7 04 3e 67 6f a2 3d
       -0.033417992 0.08897021 0.12984858 0.079314046
000010 0c c4 ad bd 25 f9 22 3c 9a fa dd 3c 1f 47 1e 3d
       -0.084846586 0.009947096 0.027097035 0.038642045
000020 ee 6b 98 3d c7 2d 14 b9 b7 c9 83 3d c3 0b d4 bb
       0.07442461 -0.00014131433 0.064349584 -0.0064711287
000030 c3 18 9c 3d 85 31 26 3d b7 85 36 3e ab fa 0e bd
       0.076219104 0.04057457 0.17824446 -0.034907024
000040 9e 62 b9 3c c2 79 23 3d 86 ac e1 3b 45 80 ae bd
       0.022630032 0.03991104 0.0068870215 -0.08520559
000050 ce 72 c1 3d 17 7e 83 3c 4d 94 8b 3c 55 7a cd 3c
       0.094457254 0.016051335 0.017038489 0.025082747
000060 5f 0b 25 bd 08 bd 22 3d a7 9f 22 be 5f 1b 0b 3e
       -0.040294047 0.039731055 -0.15881215 0.1358466
000070 b9 5e 2b bd 67 96 43 3d d4 10 03 3c fb 5e 09 3d
       -0.04183838 0.047750857 0.007999618 0.033537846

batch2.running_mean f4 [32]
000000 9d 05 2f bc 4a 56 4f 40 6d b2 92 c0 5b 30 40 c0
       -0.010682491 3.2396417 -4.5842805 -3.0029514
000010 ee 7f 91 c0 ba e3 6f c0 40 c5 c2 c0 ab 52 50 40
       -4.5468664 -3.7482743 -6.0865784 3.2550457
000020 eb 27 88 40 58 66 7b c0 6c 71 e6 c0 4b 0e 8b 40
       4.254873 -3.9281216 -7.2013454 4.3454947
000030 a1 1b a1 40 89 c8 a2 c0 9a f3 c4 c0 c8 6c 9f c0
       5.0346227 -5.0869794 -6.1547365 -4.982029
000040 a0 a2 bb c0 6f 61 91 40 dc d7 66 c0 40 a3 d6 be
       -5.8636017 4.5431437 -3.606925 -0.41921425
000050 c7 63 95 40 9a 9f 79 40 e9 15 a1 c0 dd 88 73 c0
       4.66843 3.9003663 -5.0339246 -3.8052285
000060 b9 08 a9 c0 37 ba aa c0 73 31 77 c0 10 8d aa c0
       -5.282315 -5.3352313 -3.8623931 -5.3297195
000070 8b 00 8e c0 d6 c9 99 40 25 2c 2f bf d9 d7 69 40
       -4.4375663 4.805888 -0.68426734 3.6537993

batch2.running_var f4 [32]
000000 4d b2 cd 41 95 21 ca 42 9c 41 b2 40 05 43 11 42
       25.71206 101.06559 5.570509 36.31545
000010 7f 0e 25 42 50 a8 93 42 28 7a d3 40 21 08 c7 41
       41.264156 73.828735 6.6086617 24.87897
000020 4a 5b 75 41 44 9e 75 41 71 db 25 42 2e 9e ad 41
       15.334787 15.351139 41.4643 21.702236
000030 b3 2b 08 42 fc 9a 18 42 f9 0a 39 42 d3 d9 e6 40
       34.042675 38.151352 46.260715 7.21409
000040 42 b6 e3 41 93 ad c0 41 3e 46 24 42 3f f1 79 41
       28.463993 24.084753 41.068596 15.621398
000050 52 18 06 41 01 ae 34 41 a6 0f 97 40 76 d8 84 42
       8.380938 11.292481 4.72066 66.422775
000060 2a 45 50 42 04 b7 d8 42 22 c1 16 41 1b 9c b2 40
       52.067543 108.35745 9.422152 5.581556
000070 e0 80 99 40 5c 4b bd 41 19 81 7e 41 50 8b 3d 41
       4.796982 23.661797 15.906518 11.846512

fc1.weight f4 [50, 3136]
000000 dd 81 48 3d 97 d2 9f 3c 1a b6 65 3c c5 32 c5 3c
       0.048951972 0.019509597 0.014020467 0.02407206
000010 2b c4 d7 bb 13 3d 01 bc 09 9b 2c bd 17 73 03 bd
       -0.0065846643 -0.007888096 -0.04214004 -0.03209218
000020 97 3a 12 bd 52 77 12 bd a8 df eb bc f4 5e 13 bd
       -0.035700407 -0.035758324 -0.028793171 -0.035979226
000030 2a 2e 72 3c a6 26 7a 3c 93 f1 6e 3d 19 82 2a 3d
       0.014781514 0.015268004 0.058335852 0.041627977
000040 e7 61 2d 3d b7 6f 8c 3d b2 30 69 3d 1b 65 87 3d
       0.042329695 0.068572454 0.056931205 0.06611081
000050 39 d3 4c 3d df c4 a4 3c 49 a0 0e 3d 2e 25 0c 3d
       0.050006125 0.020113407 0.03482083 0.034215145
000060 11 28 40 3c b4 9e 77 3d 06 ba 37 3d 0b c9 4e 3d
       0.011728303 0.060454085 0.04485514 0.0504847
000070 03 c8 63 3d ac 4b a8 3d 1c 73 9f 3d 6d 8d b1 3d
       0.055610668 0.08217558 0.07785627 0.08669553
000080 d3 39 f9 3d ae d5 c9 3d 7a d7 e1 3d 1d 5c fb 3d
       0.12169232 0.09855209 0.11027427 0.122734286
000090 65 76 f7 3d 11 25 c5 3d be b0 b8 3d 5e 47 b2 3d
       0.12083129 0.096262105 0.09018086 0.087050185
0000a0 44 d2 81 3d fb 1f 3e 3d 8b ed 6c 3d 92 3c 4e 3d
       0.06338933 0.046417218 0.057843726 0.050350733
0000b0 94 2e 06 3d 4b 92 23 3d a3 ad 3c 3d d2 d4 6a 3d
       0.032759264 0.039934438 0.04606403 0.057331868
0000c0 f2 6d 00 3d 07 5c 32 3d fb b3 1f 3d d5 61 fa 3c
       0.031354852 0.043544795 0.038990002 0.030564228
0000d0 ad f5 3e 3d 38 7a 1d 3d ba c4 0a 3d 2a e4 16 3d
       0.046621013 0.038446635 0.03387902 0.036838688
0000e0 4b 9e 27 3d 90 b8 0d 3d 04 c6 3c 3d 0f 71 52 3d
       0.040922444 0.03459984 0.04608728 0.051377352
0000f0 fb 4f 80 3d 2f 02 93 3d 21 e7 7e 3d 7c 64 8a 3d
       0.06265255 0.07178151 0.06223214 0.06757447
000100 8e 4b 40 3d ba 32 63 3d 3d d0 70 3d b7 80 1c 3d
       0.046947055 0.0554683 0.05879234 0.03820869
000110 ac a8 0c 3d 99 bb c5 3c 39 ad 20 3d 5c 0c 11 3d
       0.034340546 0.024137305 0.039227698 0.035412177
000120 a3 46 17 3c f4 49 64 3c 07 af 8e 3a 83 68 86 ba
       0.00923315 0.013933647 0.0010885902 -0.0010254536
000130 70 1c 8a bc ad 5b dd bc 2a 35 cf bc 5d 79 58 bc
       -0.016859263 -0.027021253 -0.025293905 -0.013212529
000140 ba dd 1e bd 80 d2 b8 bc 33 e5 49 bd 26 9f 8b bd
       -0.038785674 -0.022561312 -0.049290847 -0.068174645
000150 f8 fe 80 bd fd 1d 29 bd d6 5d 0a bc e5 7d b4 bc
       -0.062986314 -0.041288365 -0.008445224 -0.022032687
000160 1b 8c 16 3c e9 ae 25 3d 0d 43 a6 3d 6f ca c1 3d
       0.009188677 0.04045001 0.08118258 0.09462439
000170 6f 5b 04 3e 38 52 0d 3e ae b2 16 3e c2 aa 11 3e
       0.12925504 0.13800895 0.14716598 0.14225295
000180 db 81 21 3e c4 08 91 3d 42 c5 8b bc 17 68 01 bd
       0.15772192 0.0708175 -0.017061833 -0.03159341
000190 15 24 9e bc 0d 84 c6 bc 3d 18 c3 bc a6 af dd bc
       -0.019304315 -0.024232889 -0.023815269 -0.027061295
0001a0 ca 21 f0 bc b4 96 d2 bc 4b 85 c9 bb fa 5c 9e 3b
       -0.029312987 -0.025706626 -0.006149923 0.004832861
0001b0 b7 4b 16 bc 5e 7d 99 bc 8b 74 bb bb 0e 9a 60 bc
       -0.009173325 -0.018736538 -0.00572068 -0.0137086045
0001c0 09 3c 16 3c f5 43 4a bb 5e 6f 49 bb 0e fc d2 bb
       0.009169587 -0.003086326 -0.0030736546 -0.0064387387
0001d0 ac 81 20 3c 71 12 db 3c 21 cb 94 3c c0 76 8a 3c
       0.009796541 0.026742192 0.018163266 0.016902328
0001e0 07 f2 bc 3b 14 36 1b bc 15 31 be bc 48 b4 17 bd
       0.0057661566 -0.009473342 -0.023216764 -0.037037164
0001f0 8a eb 24 bd fe 7a 61 bd 86 bb 1c bd 12 02 b3 bc
       -0.04026369 -0.055048935 -0.038264774 -0.021851573
000200 0b 11 61 bc a3 2a 16 bd 3b 81 8c bb a8 cf 0e 3c
       -0.0137369735 -0.036661755 -0.0042878664 0.008716501
000210 7d 00 2e 3c a1 f6 cb 3c dc 14 22 3c a9 ac d3 3c
       0.010620234 0.024897875 0.009892669 0.025839167
000220 d0 87 7a 3d f0 6c 2c 3d 74 9c 2b 3d 3c 18 86 3d
       0.061164677 0.04209608 0.041897252 0.06547591
000230 bf 0e 93 3d f4 95 83 3d 85 76 af 3d db 62 9b 3d
       0.07180547 0.06425086 0.08567528 0.075872146
000240 97 de d0 3d 9f 69 fd 3d 74 c9 fd 3d 63 a0 f8 3d
       0.10198706 0.12373661 0.1239194 0.12139966
000250 0b b7 f9 3d 04 34 b3 3d 47 85 92 3d 2e fe b1 3d
       0.12193116 0.087501556 0.07154327 0.08691059
000260 47 76 8d 3d 06 d7 4a 3d 4f dd 94 3d cb e2 59 3d
       0.06907325 0.04952147 0.07268774 0.053194802
000270 47 5e a7 3d ca cd 26 3d d9 d8 cf 3c 4a 19 20 3d
       0.08172279 0.0407236 0.025371956 0.039086618
000280 cd c4 6e 3c 31 09 0b 3c ac 21 cf 39 09 e7 94 bc
       0.014573288 0.008486078 0.00039507204 -0.018176572
000290 3a 67 9a bc 53 d3 14 3c 9e 5e d4 bb aa e3 87 3c
       -0.01884805 0.009083587 -0.006481006 0.01658805
0002a0 af 6f a8 3c 28 03 cb 3c c5 8e 1e 3d cf d0 d3 3c
       0.020561067 0.024781778 0.038710374 0.025856404
0002b0 de a2 d3 3c f7 e4 eb 3c 90 de 28 3d 6f 1e 61 3d
       0.025834497 0.028795702 0.041227877 0.054960664
0002c0 a3 62 30 3d e9 4f 96 3d 01 fa 69 3d a5 9e 45 3d
       0.043062817 0.073394604 0.057123188 0.048247
0002d0 0e 8a 9d 3d 90 f1 a5 3d 71 46 8f 3d 0c 5e 5e 3d
       0.076923475 0.08102715 0.069958575 0.05428891
0002e0 a3 dc 9d 3d 0e bf b8 3d 70 36 af 3d c5 15 8d 3d
       0.07708099 0.09020816 0.08555305 0.06888918
0002f0 e0 3b a6 3d 53 3d b2 3d 92 22 b4 3d 5f b0 ca 3d
       0.08116889 0.08703103 0.08795656 0.09896921
000300 30 d3 9d 3d f8 7d b3 3d 8d 86 61 3d 5b 75 6f 3d
       0.077062964 0.08764261 0.05505996 0.05846153
000310 34 cb c7 bd 04 45 f9 bd 15 46 b5 bd 36 98 b0 bd
       -0.09755555 -0.12171367 -0.08851258 -0.08622782
000320 7d 8f 4f bd be 79 2b bd 45 7b 0e bd f7 91 cb bc
       -0.05067395 -0.04186415 -0.034785528 -0.024849875
000330 6b 40 13 bc 5a ce 63 3c 34 63 ee 3b d5 94 05 bc
       -0.008987526 0.0139041785 0.0072750095 -0.00815316
000340 79 08 8c bc cc 7c 08 bd 38 6d f4 bc c1 26 6e bd
       -0.017093884 -0.03332214 -0.029837236 -0.058142427
000350 4a a9 91 bd e0 4c a7 bd ba 63 91 bd a5 12 60 bd
       -0.071123675 -0.081689596 -0.070990995 -0.05470528
000360 b8 6f 93 bd ba d7 9c bd 26 91 ab bd a7 85 b6 bd
       -0.07199043 -0.07658334 -0.08377294 -0.08912211
000370 67 9f af bd 9b f4 91 bd a4 5f 5a bd c5 d5 4a bd
       -0.085753255 -0.07126733 -0.053313866 -0.049520273
000380 05 3b 6e bd 03 7a 78 bd 36 c3 e5 bd d8 a4 08 be
       -0.058161754 -0.060663234 -0.11218874 -0.13344133
000390 9c b8 0a be 8a 3e 0f be ac e4 08 be 5a ff db bd
       -0.13546985 -0.139887 -0.13368481 -0.10742064
0003a0 0b 60 b6 bd 15 96 51 bd d6 1a 33 bd c2 b2 e6 ba
       -0.089050375 -0.05116852 -0.043726765 -0.0017600881
0003b0 d6 ed 30 bb b8 1b 40 3d cc 98 39 3d 04 5a a1 3d
       -0.002699723 0.046901435 0.045311734 0.07878497
0003c0 29 6d b1 3d 0c a3 9a 3d e9 5e 7b 3d e6 c3 41 3d
       0.08663399 0.0755063 0.06136981 0.047305964
0003d0 5c 5e 51 3d 29 ba 38 3d b6 85 50 3d 7b 6c 75 3d
       0.05111538 0.04509941 0.050908767 0.05991791
0003e0 1d 2a 8a 3d b1 b0 94 3d 56 07 29 3d 93 cd e6 3c
       0.06746314 0.07260264 0.04126676 0.028174197
0003f0 bd 9c cc 3c 57 78 a9 bb f1 ba c4 bd d5 1b b5 bd
       0.024977082 -0.0051718163 -0.09605969 -0.08843199

fc1.bias f4 [50]
000000 00 4f 1c bc cb b8 d6 bc 91 42 9c bc 31 2c 12 bd
       -0.009540319 -0.026211163 -0.01907471 -0.035686675
000010 a3 12 5d 3b 7a 78 40 3c d7 d4 1f 3d cf 63 5c bd
       0.0033733032 0.011747474 0.03902134 -0.053806122
000020 e4 ed c3 3c 66 b1 e3 bb cb 19 5c 3d 8b d5 37 3d
       0.023917146 -0.006948638 0.053735536 0.044881385
000030 86 c5 79 3c d7 e7 3c bc a7 89 d5 bc 6b ec 18 3d
       0.015244847 -0.011529884 -0.026066614 0.03733484
000040 4a 71 0b 37 62 db c6 bc 32 2a 81 3c de 19 0c 3d
       8.311423e-06 -0.024274532 0.01576719 0.034204356
000050 9f af 17 bd 05 f5 14 bb a7 ff 0b bd 06 d2 61 3d
       -0.03703272 -0.002272905 -0.034179356 0.055131935
000060 7f 97 2c 3d 38 e5 3e bb 6c f1 46 3d f6 6e 9d 3c
       0.042136665 -0.0029128324 0.04857008 0.01921795
000070 cc 78 41 3d c4 84 d1 bc 9a b7 c8 bc 2e 5e fe 3c
       0.04723434 -0.025576003 -0.02450161 0.031050768
000080 32 b3 5c bd 92 cf 0a 3d 2f 43 23 bd 3d f3 34 bc
       -0.05388183 0.03388936 -0.039858993 -0.011044321
000090 69 e5 fb 3c d0 93 88 3c 24 51 22 bc 79 63 54 bd
       0.03074904 0.016672045 -0.009907041 -0.051852677
0000a0 38 a9 4a 3d df 09 b0 bc dc b5 4c 3d 5e 80 52 bd
       0.049477786 -0.021489082 0.049978122 -0.05139195
0000b0 bc 6c c2 3c 80 e3 39 bd 66 01 64 bd 53 88 2b 3d
       0.02373349 -0.045382977 -0.055665396 0.041878056
0000c0 f5 10 cb 3c 39 eb a6 bc
       0.02478836 -0.020375835
