DOMAIN_ADAPTION/C1_C2_experiments/side_experiments/experiments_no_mmd_all_single_features/feature=D:v_(n_ist)_X__GAMMA=1.0/best_model/model_fc.pt (torch, 2207 bytes, 4 tensors)

fc2.weight f4 [3, 50]
000000 31 d3 02 be a3 7e aa 3d 3d 2f ba bc c8 d1 63 3d
       -0.12775876 0.08324935 -0.022727603 0.055619985
000010 7c 23 00 3d e0 93 c6 3d be d8 dc 3d 8e 7c bb 3d
       0.03128384 0.09696174 0.10783528 0.09154616
000020 3a 1c 07 be 24 49 da 3d 9a 7b ea 3d 57 be 87 3d
       -0.13194361 0.10658482 0.114493564 0.06628101
000030 52 2e 8e bb c9 ef 9c 3c 5d 91 e1 bd e3 7e f9 bd
       -0.004339018 0.019157307 -0.11014054 -0.12182405
000040 88 2f f5 3d 3f 7c a3 3d 6c 4f 90 bd 14 04 ee 3d
       0.119719565 0.079826824 -0.070463985 0.116218716
000050 cf 07 05 be 10 14 0e 3a cf fb 3d 3d de e1 bf bd
       -0.1299126 0.00054198597 0.04638272 -0.093692526
000060 42 1f 32 3c 41 33 a5 3c b1 2b 08 3e 14 1e c6 3c
       0.01087171 0.020166041 0.13297917 0.024184264
000070 13 83 32 3d ce 8b fc bd be 21 e0 3d ff 57 be 3d
       0.043582033 -0.12331353 0.10943936 0.09294128
000080 a3 cd dd 3d 09 1a c1 3d 02 41 03 3e 61 03 dd bd
       0.10830238 0.09428794 0.12817767 -0.1079166
000090 1f 54 d2 bd 7a 6b 0e 3d 54 b9 22 bd 9a f2 02 3e
       -0.10269951 0.034770466 -0.039727524 0.12787858
0000a0 d4 cc 93 bd f7 74 f6 3d d4 50 b3 bd 61 80 da bd
       -0.07216802 0.12034028 -0.08755651 -0.106690176
0000b0 eb 28 63 bd 78 e9 ca 3d 8b a6 f8 bd 62 79 6d 3d
       -0.055458944 0.09907812 -0.121411406 0.057977088
0000c0 fb e9 ba bc 69 a9 01 3d a5 8b 3f 3d 01 fb 91 bd
       -0.022816649 0.031655703 0.046764035 -0.07127953
0000d0 48 09 60 bd a1 11 00 bd f6 6a c6 bc 53 5d a8 3c
       -0.05469635 -0.031266812 -0.024220925 0.020552313
0000e0 22 81 67 bc 6b c3 11 3d 48 e4 9a 3c af bc ab bd
       -0.014129909 0.035586756 0.018907681 -0.08385598
0000f0 b2 22 8f 3c 86 8c 9f bd 6a fa 9b 3d 8e 30 16 bd
       0.017472599 -0.077904746 0.07616122 -0.0366674
000100 69 bd c8 bd c0 40 5f bc cd bc c0 bc 23 27 09 3d
       -0.09801752 -0.013626277 -0.023527527 0.03348459
000110 fc ec 87 bd bc e5 00 3c d9 29 bf 3c b2 e8 86 bd
       -0.06636998 0.007867273 0.023335384 -0.06587352
000120 6f 2e fe bb 69 00 75 bc 43 7d d2 bb 78 e6 4f 3c
       -0.007757 -0.014953711 -0.0064236238 0.012689225
000130 4b be 9f bd 59 41 87 3c 4d f8 97 3d 41 d4 be 3d
       -0.077999674 0.016510652 0.074204065 0.09317828
000140 ba 17 a5 bd d9 5c 59 3c d0 3e 8d bd 30 75 73 3d
       -0.08061166 0.0132667655 -0.06896746 0.05943793
000150 70 b8 9d 3d e2 c7 1a bd 0e 70 5c 3d c9 9f c1 bc
       0.07701194 -0.03778828 0.0538178 -0.023635762
000160 3a dc 02 3d 89 ff 45 bd 2d d5 a8 3c 42 8e b4 bc
       0.031948306 -0.0483394 0.020609463 -0.02204049
000170 e0 e9 57 3d a2 ee c1 3c 9d 52 96 3a 44 01 22 3d
       0.052713275 0.02367336 0.0011468712 0.03955199
000180 a8 44 3a 3d cd 9f cc bc 3d 9e 32 3d 74 15 be 3d
       0.045475632 -0.024978543 0.04360794 0.092814356
000190 0a 49 df 3c c7 53 d1 bc 69 4f 4c 3d 22 b6 ad bd
       0.027256507 -0.025552643 0.04988042 -0.08482005
0001a0 0d a3 0d be d6 55 56 bd 8e c5 90 3d 83 e0 13 bd
       -0.1383173 -0.052327953 0.070689306 -0.036102783
0001b0 6b fb d2 bd 38 52 a2 bd 0d f7 7b 3d 89 7e 11 3d
       -0.103018604 -0.07925838 0.061514903 0.035521064
0001c0 80 49 d0 3a bd 4f a0 bd 1b 94 ec bd 64 e4 90 3d
       0.0015891045 -0.07827709 -0.115516864 0.07074812
0001d0 90 1b dc 3d b6 a6 1d bd e9 6a fd 3d a6 04 c9 bd
       0.10747445 -0.038489066 0.12373907 -0.0981534
0001e0 47 92 16 bd a7 ca 9e bc 25 0c 83 bd a3 f9 74 3d
       -0.036760595 -0.019383742 -0.06398801 0.059808385
0001f0 a3 1d 09 3e 03 28 a8 3d 65 b9 56 3c 6d 96 03 3e
       0.13390212 0.08210757 0.013105725 0.12850352
000200 54 e0 30 3d 96 4b ac 3d ec 32 91 3c 98 5d 94 3d
       0.043182686 0.084128544 0.017724477 0.07244414
000210 ad 1e a3 bc 73 23 bf ba 43 10 d2 3d bf d7 90 3d
       -0.019912088 -0.0014582708 0.10257008 0.070724
000220 f9 53 3c bb 61 03 d4 3d b9 68 76 3d 0f a0 c8 3d
       -0.0028736575 0.10352207 0.060158465 0.09796154
000230 20 c1 4b bd c1 91 8a 3d 84 6f 8f 3d 3c b4 26 bd
       -0.049744725 0.067660816 0.07003692 -0.04069923
000240 0a d2 54 3d 20 b0 8a 3c d5 a0 a8 3d 4a 75 01 bd
       0.05195812 0.016929686 0.08233801 -0.031605996
000250 c0 57 37 bd 3d 10 6a 3d
       -0.04476142 0.057144392

fc2.bias f4 [3]
000000 cb 68 3b bc 40 6a 7d 3d 45 68 ad bc
       -0.011438559 0.061868906 -0.021167884

fc3.weight f4 [2, 3]
000000 51 ea 9a 3e b2 c0 97 be 86 c1 1d 3e e4 b9 9a 3e
       0.30256894 -0.29639202 0.15405855 0.30219948
000010 71 c3 ed 3e 7b dd 17 3e
       0.46438172 0.14830582

fc3.bias f4 [2]
000000 fe e3 48 3e ae dc 9f bd
       0.19618222 -0.07805763
