DOMAIN_ADAPTION/experiments_no_mmd_all_single_features/feature=D:s_diff_X__GAMMA=1.0/best_model/model_fc.pt (torch, 2207 bytes, 4 tensors)

fc2.weight f4 [3, 50]
000000 d3 ca 4c 3b ae 94 88 3d 65 ca 01 be b8 ae af bd
       0.0031248822 0.066689834 -0.12674864 -0.08578247
000010 48 8f 85 3d 9a e4 76 bd 1c b4 d4 bc 88 78 53 bc
       0.06521469 -0.060276605 -0.02596479 -0.012907155
000020 f2 54 94 3d 24 c6 80 3d e2 3d 65 3e f0 90 07 be
       0.072427645 0.06287792 0.22386888 -0.13238883
000030 84 2d 07 3c c1 ba 9f 3d e4 d4 f6 3d 83 2a 9b bd
       0.008250598 0.07799292 0.120523244 -0.07576468
000040 33 c1 96 3d 13 2e b3 bd d5 ab b2 bc 81 0e f5 3c
       0.073610686 -0.08749022 -0.021810452 0.029914143
000050 a1 32 0d 3d c0 64 e1 3c 90 a9 c8 bd 24 ea 35 bd
       0.03447211 0.027513862 -0.097979665 -0.044412747
000060 c0 f7 b4 bd a9 5a 1f bd 07 e2 5e 3b b7 b3 1c be
       -0.08836317 -0.03890482 0.0034009235 -0.15302931
000070 51 40 a9 3d 1e 06 c5 3d 9d ab 1f be 8c 8a 04 bc
       0.082642205 0.096203074 -0.15592809 -0.008089673
000080 0d 16 a9 bd 54 34 30 bd d3 0a 57 bd 07 90 b9 bd
       -0.08256159 -0.043018654 -0.052500557 -0.09060674
000090 2b 43 c8 3b d6 3e 75 3d 57 d6 33 bb 56 ec 0e bd
       0.0061115227 0.05987438 -0.002744099 -0.034893356
0000a0 0b a9 a0 3d 53 ff a1 3d d9 45 77 bc f3 a4 00 be
       0.078447424 0.07910027 -0.015092337 -0.12562923
0000b0 29 17 a8 bc c9 07 08 be 6e 84 94 3d d1 d4 af 3d
       -0.020518856 -0.1328422 0.072518215 0.085855134
0000c0 20 43 2b 3d ae 1b e9 3d cd 99 a2 3b a2 cd 58 bd
       0.041812062 0.113822326 0.004962182 -0.05293048
0000d0 6c ae 8c bc 72 6c 4c bd 79 45 9d 3c 8f 75 0f 3b
       -0.017173015 -0.04990811 0.019198166 0.0021890139
0000e0 dd 1b 80 3d ec 75 c3 3c 46 85 80 3d 43 67 dd bb
       0.062553145 0.02385994 0.0627542 -0.0067566945
0000f0 06 7b ab 3c 06 03 01 3d be 0f a0 bc 5f 31 c9 3c
       0.020932686 0.031497024 -0.019538756 0.024559675
000100 5d 1b cc 3c 25 86 7e bc 41 0f b1 3d 3c f4 4e 3c
       0.024915392 -0.015534912 0.086454876 0.012631472
000110 99 f1 05 ba e2 ee 89 3d 3c fc ae bc 68 fb 83 3c
       -0.0005109548 0.067350164 -0.02136051 0.01611109
000120 dc 7a ac bd c1 fe f1 3c 77 91 66 bd 49 a2 45 3c
       -0.08421871 0.029540421 -0.05629107 0.012062618
000130 df 3d fd 3c 80 76 cb 3c 06 62 bf bb c2 a1 88 bc
       0.030913291 0.024836779 -0.0058405427 -0.016678695
000140 c9 c7 96 bc 0c 20 96 3c f1 ec 97 bc 0c e4 ec 3c
       -0.018405812 0.018325828 -0.0185456 0.028917335
000150 d4 9d 66 3d fa a9 f9 bc c7 f2 25 bd 45 5c 93 3d
       0.05630286 -0.030476559 -0.040514734 0.071953334
000160 1c 27 ef 3c 5b 70 82 3c 8d bb 59 bd a3 26 5f 3d
       0.029193453 0.015922716 -0.053157378 0.054480206
000170 96 5b 86 bc 4e e8 36 3d b0 4a a0 3a bb b1 45 3b
       -0.016401093 0.044655137 0.001222929 0.003016575
000180 6e 64 b1 bb 8f 2a af bc 77 d9 bb 3c a3 ab ce 3c
       -0.0054135835 -0.021382598 0.022930844 0.025228327
000190 88 86 02 3e 3d ae cc bd be d3 c8 bd 9d c2 d9 bc
       0.12746632 -0.09994171 -0.098060116 -0.026582057
0001a0 3d 07 ab 3c b3 a3 23 3e 6e 94 c3 3d ae 33 6d 3d
       0.020877475 0.15980415 0.09549795 0.057910614
0001b0 64 8a 49 3d 67 5b 3f 3d 24 3c de 3d 98 fd 39 3d
       0.049204245 0.046718027 0.10851315 0.04540786
0001c0 4c 4e c6 bc 01 e9 bd 3d d2 90 e9 bd 70 f7 dc 3d
       -0.024207257 0.092729576 -0.114045754 0.107893825
0001d0 f8 d5 d7 3d 0c ee b0 3d 6f 98 09 3e 6e 0e 9e 3d
       0.10538858 0.08639154 0.13437055 0.07717596
0001e0 15 4b 76 3d 0f 36 06 3e 24 d4 a5 bd 69 e1 3c 3e
       0.060130198 0.13106559 -0.08097103 0.18445362
0001f0 44 1b 5c bc 80 9e 2e 3c 44 58 8f bc 77 1e dc 3c
       -0.013434235 0.0106579065 -0.017498143 0.026869996
000200 bc 5f 4d 3b f3 3d f3 bd 1d 3f 77 bc f4 21 85 bd
       0.003133758 -0.1187705 -0.015090731 -0.06500617
000210 a7 c2 0b be 0f cb f0 3d 59 60 a5 3d 95 cd 2f 3d
       -0.13648473 0.1175748 0.080750175 0.042920668
000220 a1 f2 fa bc 70 c3 e0 3d ba 79 0a 3e 9c 17 dd bc
       -0.030633273 0.10974777 0.13522997 -0.026988797
000230 51 41 08 be b6 5a aa 3b 43 d2 0d 3d 9d ea d9 3d
       -0.13306166 0.005198802 0.03462435 0.10640452
000240 7b 51 ac 3d 46 d5 c8 3c 68 eb 3b 3d e1 e7 b7 bd
       0.08413979 0.02451576 0.045878798 -0.08979774
000250 53 e1 27 bd 50 48 da bd
       -0.04098637 -0.10658324

fc2.bias f4 [3]
000000 63 67 5c bd 8d 8d 07 3d 1b 5e f6 bd
       -0.053809535 0.033093978 -0.12029668

fc3.weight f4 [2, 3]
000000 59 53 8c 3d 87 d4 66 3d 7c 8b 8b 3e 13 eb d2 3d
       0.06851835 0.056355026 0.27254856 0.10298743
000010 95 df 2b bb 44 cf 93 3e
       -0.0026225795 0.2886907

fc3.bias f4 [2]
000000 4d c9 24 be 93 b3 77 bd
       -0.16092415 -0.06047399
