DOMAIN_ADAPTION/experiments/feature=D:I_soll_X_GAMMA=0.5_GAMMA_reduction1.0_num_pool=2_[False, False, False, True, True, True]_17_07_2022__00_15_11/best_model/model_fc.pt (torch, 2207 bytes, 4 tensors)

fc2.weight f4 [3, 50]
000000 32 f0 7d be 0e 89 27 bf 02 5e 89 3e 04 46 67 bd
       -0.24798658 -0.65443504 0.26829535 -0.056463256
000010 9e 5e c3 3d 22 3d 11 3e 42 08 43 be 99 4f 83 3d
       0.09539531 0.14183477 -0.19046119 0.064116664
000020 15 56 51 be cb 1b 93 bf 79 d5 24 40 e4 29 2b 3e
       -0.20442994 -1.1492857 2.5755293 0.16715199
000030 56 6c c0 bd 98 1f 05 c0 bc da c3 bd ba e4 22 bf
       -0.093956634 -2.0800533 -0.09563205 -0.6363026
000040 d7 0f 94 bd c7 ce a4 be f1 b6 62 bd b3 1e cc bd
       -0.07229584 -0.3218901 -0.055350248 -0.09966793
000050 85 50 c9 3e 00 e5 cb 3d 1a a5 26 be 94 d7 27 be
       0.39319244 0.09955788 -0.16273919 -0.1639083
000060 16 e5 cc 3e 20 df 83 be a6 78 95 3e 37 f1 1e bd
       0.4001853 -0.25756168 0.2919361 -0.03880426
000070 14 61 28 be 9d 18 90 3e db 70 09 bf 7b f8 dd 3d
       -0.16443282 0.28143778 -0.5368783 0.108384095
000080 a6 8c 91 3e 42 61 b9 3d 1d 06 a0 bd b2 59 1f be
       0.2842762 0.090517536 -0.07813666 -0.1556156
000090 ac 38 16 be 39 99 13 3d d2 8c d1 bd 60 09 17 3d
       -0.14670056 0.036034796 -0.102319375 0.036874175
0000a0 2e eb f7 3e c3 57 c4 be 39 98 36 3c 6c e1 9a be
       0.48421615 -0.38348207 0.011144691 -0.30250108
0000b0 e8 e3 39 be 31 e4 22 3d 37 14 90 bd 2f 9a 09 3e
       -0.18153346 0.0397684 -0.07035106 0.13437723
0000c0 f4 12 2d be 00 dc ab 3d d2 55 e1 bd 11 9a 12 be
       -0.16901761 0.08391571 -0.11002697 -0.14316584
0000d0 a7 f1 57 3e 60 e7 30 3d 11 a3 93 bd 78 45 a2 bd
       0.21088277 0.043189406 -0.07208837 -0.07923406
0000e0 d5 a8 05 3d 28 fe a3 bd f7 5d 33 be 74 f3 38 bf
       0.032631714 -0.08007461 -0.17516313 -0.7224648
0000f0 b3 93 c3 3f 20 9f d1 3d 4b 04 5b bc 3a b3 b3 bf
       1.5279449 0.10235429 -0.013367723 -1.4039071
000100 35 ae fa bc 35 2c 04 bf 23 55 f0 bd 60 59 4f be
       -0.030600647 -0.51629955 -0.117349885 -0.20248938
000110 1c c0 b1 3d 2c e5 fb 3c 61 26 4a 3e 72 a6 8f bd
       0.0867922 0.030748926 0.19741203 -0.07014169
000120 4c 89 bd be d1 22 b2 bd a0 3d 01 3e 40 d7 1a bd
       -0.37018812 -0.08698047 0.12621164 -0.037802935
000130 bd b0 eb 3b b8 40 f3 bd 9a bd 3d be e0 24 9e 3e
       0.0071926997 -0.118775785 -0.18529359 0.30887508
000140 60 24 c9 be 96 94 10 be 29 d3 a2 bd 95 b0 5f be
       -0.39285564 -0.14119181 -0.07950432 -0.21844704
000150 f6 72 8d bd d8 1c fb 3b ed f1 41 bd 2d 11 b0 bd
       -0.06906693 0.0076633506 -0.04734986 -0.08597026
000160 7e 14 c9 bd 41 1a 0c 3c 0d 9e 09 3e a1 36 29 be
       -0.09818362 0.008551181 0.13439198 -0.16524746
000170 25 0b 46 bd e6 ad 60 bd 52 69 01 be df 1e 86 be
       -0.048350472 -0.054853342 -0.12637833 -0.26195428
000180 3a 7f bc 3d 2b d0 99 be 6e 2f 3e be a3 d7 58 3e
       0.09203954 -0.30041632 -0.1857278 0.21176009
000190 51 16 e6 3d a0 20 df 3e 10 8b 05 be 7a 02 69 3d
       0.11234725 0.43579578 -0.1304133 0.056887127
0001a0 7e ac 4b be d6 fe ed bc 48 49 5d 3c 6c ae d7 ba
       -0.1989002 -0.02905218 0.013506241 -0.001645518
0001b0 cf 81 32 3e 5a 3a 0a bf ca 0a 32 3f 63 28 07 be
       0.1743233 -0.5399529 0.6954771 -0.13199
0001c0 2d 5b 14 3d de fd 7e bf 17 4c a6 3d 00 32 7c bd
       0.036219765 -0.9960612 0.08119982 -0.06157112
0001d0 fb b3 fd bd 03 61 c7 3d 9f f2 16 3d a9 0a 93 3d
       -0.12387844 0.097353004 0.036852475 0.07179768
0001e0 f3 ed 41 be 69 88 63 bb 7c 2d 6e bd eb 65 03 3e
       -0.18938427 -0.0034718758 -0.058148846 0.12831847
0001f0 24 2c 6e be 69 f1 ec 3d 38 1b fb bd 5d 6d 6f 3e
       -0.23259026 0.11569483 -0.12261051 0.23381563
000200 22 f1 c4 3d de bd ee bd 9e 5d 74 3d 69 3d 90 be
       0.09616305 -0.11657308 0.059659593 -0.28171852
000210 3a 7f 92 be 50 3c 97 bc a7 e2 12 bc dd 89 1b 3e
       -0.2861269 -0.018461376 -0.008965171 0.1518931
000220 44 73 77 3d bb 30 97 bb 1e 47 d9 3d 14 f8 74 3d
       0.06041266 -0.0046139634 0.10609268 0.0598069
000230 5e f5 9e bc f9 80 f5 3d 2c d1 a1 3c ef 47 b4 3e
       -0.01940411 0.1198749 0.019753061 0.3521113
000240 6b cb 02 3e 1b 84 a4 bd 7e 2c 3b bd cc 16 62 be
       0.1277291 -0.080330096 -0.045696728 -0.22079009
000250 77 85 44 3e 32 22 b5 bd
       0.19191538 -0.08844413

fc2.bias f4 [3]
000000 58 ac 9a bd dc fa 1b be a9 4c 61 be
       -0.07552403 -0.15232414 -0.220019

fc3.weight f4 [2, 3]
000000 24 61 32 3f 3d 87 39 be 1e bc e7 be d8 70 88 bd
       0.69679475 -0.18117996 -0.4526071 -0.06662148
000010 51 8e a5 be d6 65 f2 be
       -0.3233514 -0.4734332

fc3.bias f4 [2]
000000 41 5d 8c be 2f 43 dd be
       -0.27414897 -0.4321532
