DOMAIN_ADAPTION/C1_C2_experiments/side_experiments/experiments_no_mmd_all_single_features/feature=S:x_nut__GAMMA=1.0/best_model/model_fc.pt (torch, 2207 bytes, 4 tensors)

fc2.weight f4 [3, 50]
000000 a8 88 8b 3d f6 b2 b2 bd 49 2d 8b bc 36 6a a8 bd
       0.068131745 -0.0872554 -0.016989367 -0.08223383
000010 1e 48 ac be df 69 da bd 00 98 d8 bd ef 31 18 3d
       -0.3364877 -0.106647246 -0.10575867 0.037156995
000020 b4 e2 c8 3d 6a f0 45 bd b4 13 a3 bc 7c e4 18 be
       0.09808865 -0.04832498 -0.019906856 -0.1493091
000030 91 63 db 3c 86 16 5a 3c a5 72 7b 3d 5f 5d 83 bc
       0.026780875 0.013311034 0.06138863 -0.016035734
000040 32 75 82 3d 4f ec a7 bd 1d 35 35 be 2b 1e ba bd
       0.063700095 -0.08199369 -0.17696042 -0.09087785
000050 29 f2 07 3d e4 ef 16 be b4 8b 15 3d a0 c9 b3 3d
       0.033189926 -0.14739949 0.036510184 0.08778691
000060 35 8d da bd 26 5d 94 bd 79 53 e7 3c 47 06 11 3e
       -0.10671464 -0.07244329 0.028238045 0.14162551
000070 6e a0 bb 3c 86 2d db bd 4f 1a 3d 3d 74 d6 06 3e
       0.022903647 -0.10702042 0.046167668 0.13167745
000080 e4 c8 32 bc ce 55 f9 3d 2a a8 e5 bd ec 41 6c 3d
       -0.010912154 0.12174569 -0.112137154 0.057680055
000090 51 f6 0c 3e b5 97 f9 bd f3 72 47 be cb 63 d0 3d
       0.13765837 -0.12187139 -0.19477443 0.10175284
0000a0 ab e6 0b be 80 bd 11 bf ba db 9e 3d e9 2a 05 be
       -0.13662212 -0.5692978 0.07756753 -0.1300465
0000b0 a9 8b 8f bd e1 af 02 be 6d 98 f5 3e 89 fd 00 3e
       -0.0700906 -0.12762405 0.47967854 0.12596716
0000c0 1e 72 d0 3d 64 a6 8a 3d e3 97 88 be e1 6c 74 3e
       0.10178016 0.06770018 -0.2667838 0.23869659
0000d0 ec dc b6 bd 6a 32 01 3e 0b 4e c4 be 77 57 ff bc
       -0.08928856 0.12616888 -0.38340792 -0.031169636
0000e0 1f 87 bc 3b e9 49 c0 3d 12 17 61 be 2e cb e7 bd
       0.0057534124 0.09389097 -0.21981457 -0.1131805
0000f0 eb 04 a4 be d3 dd 2d bd 32 c3 5e 3d ce e6 5a 3d
       -0.32035002 -0.042447876 0.05438537 0.05344277
000100 86 36 1f bd a4 25 5e be e6 92 13 bd c5 65 3a be
       -0.038870357 -0.21694046 -0.036028765 -0.18202884
000110 f4 49 0e be f8 07 18 3e d5 d5 fd 3d 61 8c 97 bd
       -0.13895398 0.1484679 0.12394301 -0.07399822
000120 02 94 a6 bb 1a 6a ae bd 75 fb 9b be fd 83 b9 3d
       -0.005083562 -0.08516331 -0.30465284 0.09058378
000130 3b d1 26 bd 23 41 da bd 06 d4 c2 3d 05 ce 05 3e
       -0.04072688 -0.10656955 0.095130965 0.13066871
000140 04 28 d4 3c dd 1b 44 3e 11 3c 37 be c0 1d fd 3d
       0.025897987 0.19151254 -0.17894007 0.1235919
000150 1e 03 d0 3c b9 2c 51 3d bc 35 66 3d 0c c2 aa bd
       0.025392111 0.05106804 0.05620359 -0.08337793
000160 a1 ad 1a be 4f 4e da 3d 92 b9 5b 3e 57 1f 13 3f
       -0.15105297 0.106594674 0.21457508 0.57469696
000170 5e f6 95 3c 60 e4 15 3f aa d0 12 3e 65 f1 f7 3c
       0.018305954 0.585516 0.14337412 0.030266473
000180 6a 59 d5 be ae 36 f6 bd 40 3d 4f bd 2a 2c 98 3d
       -0.4166978 -0.12022148 -0.050595522 0.074302986
000190 b4 5c 3a 3b e5 9d 45 be 39 db 9f 3d 2c 84 a2 3d
       0.0028436603 -0.19298513 0.07805485 0.07935366
0001a0 03 7e 07 be 46 f1 56 be 74 ba 6d be 15 fa a8 3e
       -0.13231663 -0.20990476 -0.23215657 0.33003297
0001b0 2c 0e fa bd 4a 0b cc 3d 8a df 07 3e be b6 80 be
       -0.12209734 0.09963091 0.13268867 -0.2513942
0001c0 c3 c6 05 3e 1d 17 dd 3d b7 76 41 3d 76 c9 69 bd
       0.13064103 0.10795424 0.047232356 -0.057076894
0001d0 79 b4 8f 3e 8b 46 1b 3d ee 9b 6d be 7c d1 47 3c
       0.28067377 0.037909072 -0.23204014 0.012195941
0001e0 4a 96 15 be 4b 27 a5 3d 79 f7 13 bc 4f 48 bb bc
       -0.14608112 0.08064135 -0.00903117 -0.022861628
0001f0 7b 88 9a 3e fe b3 9f 3d 53 f0 4e be 75 c4 44 be
       0.3018225 0.07798003 -0.20208864 -0.19215567
000200 b9 3b 04 be 60 28 8f be f1 36 31 bd 10 9c ec bc
       -0.12913407 -0.2796049 -0.043265287 -0.02888301
000210 4a 6a d4 3e b2 df 23 bd cd 87 81 be 80 21 a5 bc
       0.41487342 -0.040008254 -0.2529892 -0.020157576
000220 4b 50 6d bd 86 bb 53 bc b9 cc 85 3e 5a f2 17 3d
       -0.0579379 -0.012923127 0.26132753 0.03709636
000230 01 85 d1 3b 30 a1 1d bf 47 43 2b 3e f1 63 85 be
       0.006394029 -0.6157408 0.16724883 -0.26052812
000240 c8 cd 3d 3e 16 89 08 bd 8d 61 17 3f 93 29 36 be
       0.1853553 -0.03333386 0.59133226 -0.17789297
000250 5e 62 99 3e 36 ff ab 3b
       0.2995786 0.0052489294

fc2.bias f4 [3]
000000 1e 9d 5b be 2f 23 9f 3f c0 ae 98 be
       -0.21446654 1.2432612 -0.29820824

fc3.weight f4 [2, 3]
000000 56 ec 4a be ad 62 0b 3d 49 af 88 3d b5 73 4f be
       -0.19816718 0.03402965 0.06674058 -0.20258982
000010 94 8c b8 bd 25 50 35 3e
       -0.09011188 0.17706354

fc3.bias f4 [2]
000000 6d 3e 75 be 6e c7 00 bf
       -0.23949595 -0.50304306
