DOMAIN_ADAPTION/experiments_old_top_10_features_full_mmd/feature=C:x_bottom_GAMMA=0.5_GAMMA_reduction0.999_num_pool=2_[True, True, False, True, True, True]/best_model/model_fc.pt (torch, 2207 bytes, 4 tensors)

fc2.weight f4 [3, 50]
0	0x3e0291f4	0.12750989
1	0x3dfb9691	0.12284578
2	0xbe1884bb	-0.14894383
3	0x3df6445f	0.120247595
4	0xbe441a39	-0.19150628
5	0xbd0e2900	-0.03470707
6	0x3a4e57d2	0.00078713626
7	0x3ddc0e99	0.10744972
8	0xbe3ac8f0	-0.18240714
9	0xbdd5b2cd	-0.10434494
10	0x3e077128	0.1322676
11	0xbdb9f480	-0.09079838
12	0xbe5640c0	-0.20923138
13	0xbe3535da	-0.17696324
14	0x3df5bde9	0.11999113
15	0xbe0a4ee8	-0.13506663
16	0xbdddcecc	-0.10830459
17	0x3d0624eb	0.03275005
18	0x3e171587	0.14754306
19	0x3e339ff3	0.17541485
20	0xbeb49a83	-0.35274133
21	0x3d5b39e0	0.05352199
22	0xbe25f2ed	-0.1620595
23	0x3ea7def7	0.32787296
24	0xbca52d4a	-0.020163197
25	0x3e71c2ef	0.23609518
26	0xbcf7ca66	-0.030247878
27	0xbdf7660d	-0.120800115
28	0xbc44bd33	-0.012007999
29	0xbe0a399e	-0.13498542
30	0x3e72baa4	0.2370401
31	0x3e21b78e	0.15792677
32	0xbe8ac771	-0.27105287
33	0xbd4a2d3c	-0.049359545
34	0xbe851f6f	-0.26000544
35	0xbc49f262	-0.012325855
36	0x3e353749	0.17696871
37	0xbe38e165	-0.18054731
38	0x3e06a724	0.13149697
39	0xbe91c721	-0.28472236
40	0x3c6c0f22	0.014407905
41	0x3dc0b098	0.094086826
42	0x3e0af1c2	0.13568786
43	0x3d845faa	0.06463559
44	0x3d98e7fd	0.07466123
45	0x3cc4fd1b	0.024046471
46	0x3b1b3626	0.0023683398
47	0xbe9a314b	-0.30115733
48	0x3d90a426	0.07062559
49	0x3d98af46	0.07455306
50	0xbe237c64	-0.1596542
51	0xbe907a9a	-0.28218538
52	0x3e813a28	0.25239682
53	0xbda1186f	-0.078659885
54	0x3e358183	0.17725186
55	0x3e71e02a	0.23620668
56	0xbb9b779f	-0.0047444846
57	0xbe165a87	-0.14682971
58	0x3ec71119	0.38880232
59	0x3e3c9ff5	0.18420394
60	0xbe3c0371	-0.18360688
61	0x3e73437b	0.2375621
62	0x3ed4dcdd	0.41574755
63	0x3e8619fa	0.26191694
64	0xbe5d5b44	-0.21616846
65	0x3e234d94	0.15947562
66	0x3e3c803a	0.1840829
67	0x3cdd2db1	0.026999326
68	0xbe298ab8	-0.16556823
69	0xbe8d9c68	-0.2765839
70	0x3ed875dc	0.4227742
71	0xbe36332d	-0.1779296
72	0x3e8c5b2e	0.27413315
73	0xbf064364	-0.5244658
74	0x3d4bce7c	0.049757466
75	0xbe9b9149	-0.3038428
76	0x3e14fe3a	0.14550105
77	0x3e94e9e9	0.2908471
78	0xbe83f986	-0.2577631
79	0x3ebb6e3c	0.3660754
80	0xbeb97b97	-0.36227104
81	0xbe0b74c1	-0.13618757
82	0x3f079ac4	0.5297053
83	0xbda3cf08	-0.079984725
84	0x3e849755	0.25896707
85	0xbdd42f93	-0.103606366
86	0xbe1b4ea4	-0.15166718
87	0x3ea12c7b	0.31479248
88	0xbe0c599d	-0.1370606
89	0x3ea28778	0.3174398
90	0x3e30d98e	0.1727049
91	0xbe8dd186	-0.27698916
92	0xbd59be16	-0.053159796
93	0xbbf17120	-0.007368222
94	0xbe820ee8	-0.25401998
95	0xbd25936a	-0.040423788
96	0xbc724729	-0.014787474
97	0x3efc18c2	0.4923764
98	0xbe1ea866	-0.15493926
99	0xbdf30c93	-0.11867633
100	0x3d3aa761	0.04556978
101	0xbe8cd9a8	-0.2750981
102	0x3e7a2f98	0.24432218
103	0xbcf00a90	-0.029301912
104	0xbad93f39	-0.0016574628
105	0x3d2b1081	0.041763786
106	0x3db80b5b	0.08986541
107	0xbd537843	-0.051628362
108	0x3eb944c6	0.36185282
109	0x3e2e7050	0.17035031
110	0xbdbdb7eb	-0.09263595
111	0x3e770462	0.24122766
112	0x3eedc3fa	0.4643858
113	0x3d9616b5	0.0732855
114	0xbe296cbb	-0.16545384
115	0x3e70e16d	0.23523493
116	0x3e7a215a	0.24426785
117	0x3d4a14ab	0.049336117
118	0xbe02df63	-0.12780528
119	0xbe8b2981	-0.27180102
120	0x3e944a65	0.2896301
121	0xbe336feb	-0.17523162
122	0x3ea5dc5e	0.3239469
123	0xbf1552c1	-0.583294
124	0x3d1b2deb	0.037885588
125	0xbeba621f	-0.36402985
126	0x3c34424a	0.011002133
127	0x3e6be7c8	0.23037636
128	0xbdbe54a7	-0.0929349
129	0x3ed84dee	0.42246956
130	0xbeb0d13e	-0.3453464
131	0xba394eb0	-0.00070689153
132	0x3f18f170	0.59743404
133	0xbc69761c	-0.014249351
134	0x3e75dc83	0.240099
135	0x3c970e73	0.018439507
136	0x3bed9f67	0.0072516683
137	0x3e7fce71	0.24981095
138	0xbe2cad65	-0.1686302
139	0x3e1e2ed9	0.15447558
140	0x3dd91a25	0.1060069
141	0xbe6aca92	-0.22928837
142	0xbde1e82e	-0.11030613
143	0xbc9950ab	-0.018715223
144	0xbe23ac5f	-0.15983723
145	0x3ccd321c	0.025048308
146	0xbd5cd265	-0.053911585
147	0x3efc05f4	0.49223292
148	0xbd785932	-0.06063194
149	0xbcfa5ab0	-0.030560821

fc2.bias f4 [3]
0	0xbcd915e1	-0.02649969
1	0x3dc71716	0.097212
2	0xbc62901b	-0.013828303

fc3.weight f4 [2, 3]
0	0xbe03f2e4	-0.12885624
1	0xbf30f5f2	-0.6912528
2	0xbed98d54	-0.42490637
3	0xbe69bf4f	-0.22826885
4	0xbdce1dd6	-0.100642845
5	0x3eed7640	0.4637928

fc3.bias f4 [2]
0	0xbe343d4d	-0.1760151
1	0xbee3607a	-0.44409543
