DOMAIN_ADAPTION/C1_C2_experiments/side_experiments/experiments_no_mmd_all_single_features/feature=S:z_top__GAMMA=1.0/best_model/model_cnn.pt (torch, 762095 bytes, 16 tensors)

conv1.weight f4 [64, 1, 100]
000000 f6 40 a3 3b b2 7a f0 3d 78 0f 88 3d 6e f9 ad 3d
       0.004982109 0.11742152 0.066435754 0.084948406
000010 34 fe 02 3d b3 01 b6 bd e0 11 15 3d f3 e7 f9 3b
       0.03198071 -0.08887043 0.036394 0.0076265275
000020 90 d8 f6 bd 18 e0 f3 bc 50 54 77 bc ca 35 3b 3d
       -0.12053025 -0.029769942 -0.015095785 0.045705594
000030 f9 f2 82 3d 24 b7 91 bd 51 36 ac bd 7c b0 dd bd
       0.063939996 -0.071150094 -0.084087975 -0.10824677
000040 d3 23 1b be c4 62 f8 3c 1c b8 aa 3d f7 8a b0 3d
       -0.15150385 0.030320533 0.08335897 0.086202554
000050 9b 0b ab bd 92 a8 b2 bd 5e 84 41 bd d5 b6 a6 3b
       -0.08351823 -0.087235585 -0.047245376 0.0050877132
000060 37 03 26 3b ee 58 86 bd 57 a7 61 bd be ee 1e bd
       0.0025331506 -0.06559931 -0.05509123 -0.0388019
000070 2b 05 b7 3b 4f 81 96 3c f0 93 06 3e 8d 92 dd bd
       0.005585333 0.018372206 0.13142371 -0.10818968
000080 99 42 15 3d 4d 13 b9 bd 46 50 88 3d 66 cf e3 bd
       0.036440466 -0.090368845 0.06655936 -0.111235425
000090 a3 e2 e0 bd e0 d4 f5 bc dd 1e d0 3c 63 58 ae bd
       -0.109807275 -0.030008733 0.025405342 -0.08512952
0000a0 c0 3b a6 bc 3b 6c 8c bd 3e 3d a1 3d 79 18 06 bd
       -0.020292163 -0.06856581 0.07873009 -0.032738183
0000b0 13 7a 58 bd cf 55 b8 bd 44 86 1c 3d 8a cc de 3d
       -0.052850794 -0.09000742 0.038213983 0.108788565
0000c0 87 25 44 3d 77 ae 66 3d 5b ac b4 3d dd 91 d8 ba
       0.04788735 0.056318726 0.08821937 -0.0016522963
0000d0 3b b2 88 3b e4 2a a7 3d 91 c8 45 bd 28 6d e8 bd
       0.0041716374 0.081624776 -0.04828698 -0.11348945
0000e0 ed 74 9c bc af ad 34 3c ae 70 5e 3c 62 c5 96 3d
       -0.019098723 0.0110277375 0.01357667 0.073618665
0000f0 35 33 cd 3d fe 26 90 bb b9 1d 3a 3d 04 d6 c4 bd
       0.100195326 -0.0043991795 0.045438502 -0.09611133
000100 89 ce 6f 3c 9b 74 aa 3d b9 9f cb 3d 69 fc 59 bd
       0.014636644 0.08323022 0.09942574 -0.053219233
000110 7d 88 05 3e 1d 99 3e 3d dc 0e 4f 3d 49 9b 47 3d
       0.13040347 0.04653274 0.05055128 0.048732076
000120 af 4b 1d 3d 58 4c f4 bc 4b c1 f8 3d b2 df 4f 3d
       0.038402256 -0.02982156 0.12146243 0.05075044
000130 90 8b 8a bd 4c 16 9c bd 3d 47 44 3d 9c b9 3d 3d
       -0.06764901 -0.0762144 0.0479195 0.04631959
000140 16 b4 eb bc a2 0d 28 3d 2e 26 67 bd 9e 76 b7 bd
       -0.028772395 0.041028626 -0.056432895 -0.08958171
000150 e7 40 84 b9 8b fb 44 bd d1 3a 0c bd be 9d 0f bd
       -0.00025225358 -0.048091453 -0.03423578 -0.035062544
000160 95 5c 2a 3d e1 65 48 3d f7 a4 87 3d af cc 67 3d
       0.0415922 0.048925284 0.066232614 0.056591686
000170 94 e6 36 3d cb 8f 3e bb b2 36 54 3d 8b 96 f4 bc
       0.04465349 -0.0029077407 0.051809974 -0.02985694
000180 ba e2 f1 39 db 77 fd 3c c3 21 01 3e 84 b2 50 bd
       0.00046136027 0.03094094 0.12610535 -0.050951496
000190 f6 24 3b 3d 30 ce 94 bd 17 a2 d2 bd 5c 84 95 bd
       0.045689546 -0.0726589 -0.102848224 -0.07300636
0001a0 ec d8 a3 bd d0 fd 8c 3d 8a dc 59 3d 0b 2d b3 3d
       -0.08000359 0.068843484 0.053188838 0.08748826
0001b0 b9 f9 56 bd e9 fa b5 bd 78 76 57 bc 7c 10 bc 3d
       -0.052484248 -0.08885748 -0.013150804 0.09182832
0001c0 b9 75 85 3d 8e 28 83 bd 4d 79 37 bc 4a 5c 9c 3c
       0.065165944 -0.064042196 -0.011198354 0.019086976
0001d0 32 98 e6 3d 64 6f 59 bd 1c 0c 9e 3d d9 8a b0 3d
       0.11259498 -0.053084746 0.077171534 0.08620233
0001e0 10 84 07 bd 90 f6 8d bd cb 67 85 bd 2d f7 5a 3d
       -0.03308493 -0.06931794 -0.065139376 0.05345838
0001f0 86 02 e6 bd 09 00 53 3d 6a a6 96 3d a6 fb e5 bd
       -0.1123095 0.051513705 0.0735596 -0.11229639
000200 62 65 0d bd be 58 45 3d aa ac 31 bd 51 7f be 3c
       -0.034520514 0.048180334 -0.043377556 0.023254069
000210 d9 aa 9b bc a3 84 69 bd a6 64 43 3d d5 bb 88 3c
       -0.019002365 -0.057011258 0.047703408 0.016691128
000220 ab ad 72 bb f1 f4 4f 3d bc 81 0a bd 45 63 41 ba
       -0.0037029784 0.050770704 -0.03381513 -0.0007377158
000230 fb 1e 23 bd 14 76 19 bd f3 fb 1c bd 77 7b 57 3c
       -0.039824467 -0.037466124 -0.038326215 0.013151995
000240 73 ff 58 bd 6f fc 1e 3c ac 94 1d bc 6a 24 62 3a
       -0.05297799 0.00970374 -0.009617966 0.0008626642
000250 c6 be f9 bc 92 19 97 bd c7 83 91 3d 1e 4e 89 3c
       -0.030486476 -0.07377924 0.07105213 0.016760882
000260 27 3d 80 3d 98 f9 db bc de 59 58 3d 58 54 9e bc
       0.06261664 -0.026852414 0.05282008 -0.019327328
000270 63 73 92 bc 8b 1c e5 bd 1c 7c 81 3c 16 45 14 3d
       -0.017877286 -0.11187085 0.01580625 0.036198698
000280 f2 fa 2b bd 1e f6 d5 bd 4f 41 a4 bd ac 18 cc 3d
       -0.041987367 -0.10447334 -0.08020269 0.09965643
000290 5c 09 08 bc 82 15 95 3d d7 cc 25 3d 00 5d da 3d
       -0.008303013 0.07279493 0.040478554 0.106622696
0002a0 49 a2 8a 3c 42 3e 30 3d 62 cb 4b bd c1 38 47 bd
       0.016923087 0.043028124 -0.049754508 -0.04863811
0002b0 88 5e bc 3d e3 e7 41 bd 65 f2 9d 3c ac b1 a8 bd
       0.09197718 -0.047340285 0.019280622 -0.08237013
0002c0 54 7e 01 bd 35 d5 df bc 75 3c a8 3c 8b d8 3f 3d
       -0.031614617 -0.027323345 0.02053664 0.04683737
0002d0 1b 70 65 3c 44 d2 35 bd 63 0b ba 3c 85 22 c0 3b
       0.014003779 -0.044389978 0.022710508 0.00586349
0002e0 c0 3b 64 3c 32 ea 2d bb 0b 8a ad bc 52 f6 a6 3d
       0.013930261 -0.0026537296 -0.021183988 0.081524506
0002f0 7e 84 70 3d e5 39 5c bc b0 b8 c8 bd e6 82 0c 3d
       0.058720104 -0.0134415375 -0.09800851 0.034304522
000300 f7 dc 2e 3d 71 be 99 3d e4 cf b1 bd 9b db 04 3d
       0.042691197 0.07507027 -0.0868223 0.032435995
000310 f8 d9 cc 3d 66 5a f9 3c 01 d7 08 bd e9 3f 0a bd
       0.10002512 0.030438613 -0.03340817 -0.033752356
000320 26 24 bb bd 5e 64 21 bd 66 46 3e be 74 c5 80 bc
       -0.09137754 -0.03940236 -0.18581542 -0.015719153
000330 cb 04 d3 bd e8 53 3f bc 7f a1 15 3d 10 c5 f2 bd
       -0.103036486 -0.01167772 0.036530968 -0.11853993
000340 52 07 f9 3d 87 47 36 3e 85 29 bb bd 9c 20 a6 bd
       0.12159599 0.17800723 -0.091387786 -0.081116885
000350 45 b9 2c 3e 10 74 7a 3d 2e 4a 3d bc 3d 85 ed 3d
       0.1686755 0.061145842 -0.01155333 0.11597679
000360 84 bb ba 3d c3 b7 75 bc cb e8 30 3e 34 4e 92 bb
       0.09117797 -0.0149974255 0.17276303 -0.004464889
000370 b9 5c b1 3d 9b df f7 3c cc 1c c5 3d cc 86 6a bd
       0.086602636 0.03025799 0.09624633 -0.05725746
000380 20 ed 92 be 06 73 10 3e 7e 15 a1 3d 9c ea a6 bc
       -0.28696537 0.14106378 0.078654274 -0.020375542
000390 34 63 0a 3d 5e ba 9f 3d 2a 22 e9 3d d0 4a c7 bd
       0.033786014 0.077992186 0.113834694 -0.09731066
0003a0 79 43 72 bd 0a 93 15 be 77 ef 3a be 53 50 45 be
       -0.05914638 -0.14606872 -0.18255411 -0.19268923
0003b0 1c 46 0a 3d d1 28 21 bd 21 8b 2f be 5c ee 11 3c
       0.033758268 -0.039345566 -0.17142917 0.008906927
0003c0 94 be b4 3d 0e 62 16 be 2e 4f 5f be 89 7f 77 bd
       0.088254124 -0.14685842 -0.21807548 -0.06042436
0003d0 a6 f8 ad bd c4 64 86 be b1 b4 3a bc de 3b d4 bd
       -0.084946916 -0.26248753 -0.011395619 -0.10362981
0003e0 42 a1 35 bd 1d 59 a2 bd 21 b9 89 3d 93 76 58 bd
       -0.04434324 -0.07927153 0.06724764 -0.052847456
0003f0 10 1b c1 bc 54 90 d4 3d 05 86 78 3d e7 1e 92 3d
       -0.023572475 0.10379091 0.060674686 0.071348004

conv1.bias f4 [64]
000000 ce a4 39 be 59 45 09 be 8b 44 cf be 8e 9d 01 3f
       -0.18129274 -0.1340536 -0.40481982 0.50631034
000010 fd d8 8a 3e 3b ab f8 bd bd b1 ad be 4e 78 8a 3f
       0.27118674 -0.121420346 -0.33924666 1.0817964
000020 04 d3 d5 3e a2 27 9a 3e de bf 22 3f 54 2d 07 be
       0.41762555 0.30108362 0.63574016 -0.13200885
000030 3e 1a 82 bf 7a 22 9a be 1a 2d 9c be ff 03 b5 3e
       -1.0164258 -0.3010443 -0.3050316 0.3535461
000040 a7 66 05 bf 18 09 92 3e c3 a1 41 bf 84 5f ea bd
       -0.5210976 0.28522563 -0.75637454 -0.114439994
000050 71 36 27 be 33 ec b1 be 43 9f de 3e 54 10 1c 3f
       -0.16329361 -0.34750518 0.43480882 0.60962415
000060 6b 6c 02 3f c2 c1 37 3f 9b 0c f5 3e 33 d5 05 3e
       0.5094668 0.71780026 0.4786118 0.1306961
000070 01 bb 0f 3f c2 9a 96 3e 1b 86 1f be 78 dc d0 3e
       0.5614472 0.29414946 -0.15578501 0.40793204
000080 26 40 ab be 01 60 0f be 5d 21 3f be 36 4f 9b 3e
       -0.3344738 -0.14001466 -0.18665071 0.3033387
000090 9d 23 a2 3e 6f 3e f3 3e 69 6a 53 be 1f 54 1f 3e
       0.31667796 0.4750857 -0.20646061 0.15559433
0000a0 32 f0 4a 3f 21 1a ef be ef 8e 44 be 22 92 e0 3e
       0.7927276 -0.46699622 -0.1919515 0.4386149
0000b0 08 10 e2 bd 89 31 2f be f7 f4 80 be e8 87 c9 3e
       -0.11038214 -0.1710874 -0.25186893 0.393615
0000c0 71 55 0d 3f ee 72 09 be 6a b6 0c 3f 63 de 80 be
       0.552085 -0.13422748 0.5496584 -0.25169668
0000d0 9b 43 cf 3e e7 06 e8 3e 7d 7d b4 bd 1d 41 73 3e
       0.40481266 0.45317766 -0.088129975 0.23755307
0000e0 27 3f f2 be 75 03 3c 3e dc 48 85 3e a1 57 aa 3e
       -0.47313806 0.18360694 0.2603215 0.3326998
0000f0 d0 a5 11 be 92 7b f1 3e d3 ba 57 3f 7f f9 f9 be
       -0.14223409 0.4716459 0.84269446 -0.48823163

conv2.weight f4 [32, 64, 10]
000000 78 92 d5 3d b2 06 0f 3e 4b a4 d7 3d c5 a7 b2 3d
       0.10428327 0.13967398 0.10529383 0.08723406
000010 30 56 d9 3d f1 70 89 3d 3c 48 6f 3d 53 60 c7 3d
       0.10612142 0.06710995 0.058418497 0.09735169
000020 bb c9 9b 3d 23 37 07 3e 71 16 f9 3d b8 5c f0 3d
       0.076068364 0.13204627 0.121624835 0.11736435
000030 b6 35 d3 3d 4b 1c 1c 3d d2 2e cc 3d 55 4d f0 3d
       0.10312979 0.03811292 0.09969868 0.117335
000040 04 c3 68 3d 9c d2 c2 3b 21 6a 41 3d 7b 02 ba 3d
       0.056826606 0.0059455168 0.047220353 0.09082504
000050 42 d4 3c 3e 25 cc 7f 3e 3d c8 7f 3e ae 36 80 3e
       0.18440345 0.24980219 0.24978729 0.25041717
000060 92 1f 8c 3e 65 1c 9d 3e e3 8f 54 3e f6 de db 3d
       0.27367836 0.30685726 0.20758013 0.10735886
000070 ce dd 11 3e 81 a4 13 3e d7 43 71 bd f6 e0 f6 be
       0.14244768 0.14418222 -0.058902588 -0.48218507
000080 d4 37 3c bf b1 ca 5d bf 96 9b 63 bf ce 19 34 bd
       -0.73522687 -0.8663741 -0.8890928 -0.04396992
000090 08 34 21 3e b6 a9 11 3e 4f e8 80 bc 1b 59 19 bf
       0.15742505 0.14224896 -0.015735773 -0.5990159
0000a0 cc ed 30 3f 2d 84 1c 3f 12 4d 28 bf 3e 8d aa bf
       0.6911285 0.61139184 -0.657426 -1.3324354
0000b0 6e 1d 87 be ca fc 40 3f 47 12 81 3e d0 e0 c5 be
       -0.2638964 0.75385725 0.25209257 -0.3864808
0000c0 cc 4a 50 bf b9 f8 e1 be 1d ee e3 3d 4d 34 8a 3d
       -0.8136413 -0.44135073 0.11129401 0.06748257
0000d0 21 f1 a3 3d 57 90 5f 3d bf 13 f4 3d d6 2b eb 3d
       0.08004976 0.054581013 0.11917829 0.114829704
0000e0 f8 f1 70 3d a8 ef b1 3d 30 dc 18 3d 20 ee c1 3d
       0.05882451 0.08688289 0.037319362 0.09469247
0000f0 4e c8 9d 3e 86 63 43 3e 17 52 28 3d 70 73 bf 3d
       0.30816883 0.19080934 0.041093912 0.0934819
000100 d0 b4 6c 3e 93 cd d5 3e 6e f8 b4 3e f9 ea a0 3e
       0.2311585 0.41758403 0.35345787 0.3142927
000110 e1 db ba 3e ef c9 b5 3e 10 fa 01 40 6c b3 f3 3f
       0.3649588 0.35505626 2.0308876 1.903913
000120 5d f6 45 3f 91 7a 41 3d 0a 38 57 3f 66 82 af 3f
       0.77329046 0.04723603 0.84069884 1.371167
000130 77 b6 26 3f 75 35 a4 3f ef c7 5d 3f 55 8c 88 3f
       0.6512217 1.2828814 0.866332 1.0667826
000140 2d d1 6c 3b 38 ac 38 bf cb 85 9e bf 6f e7 83 bf
       0.003613542 -0.72137785 -1.238458 -1.0305003
000150 36 a6 30 3e e7 7a e9 3e 14 50 a3 3e 6b 0d ca be
       0.17250904 0.4560158 0.31897032 -0.39463362
000160 85 c9 2a bf b0 b7 01 bf 2c 78 2c bd e9 04 51 be
       -0.66713744 -0.5067091 -0.042106792 -0.2041203
000170 ae ae 40 3c fa 64 fd 3d ab ed 93 3c a6 75 52 bd
       0.011760397 0.123727754 0.018057665 -0.05138173
000180 c2 f4 87 3d 0e d7 e2 3d ec 06 c4 3e a2 e8 51 3e
       0.06638481 0.11076175 0.3828653 0.20498899
000190 0d bd 7e be ed 96 00 bf e9 bf bc be 1f 14 14 bf
       -0.24876805 -0.50230294 -0.36865166 -0.578432
0001a0 dc 4a 4a be 7b 76 0a 3e bd 3a 3f bd be ac a1 be
       -0.19755119 0.13521759 -0.046686877 -0.31577104
0001b0 20 7b 20 bf ad c5 ff be e1 26 59 bc e2 bc a6 bb
       -0.62687874 -0.49955502 -0.013253898 -0.0050884346
0001c0 79 4b 47 3d f8 11 6b bc 7b 92 c4 bc de 9b a3 3c
       0.04865596 -0.014347546 -0.023995629 0.019971784
0001d0 0e 91 ec 3d c8 b4 c5 3d 15 21 b2 3d 37 e3 52 3d
       0.115511045 0.09653622 0.08697716 0.05148622
0001e0 90 5f 1a be 56 45 1f be b8 74 9a 3d 7d e1 84 3e
       -0.15075517 -0.15553793 0.075417936 0.25953284
0001f0 eb 13 7a 3e d1 91 6e 3e 10 c9 ea 3e a4 db 95 3e
       0.2442166 0.23297812 0.45856524 0.29269135
000200 a7 98 12 bd a1 a0 95 bc 6e 65 42 be 56 62 0b be
       -0.035790112 -0.01826507 -0.18984005 -0.13611731
000210 af 30 42 bd 55 ab 9e 3d a1 39 09 3e fd 23 29 3d
       -0.04740971 0.07747523 0.1340089 0.041294087
000220 ea a9 b0 bd 64 5f 3c be c1 43 09 be f4 af 7a bd
       -0.086261585 -0.18395764 -0.13404752 -0.06120296
000230 dd a0 78 3e 3e f1 b2 3d 78 22 8a 3b c5 32 81 be
       0.24280114 0.087374195 0.004215535 -0.25234047
000240 ec f4 7a be 8b b8 38 be aa f0 b7 bd 1a 89 2d bd
       -0.24507493 -0.18039148 -0.0898145 -0.04236708
000250 c7 71 20 3e cb 45 33 3e 82 5f 2a 3f ae 25 8c 3d
       0.15668403 0.17507093 0.66551983 0.06843124
000260 f4 23 85 be 82 e6 13 3e cb 70 47 3e da 67 96 bd
       -0.26003993 0.144434 0.19476621 -0.07344027
000270 5e c6 e0 be 16 34 34 bf 33 29 02 bf 00 0f 5a bd
       -0.43901342 -0.70391977 -0.50844115 -0.05323696
000280 08 a1 ff 3c 52 36 1f 3d b9 32 8e 3d 12 79 d5 3d
       0.031204715 0.038870163 0.06943268 0.10423483
000290 34 56 5a 3d e1 37 6c 3c 23 5a fc 3c 9c dc d1 bd
       0.053304866 0.014417619 0.0308047 -0.10247156
0002a0 82 47 b9 bd a1 86 29 bc 79 c1 68 3e 7e d0 10 be
       -0.09046842 -0.010347039 0.22730054 -0.14142033
0002b0 74 06 e1 be 64 99 15 bf 41 ac 20 3e b2 61 a5 3e
       -0.43950236 -0.5843718 0.1569071 0.32301098
0002c0 c5 33 83 be eb 56 cc be 4a b3 ec be 18 a4 d9 bd
       -0.25625435 -0.39910063 -0.46230537 -0.106270015
0002d0 f7 fd 05 bf e6 cf b5 be e3 6e da 3c d5 47 9e 3e
       -0.52340645 -0.35510176 0.026664203 0.30914178
0002e0 60 e6 a9 3e 50 b3 aa bd 26 7e 80 3c ae f7 f7 3e
       0.33183575 -0.083349824 0.015685152 0.48431152
0002f0 6e cc 8a 3e d6 e9 00 bd 9b 26 d9 3d ae 32 f6 3d
       0.27109092 -0.031473003 0.106030665 0.12021385
000300 43 52 63 3d ea 12 6b 3d 11 d1 9c 3d 50 58 ab 3d
       0.055498373 0.057391085 0.07657064 0.08366454
000310 7e 00 aa 3d 58 a6 a4 3d 67 eb 87 3d 4e 6c 6b 3d
       0.08300875 0.0803954 0.06636696 0.057476334
000320 7c 24 88 bc 9c 94 97 3d a1 fb 87 3d cb 32 c6 3d
       -0.01661896 0.07401392 0.06639791 0.09677657
000330 7a 1a 83 3d cf a8 00 3d 88 dc fa 3c fc 38 4a 3d
       0.064015344 0.03141099 0.030622736 0.04937075
000340 47 51 08 3d a5 b8 ca 3d 16 d3 55 3e 3e 38 7f 3e
       0.033280637 0.098984994 0.20881304 0.24923798
000350 fa 94 83 3e fc 95 47 3e c8 a4 93 3d e9 d8 f0 3d
       0.25699598 0.19490808 0.07209164 0.11760122
000360 e0 f9 27 3e e9 d8 39 3e 8c ea 44 3e ee 6f 5e 3e
       0.16403913 0.18149151 0.19230098 0.21722385
000370 d2 1e 0c 3e 07 2d 12 bf 1e 2d a8 bf b3 36 3a bf
       0.13683632 -0.57099956 -1.3138769 -0.72739714
000380 f8 e4 7a be e2 a5 21 3e 06 43 19 be d3 f9 66 bf
       -0.24501407 0.15785936 -0.14966974 -0.9022495
000390 12 7d 87 bf 8e 45 34 be 77 51 8d 3d e6 de ce 3d
       -1.0585043 -0.17604658 0.06900304 0.10101108
0003a0 b2 6d 9b be ff ee 11 bf c1 20 97 be c5 9d 3c bd
       -0.30357128 -0.57005304 -0.29517177 -0.0460489
0003b0 65 17 8c be da 42 55 bf b6 db 27 bf 92 ea 78 3d
       -0.273616 -0.8330513 -0.6556963 0.06077058
0003c0 fb c1 e3 3d d0 22 2f bf c1 c6 aa be 5b 5a 0d 3f
       0.11120983 -0.68412495 -0.33354762 0.55215997
0003d0 57 31 05 3f 48 41 b9 3e 8e 35 f5 be 4c 14 d2 be
       0.5202841 0.36182618 -0.4789242 -0.4103111
0003e0 9f 7c 23 3f a7 c3 a0 3e ae 3e 12 bf 1e 6d b0 bf
       0.6386203 0.3139927 -0.5712689 -1.37833
0003f0 41 8a 36 bf 2c d6 44 bf 5d ec 90 be 07 bf a9 3d
       -0.7130471 -0.768893 -0.2830533 0.08288389

conv2.bias f4 [32]
000000 6c 5c 04 be 98 04 ca 3e 99 9d 86 be f5 9b bd bd
       -0.12925881 0.3945663 -0.26292112 -0.09258262
000010 e1 5c c8 bc 08 ff 91 3d 88 7c 97 3d bb 33 3c 3e
       -0.02445835 0.071287215 0.07396799 0.18379109
000020 ab 32 64 3d 83 75 6f 3d ec f2 31 bd f2 3c d2 bc
       0.055712383 0.058461677 -0.04344456 -0.025663827
000030 ba 37 59 3b 60 af 51 be bc 62 16 3e 84 a7 1d be
       0.0033144788 -0.20477057 0.14686102 -0.15395933
000040 bd 47 55 bb eb 52 fa 3d b8 73 e2 3d b0 c6 00 3e
       -0.003254398 0.122228466 0.11057228 0.12575793
000050 45 8a be bd 1d 01 3a bd 42 7a d0 3d d7 c6 74 3e
       -0.093037166 -0.045411218 0.10179569 0.23903976
000060 63 9a 97 3d 04 5b 6e bd 60 b0 b9 be f9 91 92 3d
       0.07402494 -0.058192268 -0.36267376 0.07156748
000070 ed 1b c7 bd 6c d1 c2 3d 2a eb 00 bd 9c 3b 29 3e
       -0.09722123 0.095126 -0.03147427 0.16526645

batch1.weight f4 [32]
000000 d5 40 6f 3f 0c 58 f0 3f c4 fb 8b 3f d3 48 9d 3f
       0.934583 1.877687 1.0936208 1.2287849
000010 c4 b7 95 3f 15 55 ca 3f ae e5 b3 3f 50 a1 48 3f
       1.1696706 1.5807215 1.4054468 0.78371143
000020 b5 03 c2 3f b9 e2 cc 3f 46 bc 98 3f 4a e9 56 3f
       1.5157381 1.600669 1.1932456 0.8394972
000030 5d c0 9f 3f 5a 99 2b 3f 8a 51 22 3f cf ec 5c 3f
       1.248058 0.6703087 0.6340567 0.8629884
000040 32 ef a5 3f 69 af 27 3f 63 af 66 3f cd 31 0e 3f
       1.2963622 0.6550203 0.9011137 0.5554474
000050 82 46 33 3f 6a 2c 55 3e 6f 6f 40 3f 15 31 d4 3e
       0.7002946 0.20817724 0.75170034 0.41443697
000060 40 4c b7 3f d5 5a d9 3f ca f4 94 3f 1c 58 5c 3f
       1.4320145 1.6980845 1.1637204 0.86071944
000070 73 70 aa 3f 41 9f d5 3f 2b a2 a3 3f d5 4d 9f 3f
       1.3315567 1.6689225 1.2783865 1.2445627

batch1.bias f4 [32]
000000 24 b5 0d 3e 4e 42 55 3f 3d a0 3a 3e 76 95 8c 3f
       0.13838631 0.833043 0.18225189 1.0983112
000010 07 09 6c bf 84 49 12 be 8d 35 46 be 54 2b 58 3f
       -0.92201275 -0.14285856 -0.19356366 0.84441113
000020 72 e2 86 be 2d 5f b7 3e 51 69 de 3b f7 13 18 bf
       -0.2634464 0.358148 0.006787457 -0.59405464
000030 0b 2d f9 bf 32 c3 b9 3e ee fc 96 3e 79 fd 43 bf
       -1.9466871 0.36281735 0.29489845 -0.76558644
000040 71 fa 4a 3e 1f 03 52 bf 4e 1d 14 3f 2b fc a2 3d
       0.19822098 -0.8203601 0.57857215 0.079582535
000050 f0 7e cd 3e e5 54 84 3e 15 17 88 bf e5 4c b0 bd
       0.40135908 0.2584602 -1.0632044 -0.086084165
000060 de 61 d6 3e e6 52 70 be 3c ef c8 3e ab 35 f2 3e
       0.41871542 -0.23469123 0.3924502 0.4730657
000070 6b db 12 3f 24 e1 71 3f 54 b8 36 3f 4b 32 0c 3e
       0.57366055 0.9448416 0.7137501 0.1369106

batch1.running_mean f4 [32]
000000 28 f3 23 c1 e2 e4 72 c0 ee 0b 35 c2 f0 c7 48 c2
       -10.246864 -3.79522 -45.26165 -50.19525
000010 2e 49 e0 3f a2 ed a4 c1 2c 9a 03 c2 cb a4 df 41
       1.7522333 -20.616032 -32.90056 27.955465
000020 eb b8 bd c1 bd 68 0c c1 84 a3 e0 c0 95 92 f1 3f
       -23.715292 -8.775571 -7.0199604 1.8872858
000030 a0 f1 55 41 70 c3 25 c1 a9 8f 70 41 3d 75 d8 41
       13.3714905 -10.360214 15.035073 27.057245
000040 54 9c 96 c0 5f b8 98 41 4b 46 f2 41 72 31 1c 40
       -4.706583 19.090025 30.284323 2.440518
000050 9c ea 97 40 71 fc 11 41 9a 12 14 42 2e e8 7b 41
       4.747389 9.124131 37.018166 15.7441845
000060 57 bb 82 c1 9d 3a 46 c1 96 32 08 c1 fb f1 c3 c0
       -16.341475 -12.38931 -8.51235 -6.1232886
000070 97 23 77 c1 c7 2a fb bc 2b db 47 c2 fa 1f 5c c1
       -15.446189 -0.030660046 -49.96403 -13.757807

batch1.running_var f4 [32]
000000 d5 2c 2b 40 4d dd 2f 40 5c 5a 97 40 2a 45 35 41
       2.6746113 2.7478821 4.72978 11.329386
000010 0d ae 85 41 ac 92 aa 40 0c 4c ec 40 1a 41 a4 40
       16.709986 5.3304043 7.384283 5.132947
000020 7b 64 d3 40 db f1 37 40 46 70 00 41 4e 68 be 40
       6.6060157 2.8741367 8.0274105 5.9502325
000030 d0 a8 2e 41 2d 30 7a 40 63 0b 4e 40 17 37 af 40
       10.916214 3.9091904 3.219445 5.475475
000040 7b 7e 90 40 a8 75 a0 40 18 fa 67 40 60 83 8f 40
       4.5154395 5.0143623 3.6246395 4.484787
000050 9e ab 50 40 06 98 82 40 7a f3 15 41 8e 68 7f 40
       3.2604747 4.0810575 9.3719425 3.9907565
000060 f0 b2 80 41 03 df c0 40 61 54 2e 40 bd b4 ed 40
       16.087372 6.027223 2.7239 7.428313
000070 31 8f a4 40 f0 e1 f0 3f 63 7b 25 41 77 dd b3 40
       5.1424794 1.8818951 10.342624 5.6207843

conv3.weight f4 [32, 32, 5]
000000 74 b7 4b 3e c1 53 aa be 0b 4b 7a 3e 26 ff d0 be
       0.198942 -0.33267024 0.24442689 -0.40819663
000010 62 04 cd 3d 73 62 01 3f 7e 75 07 be aa d7 5f bd
       0.100106016 0.50540847 -0.13228413 -0.054649033
000020 31 95 97 be 95 af ce 3e 50 18 84 be d1 ae 06 3a
       -0.29606012 0.40368333 -0.257998 0.0005137744
000030 a8 52 9d 3e e6 11 ab 3e a3 f0 b9 3e 4d a0 a7 be
       0.30727124 0.33412093 0.36316404 -0.32739487
000040 7b 20 1e bf 2a 82 9c bf 2f c7 c8 be 89 fd 0b be
       -0.6176831 -1.2227223 -0.39214465 -0.13670935
000050 55 96 d1 3e 41 b0 7c 3f 39 c5 4d 3e 39 35 43 be
       0.40935007 0.9870644 0.20094766 -0.19063272
000060 0b 1f 84 3f b7 9c ad be 6d a1 6c 3e 06 84 3e be
       1.0321974 -0.33908626 0.23108454 -0.1860505
000070 90 aa 15 bf 55 a3 01 be 36 a9 e8 3d 4d 63 74 be
       -0.5846338 -0.12659962 0.113603994 -0.23866005
000080 24 45 a6 be 25 90 ef be 00 67 8b be 38 ae 87 3d
       -0.32474625 -0.4678966 -0.2722702 0.066250265
000090 fd 2e 86 3e 3b 1a 98 bd ce a0 71 be 2b 18 3b 3e
       0.26207724 -0.07426878 -0.23596498 0.18270938
0000a0 59 38 0b 3e 0c b1 97 3e 5e 52 e6 3d a7 be 89 3e
       0.13595714 0.29627264 0.11246179 0.2690327
0000b0 5c d3 42 be f9 09 38 be f1 a5 2e 3c e1 60 4b be
       -0.1902594 -0.17972554 0.010659681 -0.19861175
0000c0 5b bf ad be 5d a4 06 bf 77 6d 61 bf 25 f0 a7 bf
       -0.33935055 -0.5259455 -0.88057655 -1.3120161
0000d0 b8 20 14 bf e5 57 85 3f 4d e9 bc 3e 7b cb 96 3e
       -0.57862425 1.0417448 0.36896744 0.29452118
0000e0 55 fe 10 bf d2 84 7b be 2c 7c 99 3e 10 72 65 3f
       -0.5663808 -0.24562386 0.29977548 0.8962717
0000f0 e0 6d 26 3f 66 86 8b 3f 05 1a fe 3e 87 fa 3f 3d
       0.65011406 1.090039 0.49629226 0.04686978
000100 83 eb e3 3f 6b a5 98 bd 50 98 4b be 81 d2 32 3e
       1.7806247 -0.07453426 -0.19882321 0.17463113
000110 9a c5 5c be 31 90 ca 3e b0 61 32 3f 69 24 8b bd
       -0.21559754 0.39563134 0.6968031 -0.06794054
000120 81 93 91 bf 25 06 04 bf f1 41 cc be 2c b5 83 3f
       -1.137314 -0.51571876 -0.3989406 1.0289664
000130 1b 10 c4 bd 0d 0e a0 bf 25 6a 6d bf 98 cc 31 bf
       -0.095733844 -1.2504288 -0.9274009 -0.6945281
000140 7d 0a 0e be 4a aa 2a be f2 43 d3 be c6 1a cc 3e
       -0.13871188 -0.16666523 -0.41262776 0.39864177
000150 dc 35 58 bf ff 93 36 3f 7a 24 a6 be 8e a4 5c bd
       -0.8445718 0.71319574 -0.32449704 -0.05386787
000160 53 08 1e 3d c4 28 8b be 1e 8b 5d 3f ff 48 fe 3e
       0.038582157 -0.2717954 0.865404 0.49665067
000170 b7 71 90 be 61 da 16 3f 12 23 e6 3e 6d de 11 bf
       -0.28211758 0.5892697 0.44948632 -0.5698002
000180 ee e0 44 bf b4 ed 10 be 05 bf 78 3f c1 e8 fe 3e
       -0.76905715 -0.14153177 0.9716647 0.49786952
000190 a0 4e f9 3e d8 79 fe bd 64 3a 04 bf d3 58 4e be
       0.486928 -0.124255836 -0.516516 -0.20151071
0001a0 19 59 34 3f a4 71 1e 3f 91 7d 61 3e d5 ba c4 bd
       0.7044845 0.6189215 0.22020556 -0.09605948
0001b0 de 11 d3 be 82 f9 c3 3d 4a 71 56 bf 40 c9 ee be
       -0.4122457 0.09569074 -0.83766615 -0.46637917
0001c0 56 95 33 3d e7 5f a1 bd c4 c8 7b bf 60 6b b3 3e
       0.04384359 -0.0787962 -0.9835322 0.35042858
0001d0 93 0f ad be 2d 1e be be 95 2b d4 bd 3c ba 14 3f
       -0.33800945 -0.37132397 -0.10359875 0.5809667
0001e0 ba 49 85 bd f2 f7 b1 3e 35 04 a2 3e ef 27 59 3f
       -0.06508203 0.3475948 0.31643835 0.8482656
0001f0 cc 48 1d bf 2f c3 4a bf 90 1e 4c bf e6 43 c9 bf
       -0.61439204 -0.79204077 -0.79734135 -1.5723846
000200 34 e7 69 3f 1c e4 f3 3e e8 53 ec 3e f1 b2 9b 3e
       0.9136841 0.4763497 0.46157765 0.3040996
000210 26 c6 11 3f 1d 75 ae be 8b 0d 56 3e 50 c8 a5 be
       0.56942976 -0.34073725 0.20903604 -0.3237939
000220 3b c8 3f bd ca 37 f2 bd 47 d7 8a 3f ed 1d 9e 3d
       -0.046821814 -0.11827047 1.0846947 0.07720552
000230 0b 8d 91 be 61 a1 3a 3f 33 41 49 3e 4e 7f 50 3e
       -0.2842792 0.72902495 0.19653778 0.20361063
000240 74 4b 16 3e 6d 44 55 3e b3 a7 9d 3f 61 11 1d bf
       0.1467722 0.20826884 1.2316803 -0.61354643
000250 a9 eb 40 be f7 99 7e be 43 e2 d3 be e2 1d ed bd
       -0.18839897 -0.2486342 -0.41383561 -0.11577965
000260 1f 36 33 3f 05 0e 46 3e a3 53 6b be 19 77 aa be
       0.7000446 0.19341286 -0.22981124 -0.3329399
000270 0a 81 dc be bf 2e 0d be 8c a9 06 3f e3 e5 ea bd
       -0.430672 -0.13787363 0.5260246 -0.11469629
000280 88 42 e2 be d4 fb aa be f5 66 c0 be 94 27 0a bf
       -0.44191384 -0.33395255 -0.3757855 -0.5396664
000290 73 65 f1 be 13 bf 76 bf bd a1 40 bf 3e 3a 39 bf
       -0.47147712 -0.96385306 -0.75246793 -0.72354496
0002a0 a4 f1 5c bf ba 22 7a bf cb be 84 3d 36 12 08 3e
       -0.86306214 -0.9770924 0.06481703 0.13288197
0002b0 23 6c 64 3e 9f ef 2c 3e a4 6d 9f 3e b2 b5 bd 3d
       0.22306876 0.16888283 0.31138337 0.09263171
0002c0 48 82 3c 3d 20 a9 66 3e 79 cc 9e bc 39 80 62 be
       0.046022683 0.22525454 -0.01938461 -0.22119226
0002d0 e8 da f0 3d df 35 d4 3d fd 8f 51 3e 32 5e 32 3e
       0.11760503 0.103618376 0.20465083 0.17418745
0002e0 1c 8b 9a 3e 5f c9 87 3e 8b 8b a5 3e 65 f6 8a 3e
       0.30184257 0.2652082 0.32333025 0.2714111
0002f0 48 3c 1a bd 75 c4 86 be 2d b9 6e 3e e5 c2 a1 3d
       -0.037655145 -0.2632176 0.23312826 0.07898501
000300 84 37 62 3e ff 7c 10 3e f7 96 ac 3d 57 ce df 3a
       0.2209149 0.14110182 0.08427232 0.0017075044
000310 f1 10 50 3e 5e 3d 90 3e cb 80 ef 3d 6f fd ad 3d
       0.20318963 0.2817182 0.11694487 0.08495604
000320 e6 f0 0a be bc 5c 8e bc ca 7c 0c 3d 38 84 11 bc
       -0.13568458 -0.017378204 0.034298696 -0.008881621
000330 96 96 8f bc 58 83 8d be b6 40 e7 be db 06 a3 be
       -0.01752786 -0.2763927 -0.45166558 -0.31841168
000340 5c 8d 57 be c4 a8 9e be da 8f 70 bf 7c 5e d8 be
       -0.21050018 -0.30988133 -0.939695 -0.42259586
000350 38 0d bc bd 1f 64 d2 be 5b a5 18 bf 31 c1 30 be
       -0.09182209 -0.4109201 -0.5962731 -0.17261197
000360 31 d4 8a 3c c8 8b 89 3e c6 93 4d 3e ff 9a 2a bb
       0.016946884 0.26864457 0.20075902 -0.0026032326
000370 cc 71 4c 3e e0 2c 0f bc 46 df 41 3e 98 0d d3 3e
       0.19965285 -0.008738726 0.18932828 0.4122131
000380 4f 39 49 3e d1 e4 28 bf c0 34 1f bf 90 b4 b3 be
       0.19650768 -0.65974146 -0.62189865 -0.35098696
000390 cb 6d 04 bf 0f 3a 4c bf f5 de 57 be f1 6d 05 bc
       -0.5173003 -0.7977609 -0.21081145 -0.008143888
0003a0 cf e1 13 3e 80 2c 4b 3b 18 ba 03 be 3f b3 fb bd
       0.14441608 0.0031001866 -0.12863958 -0.12290048
0003b0 b3 ef 86 be 7b 0f 00 be 9b e9 34 bd 2f 5d bb be
       -0.2635475 -0.12505905 -0.044168096 -0.3659453
0003c0 bc f4 e7 3e 9b 1a 09 3f 7a 4d a3 3e d1 c0 4b 3d
       0.45303905 0.5355622 0.31895047 0.04974443
0003d0 8a 5e bf 3e 67 97 b2 3e 98 96 10 3f 87 5b 0f 3f
       0.37376815 0.34881136 0.5647979 0.55999035
0003e0 d3 92 2d 3f e2 95 37 3f 9f ad 59 3e 85 38 a3 3b
       0.6780216 0.7171308 0.21257637 0.004981103
0003f0 bb 98 95 3d 25 96 92 be e5 ba 0c bf 67 0f 10 bf
       0.07304522 -0.28630176 -0.5497268 -0.562735

conv3.bias f4 [32]
000000 19 b6 ed 3a ea 7f 33 3c 3a c6 49 3d 40 10 ff bb
       0.0018135934 0.01095579 0.04926131 -0.0077839196
000010 3c 2c 02 bb eb ef b2 3b 42 d3 88 bd a3 3e 60 bc
       -0.0019862792 0.0054607294 -0.06680919 -0.013686809
000020 f4 a7 7d 3b 94 be 95 3d 3f c9 f9 bc 72 6c 11 bb
       0.0038704844 0.073117405 -0.03049147 -0.0022189883
000030 fd 65 8c bb ac 41 92 3d fd 46 a8 3c 9f e1 1c 3c
       -0.004284619 0.07141432 0.020541662 0.009575277
000040 b5 6c 2b 3d a6 51 42 bd 34 c1 a6 3d cd 4d 14 3c
       0.041851718 -0.047441147 0.08142319 0.009051752
000050 ef 26 1c bd f9 6a 02 be 47 46 25 3d 3c 9c 25 3d
       -0.038123067 -0.1273612 0.040350225 0.0404322
000060 cd 98 75 bd 48 d1 83 bd bb 69 a1 bd a7 91 3e bc
       -0.059960175 -0.064364016 -0.078814946 -0.011631406
000070 bb 28 a7 3c e7 e1 24 3d 44 c2 fb 3c 3c f7 30 3d
       0.020405164 0.0402545 0.030732282 0.04320453

batch2.weight f4 [32]
000000 b9 9d 85 3f 9c 0b a2 3f 80 07 4a 3f d0 69 d6 3f
       1.0438758 1.2659793 0.78917694 1.6751041
000010 3c 43 8a 3f dc 6e 82 3f 85 21 d5 3f 8b b3 dc 3f
       1.0801768 1.0190082 1.6650854 1.7242292
000020 2c 2e 37 3f 26 fc 60 3f a4 b8 97 3f d8 b9 49 3f
       0.7155483 0.8788475 1.1853223 0.787992
000030 0d 89 88 3f 3e a7 b0 3f 78 5d 98 3f f3 f2 27 3f
       1.0666825 1.3801038 1.1903524 0.65605086
000040 26 5c 79 3f 5e 9c bf 3f 86 d4 86 3f e1 d4 4e 3f
       0.9740623 1.4969594 1.0533607 0.8079358
000050 d1 61 8e 3f 2b d7 de 3f e0 13 be 3f a0 14 9e 3f
       1.1123601 1.7409414 1.4849815 1.2350044
000060 7f 00 96 3f a2 b9 18 3f 50 0e 5d 3f 10 91 a8 3f
       1.1718901 0.59658253 0.86349964 1.316927
000070 d8 ff af 3f 8c e0 2b 3f 84 59 c9 3f 85 45 91 3f
       1.3749952 0.67139506 1.5730443 1.1349341

batch2.bias f4 [32]
000000 c6 fc 59 bf 87 80 6e bf 7b 61 3e bf e1 c4 bb bf
       -0.85151327 -0.9316487 -0.74367493 -1.4669458
000010 a0 94 6c be 8f 26 98 3e 5b 28 53 bf 3e dd 79 bf
       -0.23103571 0.29716918 -0.8248345 -0.97603214
000020 bd a9 51 bf 89 06 10 bf 55 d3 03 bf 40 ac 49 bf
       -0.81899625 -0.5625997 -0.5149434 -0.7877846
000030 10 a1 aa bf 50 fe cb bf f2 a4 3d bf 50 11 0d 3e
       -1.3330402 -1.5936985 -0.7407981 0.13776135
000040 e2 f1 e2 be c0 24 41 bf 87 93 d9 be e3 50 93 be
       -0.44325167 -0.754467 -0.42495367 -0.2877265
000050 65 7f 12 bf a8 f9 7b bf bf e0 e9 be 83 a0 14 bf
       -0.5722564 -0.9842782 -0.4567928 -0.5805742
000060 74 5f 04 bf 7e c2 35 bf 4c 7e e7 be 16 f4 4e bf
       -0.5170815 -0.70999897 -0.45213544 -0.80841196
000070 7c 0a 66 bf 1b dd 0c bf f5 4d 3c bf ca 20 31 bf
       -0.8985975 -0.5502488 -0.73556453 -0.6919066

batch2.running_mean f4 [32]
000000 8c 99 8b bf 0b f1 5c c1 c0 fe aa 40 c2 18 1d 41
       -1.0906234 -13.808848 5.3435974 9.818544
000010 7c 57 7c 41 5f 0e 25 42 4f 8d a8 c1 f9 3f 71 c1
       15.7713585 41.264034 -21.068998 -15.078118
000020 92 9a b4 40 f4 ca 8b 41 e2 36 88 c1 31 b6 e4 c0
       5.6438684 17.474098 -17.026798 -7.14724
000030 a6 11 17 40 04 8d 16 41 ee b2 b8 c1 92 4c 19 42
       2.3604522 9.409428 -23.087368 38.324776
000040 6a 64 5b c1 84 da fc c1 b0 13 25 c2 85 53 1e 41
       -13.712015 -31.606697 -41.269226 9.8953905
000050 e3 6c f5 c1 d0 a3 8b c1 50 b5 f7 c1 2b f7 42 c1
       -30.678167 -17.454987 -30.963531 -12.185344
000060 59 29 1d c1 89 74 39 41 97 5b dd 41 82 f9 81 c1
       -9.822595 11.590951 27.669722 -16.24683
000070 54 ee 95 c1 55 c5 8e 41 9e f1 c5 c1 ba 36 55 c1
       -18.741371 17.846354 -24.742977 -13.325861

batch2.running_var f4 [32]
000000 1d a6 88 42 19 ba c8 42 7f 80 b8 42 3d e6 bb 42
       68.32444 100.36347 92.25097 93.949684
000010 2a 7a 9a 43 11 0a 22 44 22 53 27 43 4a c5 59 42
       308.9544 648.1573 167.32474 54.442665
000020 b2 83 35 42 f9 ac 1a 43 65 b1 93 43 0c 2e 50 42
       45.37861 154.67567 295.3859 52.044968
000030 f9 44 49 42 a9 5e 6c 43 d5 c5 1a 43 54 9c df 43
       50.317356 236.36977 154.77278 447.2213
000040 f4 c9 29 43 06 07 aa 43 2f 76 a5 43 c9 ac a7 43
       169.78888 340.05487 330.9233 335.34988
000050 4f b7 37 43 a8 d4 b9 42 c3 1b 66 43 76 54 9d 43
       183.71605 92.915344 230.10844 314.65985
000060 34 86 78 43 7f 29 b9 42 ce 40 26 43 af 46 fb 42
       248.52423 92.58105 166.25314 125.638054
000070 1b 02 91 42 b2 d8 a0 42 c3 a3 f3 42 20 67 3a 43
       72.50411 80.42323 121.81985 186.40283

fc1.weight f4 [50, 3136]
000000 a1 1d 88 be 1d 27 8e bd 2d c2 71 3e ab d5 ed be
       -0.26585105 -0.06941054 0.23609228 -0.46452078
000010 7a 6a 6a be c7 af aa 3d 9e c7 a2 bd dd b1 a0 bd
       -0.2289218 0.08334308 -0.0794823 -0.07846425
000020 f6 f6 e5 bd 62 88 a2 3e f0 01 99 be 9c b9 3e 3d
       -0.11228745 0.31744677 -0.2988429 0.04656373
000030 4b fa 7f be bc 1c 28 3a 23 69 9d bd 56 9b 9d 3c
       -0.24997823 0.0006412973 -0.07686069 0.019239109
000040 7a f1 da bd 58 56 9b be 4f fd fb bd 43 1b db bd
       -0.10690589 -0.30339313 -0.12304174 -0.10698559
000050 91 ca 4b 3e b1 84 24 be fb ef b3 3d fa 6b 3d 39
       0.19901492 -0.16066243 0.08786007 0.00018064669
000060 f7 ed 60 be 63 db e1 be ea a4 1b 3e 5d 3a ae 3d
       -0.21965776 -0.4411269 0.15199628 0.08507226
000070 65 c6 bf be 87 18 96 bd bd c9 58 3e fc a4 76 be
       -0.3745605 -0.07328897 0.21170707 -0.24086374
000080 b0 d6 e3 be 7a 58 85 bd b7 1a 3a 3e 6b 3a 0e 3e
       -0.4449973 -0.06511016 0.18174253 0.13889472
000090 63 31 55 be e0 10 ec 3d 86 e1 3a be 59 78 0e be
       -0.20819621 0.11526656 -0.18250093 -0.13913096
0000a0 d3 7d be be 14 31 36 3e f4 cb 00 be 98 cf 3f 3e
       -0.3720537 0.1779216 -0.12577802 0.18731534
0000b0 61 c1 86 be 16 ed 11 3b 3d 80 8e be ba 42 a6 bd
       -0.2631941 0.0022266558 -0.27832213 -0.08118196
0000c0 31 2d 8b 3e dc 98 51 3e b8 cb 0a be 73 cb e2 bd
       0.27182916 0.20468467 -0.13554275 -0.11073961
0000d0 b4 8c b4 3d 44 b6 c5 be 95 14 25 be 1e e3 21 bd
       0.088158995 -0.3861562 -0.16121133 -0.039523236
0000e0 17 df 78 3d a9 ec 88 3c 12 15 f0 3d e1 74 8f be
       0.06075963 0.01671441 0.11722769 -0.2801886
0000f0 ba 29 29 3d 3c ae 0b be f3 9a 04 be 2d fd 75 be
       0.04129956 -0.13640684 -0.12949733 -0.2402236
000100 92 26 9c 3b 9a 6d 70 3e cd 83 6f be d3 49 8d 3d
       0.00476534 0.2347931 -0.23390122 0.068988465
000110 16 6a 87 bd b0 17 e3 be ba 4d 80 be 66 e3 22 3e
       -0.06612031 -0.4435401 -0.250593 0.15907058
000120 f7 45 dc bd 4b 13 3c be 58 58 3e 3d 44 18 33 bd
       -0.10755532 -0.18366735 0.04647097 -0.043724313
000130 9e aa de be dd 7a ac be c3 55 e3 bd c8 a5 cd bc
       -0.43489546 -0.33687487 -0.11100342 -0.025103465
000140 98 8d 90 3d bb 00 27 be 18 e7 9e be 2a 0b d6 be
       0.07058257 -0.16308872 -0.31035686 -0.41805393
000150 98 55 68 3e 92 34 cd be 85 1e 81 be 3e d0 39 be
       0.22688901 -0.4007917 -0.25218597 -0.18145844
000160 51 7c 87 3d dd c9 d2 be 1b a4 c3 be 61 c8 a6 be
       0.06615508 -0.41169634 -0.3821114 -0.32574752
000170 1b 5d 45 3e 35 37 27 be 91 23 04 bf 23 9b 69 be
       0.19273798 -0.16329654 -0.5161677 -0.22813086
000180 9d 69 c8 bd 12 15 79 be 36 02 c9 3d 8d 15 07 3d
       -0.09785769 -0.24324444 0.09814875 0.032979537
000190 a7 e4 2f bd d1 84 c1 3d f1 3b 3c be a0 b0 d4 3b
       -0.04294267 0.09449161 -0.18382241 0.006490782
0001a0 c6 99 df 3d af 4e 90 3e bb 88 4e bd d4 d9 0f be
       0.10918002 0.2818503 -0.050423365 -0.14047939
0001b0 93 e6 18 3b 6b 67 9c bd 21 9d a7 bd 68 f4 2f be
       0.0023330792 -0.07636913 -0.08184267 -0.17183077
0001c0 d1 88 35 3c fd 1f 4f bd 4c d5 e1 bd ef 03 ba 3b
       0.011079983 -0.050567616 -0.11027011 0.0056767385
0001d0 e2 2a 2c bd 24 7c 02 3e bf bc fa 3d 34 e4 bb 3c
       -0.042033084 0.12742668 0.12243032 0.022935964
0001e0 17 2a e8 bd a6 41 02 bd 33 21 4e be e4 55 bd bc
       -0.11336153 -0.03180089 -0.20129852 -0.023112245
0001f0 74 44 f6 bd 41 32 89 3d 92 5a 09 3c 59 32 55 3c
       -0.12024775 0.06699038 0.00838341 0.013012492
000200 60 cd 71 bd 8f 15 2d bc f5 2b df 3d c4 17 9e bd
       -0.05903375 -0.010564222 0.10897056 -0.07719377
000210 6b 7e bb bd 11 54 0b 3e d0 13 8e bd 96 0b 99 be
       -0.09154972 0.13606288 -0.06937373 -0.29891652
000220 37 32 8a bd b9 7e fc 3c d9 81 a6 bd ca dc 27 be
       -0.06747859 0.030822145 -0.08130235 -0.16392818
000230 2d e0 5f 3e b0 41 df 3d 89 da 71 3d 39 cc 05 bc
       0.2186286 0.10901201 0.059046302 -0.008166366
000240 62 08 ed 3c a6 c5 3e bd 2c 9b d9 bc 58 38 dc bd
       0.028934661 -0.04657521 -0.02656325 -0.10752934
000250 2f f9 40 be 8a 5a 2d 3d 4f 57 70 bd b7 99 83 bd
       -0.18845056 0.042322673 -0.058677014 -0.06425803
000260 d6 e0 f4 3d 18 65 b0 3d 00 99 ef bb fc 44 a9 bd
       0.119569466 0.08613032 -0.00731194 -0.08265111
000270 fe f6 05 be 8c 62 30 be 3b 8b 04 bd ef ba 5b 3e
       -0.13082501 -0.17225093 -0.032359343 0.21458028
000280 a9 49 94 3b b4 8f 25 bd f1 38 4a 3e 4d b1 b9 3d
       0.0045253825 -0.04042025 0.19748284 0.090670206
000290 34 4c 03 be 72 ed 2b be 0e b2 17 3e 38 3a 0e 3e
       -0.12822038 -0.16789797 0.14814016 0.13889396
0002a0 ff 3a 51 be 5e 84 93 bd 26 5d 4d 3d 7d ec 02 be
       -0.20432661 -0.072029814 0.05013766 -0.12785526
0002b0 44 93 cc bd 3a 93 6d 3d 73 8e 93 bd ef 22 9d bd
       -0.09989026 0.058001734 -0.072049044 -0.07672679
0002c0 60 3c 9b 3d bc f1 62 bd 86 8c 5c bd 9d 08 3c be
       0.07579875 -0.055406317 -0.05384495 -0.1836266
0002d0 b3 da 2e bc 5c cf a9 bd 20 f4 be be 05 1d 73 be
       -0.010672259 -0.08291504 -0.37295628 -0.23741539
0002e0 cc e1 b2 be f1 34 c3 be 74 27 ce bd 41 b2 23 be
       -0.34937894 -0.3812633 -0.10066119 -0.15985967
0002f0 ed 0f 89 be da d7 81 3d 16 bc 1b 3e b8 49 3a 3d
       -0.26769963 0.063399985 0.15208468 0.04548046
000300 03 cf 81 be 45 49 37 be 6a c5 02 be 20 3f eb bb
       -0.2535325 -0.17899044 -0.1277062 -0.007179156
000310 56 bb 79 bd e8 1c e6 be e6 db 5b be 7b 5c 60 bd
       -0.060969673 -0.4494393 -0.21470603 -0.054775696
000320 d2 70 d0 bd 27 08 2d be cc e3 29 bd 09 93 a0 3c
       -0.10177769 -0.16897641 -0.04147701 0.019601362
000330 b3 d5 27 3e e7 ca d4 bd 15 da 62 3e bd 06 4d 3e
       0.16390114 -0.10390263 0.22153504 0.20022102
000340 ab 6f 1d 3d ca d2 94 bc c9 8f a2 3d 2b 96 fd bb
       0.038436573 -0.018166918 0.07937581 -0.0077388487
000350 6d 9e 66 bd 2b 5f 15 be 9d 6e 1f be a6 aa ee bd
       -0.05630343 -0.14587085 -0.1556954 -0.11653642
000360 92 db d8 bb ca 2b 9b bc 5d 15 23 3d 68 ec 9c 3d
       -0.0066179717 -0.018941779 0.039815295 0.076622784
000370 30 29 0d 3d b5 26 2e bd 1a 6f aa 3d fe e9 32 3d
       0.034463108 -0.042517383 0.08321972 0.043680184
000380 34 09 28 3c 6c 72 95 3d d3 25 35 3d 6e 2b a4 bd
       0.0102561 0.07297215 0.044225525 -0.08016096
000390 08 05 87 bd 44 dd 23 3e 07 b4 83 3d b0 d6 8a bd
       -0.065927565 0.16002375 0.06430822 -0.0677923
0003a0 8f 45 39 bd 07 47 c3 3d 96 1e 81 3b 22 03 a3 bd
       -0.045232352 0.09535032 0.0039404137 -0.07959582
0003b0 8c 05 2e 3e fb 6d 41 3e 41 08 cd 3c 0f eb 65 3d
       0.16994303 0.1888961 0.02502835 0.056132372
0003c0 cc 9c 39 3e d1 5c 76 bd b1 5d ee bd 34 c6 a6 bd
       0.1812622 -0.06014711 -0.11638964 -0.08143273
0003d0 f0 7d 3f bd a8 4a 84 bd a8 97 ed bc 46 e0 81 3d
       -0.046750963 -0.06459552 -0.02900298 0.06341605
0003e0 42 13 e3 3c a1 86 6f 3d 1b 51 90 3d b2 c1 f7 3d
       0.027719144 0.058478 0.0704672 0.12097491
0003f0 ed cd 1d 3e 64 69 d7 3d 85 f6 98 bd 09 27 5d bd
       0.15410586 0.105181485 -0.07468895 -0.053992305

fc1.bias f4 [50]
000000 54 e3 6f be be c8 75 be 0a ff a7 be c4 3a 06 be
       -0.23426563 -0.24002358 -0.32811767 -0.13108355
000010 05 2d 2d 3e cc 29 69 be 25 b3 5c be cf 1f 2b bd
       0.16911705 -0.2276985 -0.21552713 -0.041778382
000020 85 97 70 be e8 93 33 3e 3f c7 07 3e 26 7e 14 be
       -0.234953 0.1753689 0.132596 -0.14501247
000030 d9 7e 64 be 19 6d e3 3b aa 35 ec bd b6 df 29 bd
       -0.22314014 0.0069404957 -0.11533673 -0.041473113
000040 b4 ab dd 3e 08 d1 99 3d a5 22 3b 3d 58 37 62 be
       0.43295062 0.07510573 0.045687336 -0.22091424
000050 cd f5 1d 3e 0c 52 1d 3e 83 c4 ae be 9f 1b 82 38
       0.15425797 0.1536333 -0.34134302 6.204028e-05
000060 b9 38 4b be d3 2d 3f be 08 14 60 be 2d 7a 19 be
       -0.19845857 -0.18669824 -0.21882641 -0.14988013
000070 39 60 7f be 51 1b 47 3e 12 50 4e bd 99 d0 90 3e
       -0.2493905 0.19444014 -0.05036933 0.28284147
000080 8e d6 e8 be b2 1b 8e be 77 e5 33 3e fa c5 6e be
       -0.45476192 -0.27755505 0.17568003 -0.2331771
000090 21 83 d0 be d3 d1 8b be 83 7d 02 be c0 48 96 bd
       -0.40725043 -0.2730852 -0.12743191 -0.07338095
0000a0 06 89 65 3e f1 21 61 3e 4e a5 30 be 53 24 81 bd
       0.22415552 0.21985604 -0.17250559 -0.063057564
0000b0 93 95 50 be ec 6d a6 3e bf d0 ad be a4 ff 72 3e
       -0.20369558 0.3250574 -0.33948323 0.23730332
0000c0 1f f9 db bd 22 35 12 3e
       -0.107408755 0.14278081
