DOMAIN_ADAPTION/experiments_no_mmd_all_single_features/feature=C:v_(n_ist)_X__GAMMA=1/best_model/model_cnn.pt (torch, 762095 bytes, 16 tensors)

conv1.weight f4 [64, 1, 100]
0.0207693 -0.14226176 -0.011350753 -0.11861617 0.019369846 -0.13548149 -0.13328932 -0.09739571
-0.14891994 0.026753243 -0.031331398 -0.122625284 -0.1439174 -0.10141149 -0.05332286 -0.11339359
-0.01009379 -0.117298126 -0.03850062 0.003695096 -0.1391964 -0.14639284 -0.16393103 -0.049453326
0.010160101 -0.13216066 -0.081755586 -0.005249501 0.009636758 -0.0131911505 -0.036038462 -0.05083106
-0.060888115 0.019475142 -0.06422485 -0.02904177 -0.07520346 0.011279736 -0.16701779 -0.09942658
-0.1636718 -0.044053536 -0.09014075 -0.1496827 -0.14394413 -0.03917247 0.007301684 0.017463837
0.0009111872 -0.14844516 0.015762465 0.02776465 -0.062709406 -0.16349058 -0.1395122 -0.15596102
-0.050807342 0.015882466 -0.0022034913 -0.1150008 -0.10974179 -0.042626414 -0.119808555 -0.075791836
-0.037320122 -0.1028324 -0.030155605 -0.08022279 0.026219187 -0.14797515 0.018983427 0.0020189541
-0.1549618 -0.041936766 -0.07823191 -0.018432738 0.00694902 -0.11906958 -0.12215657 -0.13783883
0.0074789124 -0.14886062 -0.12718058 0.025353184 -0.013170032 0.0040303366 0.02155779 -0.15185618
-0.08943163 -0.07297499 0.028487314 -0.09227816 -0.070736 -0.007144218 -0.011695227 -0.12904377
-0.15064786 -0.10136073 -0.03124415 0.03191003 0.048622414 0.061202902 0.034057003 -0.021901792
-0.012816231 0.08739851 0.024352256 0.023634573 0.062249847 0.075656496 0.03234517 -0.0064611724
-0.040404223 -0.056815248 -0.045874733 0.085187234 0.083827555 -0.048790295 0.087934166 -0.021673756
-0.021558667 0.03497277 -0.07778088 -0.05569223 -0.011744486 -0.027874732 0.054072615 -0.020115348
-0.081454895 -0.08341139 0.09870648 0.04765325 -0.09680392 -0.079493985 -0.060593016 0.09204298
0.05509918 0.03378335 0.057679452 0.017984102 0.0725136 -0.079172246 0.07941197 0.046700045
0.034303483 0.06516861 -0.0181397 -0.046004195 -0.025565198 -0.07321002 0.0024911421 0.052734744
0.020137494 -0.0017986761 0.039643712 -0.08923209 -0.06367372 -0.08531218 0.10101426 -0.08918578
0.04870761 0.073216826 -0.026848672 -0.014139014 0.08389237 -0.07986474 -0.09786952 -0.012633304
-0.010657876 -0.03832349 0.010220481 0.055720415 0.056235585 0.032053612 0.0736512 -0.04349415
0.009782684 0.03663214 0.035422545 -0.032485202 0.08474868 -0.07274497 -0.043656375 -0.0920051
0.016240206 -0.0734166 0.07574115 -0.062253978 0.030517643 0.0930886 0.09556646 0.037853744
0.041373435 0.022754319 0.06272735 -0.0016960411 -0.06958089 0.09386584 -0.069598764 0.103095084
-0.017374542 0.042741828 -0.01949335 0.019888109 0.04560268 -0.11668687 0.034351237 -0.056166384
-0.112252995 -0.10265603 -0.013625653 0.05481051 -0.117457494 0.0064514265 0.017778222 -0.11455749
-0.00042204064 -0.07166093 -0.007795516 -0.06108342 0.058929905 -0.09521344 0.050489098 -0.039475672
0.025884086 0.0080953045 -0.09486618 -0.05023957 -0.018328093 -0.019578813 -0.07332834 0.034386706
-0.07056076 -0.07576658 0.019963132 -0.034440253 0.027222205 0.0586872 -0.042723097 0.024470575
0.076213375 0.01244961 0.08335596 0.0401219 0.07036087 0.07442713 0.05698309 0.024247194
0.047155943 0.058156956 0.004090792 0.014503598 -0.040699083 -0.0063779107 0.048033185 -0.01082741
00000000: 6124 aa3c 11ad 11be 82f8 39bc 09ed f2bd
00000010: 83ad 9e3c a9bb 0abe ff7c 08be 6777 c7bd
00000020: 787e 18be 9e29 db3c 5a55 00bd f722 fbbd
00000030: 155f 13be d4b0 cfbd 1269 5abd e63a e8bd
00000040: 6c60 25bc 003a f0bd d3b2 1dbd 6c29 723b
00000050: 8089 0ebe 01e8 15be 89dd 27be 928f 4abd
00000060: 8d76 263c 2055 07be 796f a7bd 0204 acbb
00000070: 7ee3 1d3c b21f 58bc 119d 13bd 3b34 50bd
00000080: d165 79bd 558a 9f3c 5188 83bd 02e9 edbc
00000090: 4604 9abd a4ce 383c b606 2bbe 2aa0 cbbd
000000a0: 9599 27be 7b71 34bd b79b b8bd 6c46 19be
000000b0: 1766 13be 5073 20bd f742 ef3b 5210 8f3c
000000c0: bddc 6e3a 0202 18be 4920 813c b172 e33c
000000d0: ca6d 80bd 136a 27be 49dc 0ebe 3fb4 1fbe
000000e0: 5c1b 50bd f21b 823c 7368 10bb 8a85 ebbd
000000f0: 4ec0 e0bd 0999 2ebd 305e f5bd c038 9bbd
00000100: fcdc 18bd cb99 d2bd e308 f7bc d94b a4bd
00000110: 9fc9 d63c cc86 17be 2283 9b3c 6e50 043b
00000120: 4eae 1ebe e3c5 2bbd 0d38 a0bd 4100 97bc
00000130: 9bb4 e33b c1da f3bd 392d fabd 9f25 0dbe
00000140: aa11 f53b eb6e 18be a03b 02be 7bb1 cf3c
00000150: 1ec7 57bc ea10 843b f699 b03c 3080 1bbe
00000160: ee27 b7bd e973 95bd 3a5e e93c 55fc bcbd
00000170: 09de 90bd 0b1a eabb 569d 3fbc 0d24 04be
00000180: 6f43 1abe 3796 cfbd bbf3 ffbc 17b4 023d
00000190: 4c28 473d e5af 7a3d 5b7f 0b3d 636b b3bc
000001a0: 2bfb 51bc fdfd b23d 627e c73c 4b9d c13c
000001b0: b2f9 7e3d cbf1 9a3d 5e7c 043d 3eb8 d3bb
000001c0: e67e 25bd 1bb7 68bd 25e7 3bbd a576 ae3d
000001d0: c8ad ab3d 55d8 47bd d416 b43d 298d b1bc
000001e0: cd9b b0bc 9b3f 0f3d 954b 9fbd 891d 64bd
000001f0: f26b 40bc 8d59 e4bc 3f7b 5d3d f1c8 a4bc
00000200: d3d1 a6bd 97d3 aabd 9f26 ca3d 0e30 433d
00000210: 2241 c6bd becd a2bd 6230 78bd 0881 bc3d
00000220: aeaf 613d 6960 0a3d 4a41 6c3d 6553 933c
00000230: 0382 943d 0f25 a2bd bea2 a23d 8c48 3f3d
00000240: cf81 0c3d 1f77 853d b599 94bc e56e 3cbd
00000250: 1b6e d1bc 23ef 95bd 6e42 233b 6300 583d
00000260: 63f7 a43c 8ec1 ebba 7261 223d 50bf b6bd
00000270: 5e67 82bd 27b8 aebd 90e0 ce3d 09a7 b6bd
00000280: a281 473d b4f2 953d bff1 dbbc 53a7 67bc
00000290: c3cf ab3d 2090 a3bd d16f c8bd ebfb 4ebc
000002a0: 5f9e 2ebc 18f9 1cbd ce73 273c 173b 643d
000002b0: 4957 663d a64a 033d 71d6 963d ec26 32bd
000002c0: 8d47 203c 950b 163d 3b17 113d 340f 05bd
000002d0: b790 ad3d 51fb 94bd 07d1 32bd 2b6d bcbd
000002e0: 2e0a 853c 715b 96bd 2d1e 9b3d 07fe 7ebd
000002f0: 2300 fa3c 3ca5 be3d 59b8 c33d 870c 1b3d
00000300: 3177 293d 4467 ba3c 3277 803d b24d deba
00000310: 6d80 8ebd bc3c c03d cc89 8ebd 8423 d33d
00000320: 0e55 8ebc 0e12 2f3d 85b0 9fbc 63ec a23c
00000330: e0c9 3a3d 87f9 eebd e2b3 0c3d b90e 66bd
00000340: e6e4 e5bd 533d d2bd 223e 5fbc fc80 603d
00000350: 8e8d f0bd 7d66 d33b a2a3 913c 1e9d eabd
00000360: 5645 ddb9 f7c2 92bd 8771 ffbb 9c32 7abd
00000370: 7c60 713d 44ff c2bd a8cd 4e3d 3eb1 21bd
00000380: dd0a d43c 2ba2 043c 3349 c2bd 02c8 4dbd
00000390: cc24 96bc bf63 a0bc 2b2d 96bd 13d9 0c3d
000003a0: 2982 90bd 822b 9bbd b989 a33c 3911 0dbd
000003b0: 1a01 df3c fd61 703d 6afe 2ebd 8476 c83c
000003c0: c215 9c3d 73f9 4b3c 88b6 aa3d dd56 243d
000003d0: 5c19 903d 406d 983d 1a67 693d 0da2 c63c
000003e0: 9726 413d fd35 6e3d 0d0c 863b 80a0 6d3c
000003f0: 15b4 26bd cbfd d0bb 72be 443d 7365 31bc

conv1.bias f4 [64]
-0.1279783 -0.027825212 -0.042891588 0.0074333083 0.04834208 0.10290586 0.034871027 -0.1311325
0.036028266 0.0602835 0.079591066 -0.028619757 0.07750809 -0.047752813 0.03752939 -0.010311997
0.054904107 -0.04921663 -0.02311418 0.016032826 -0.08117676 -0.024226118 0.0036912032 0.042498954
-0.011893776 -0.054249544 -0.06251355 0.00465517 -0.20711316 0.07437547 0.008475058 0.0278397
0.103415176 0.10150697 0.011327264 -0.04883821 -0.10182953 -0.013157862 -0.092945665 0.025057502
0.0019098293 -0.11067843 0.021219013 -0.092130505 0.041095912 0.03069967 -0.027015274 -0.0026844756
-0.07701441 -0.03526674 -0.0007564859 0.04678376 -0.17041984 0.14837947 0.06725679 -0.11019434
0.015896056 -0.0064502046 -0.078735545 0.00012731447 -0.031410888 0.078301914 -0.0034867183 -0.03765674
00000000: be0c 03be b3f1 e3bc 17af 2fbd 1c93 f33b
00000010: 5802 463d 4fc0 d23d ecd4 0e3d 9947 06be
00000020: 6092 133d d5eb 763d a400 a33d fb73 eabc
00000030: 90bc 9e3d 7498 43bd 6bb8 193d a6f3 28bc
00000040: 21e3 603d 6197 49bd f359 bdbc 4657 833c
00000050: 0040 a6bd da75 c6bc 1de8 713b 6213 2e3d
00000060: 1dde 42bc c534 5ebd 1b07 80bd 658a 983b
00000070: 7915 54be 2b52 983d f8da 0a3c 1510 e43c
00000080: 56cb d33d e3e2 cf3d fd95 393c 930a 48bd
00000090: 008c d0bd 1394 57bc 4c5a bebd 6445 cd3c
000000a0: 3d53 fa3a 5fab e2bd 7fd3 ad3c ebae bcbd
000000b0: 3054 283d e07d fb3c 234f ddbc 07ee 2fbb
000000c0: bbb9 9dbd db73 10bd e94e 46ba 54a0 3f3d
000000d0: 8a82 2ebe caf0 173e eebd 893d 92ad e1bd
000000e0: 7238 823c 3d5c d3bb 1a40 a1bd b87f 0539
000000f0: b4a8 00bd c15c a03d 6d81 64bb f43d 1abd

conv2.weight f4 [32, 64, 10]
-0.12571421 -0.17749308 -0.1706911 -0.10035776 -0.14760926 -0.13501523 -0.14302427 -0.16580556
-0.117322415 -0.110885106 0.069307484 0.08732703 0.018304836 0.05807843 0.08114172 0.064491406
0.104592 0.0617192 0.050130356 0.049888827 0.09324763 0.049073286 0.040418375 0.09182212
0.080504276 0.040340744 0.07375117 0.07166756 0.056232844 0.044172563 -0.015839953 -0.07882427
-0.05081478 -0.061521426 -0.085771576 -0.07103588 -0.10616511 -0.06838149 -0.046345808 -0.05420148
0.0057316218 0.061614178 0.028093504 0.08171876 0.08174896 0.078456335 0.07648489 0.0753118
0.044844277 0.062503055 0.048725467 0.059751555 0.012538312 0.035705518 0.043385066 0.03444723
0.004421333 0.048310578 0.03682529 0.04488034 -0.07663927 -0.09682111 -0.056312352 -0.070465095
-0.06378455 -0.07343587 -0.05854593 -0.104460426 -0.0387228 -0.08622489 -0.037563425 -0.08970493
-0.08337508 -0.09381317 -0.095482916 -0.10858161 -0.09652045 -0.08238808 -0.061011303 -0.070411
0.07839474 0.027282923 0.022230549 0.004010367 0.0029203298 0.05019121 0.06432364 0.05059964
0.03940267 0.0690122 0.06292406 0.08998256 0.04889304 0.074318536 0.063104264 0.10053145
0.051314864 0.07207242 0.044635896 0.021188121 0.022592159 0.0022278412 0.064707294 0.05382523
0.008826118 0.016596952 0.061442316 0.06770482 0.064222105 0.08559163 0.05581165 0.083650015
0.030121503 0.034280777 0.06517243 0.0655288 0.03805325 0.028104609 0.08204804 0.089375205
0.06061248 0.045059223 0.055783518 0.01223477 0.025349295 0.029884629 0.090495005 0.03844359
0.054358006 0.0857562 -0.0032895503 0.0041379333 0.05543593 0.017671619 0.034981254 0.022255635
-0.02458183 -0.029973421 -0.0013045071 -0.0077580856 0.07520558 0.06787019 0.06482471 0.07699594
0.023051854 0.07004257 0.0051695346 0.021239974 0.041569803 0.086390555 0.01921765 0.027136575
0.029024301 0.052473348 0.0665113 0.10090986 0.093769416 0.103554696 0.09714936 0.027674995
0.023812328 0.053074338 0.015113962 0.07414097 0.07669251 0.049503554 0.054768015 0.02861492
0.022431914 0.07552511 0.009321739 0.053301707 0.033668738 0.021571336 0.051574904 0.012298181
0.035785582 0.03112037 -0.013548213 0.01734673 -0.09744856 -0.15661034 -0.15014575 -0.159314
-0.13019936 -0.17940289 -0.14214216 -0.09850247 -0.08973043 -0.09545947 0.0018155659 -0.022131296
0.033440012 0.021362556 -0.014274016 0.02388191 0.007247163 0.05149715 0.023406122 0.03088086
-0.026684526 -0.02897887 -0.05832917 -0.045220852 -0.030425085 -0.06675155 0.011361814 -0.037901834
-0.01734642 -0.004292832 0.052800454 0.071336836 0.08571133 0.08521623 0.024831846 0.042217515
0.08013842 0.046271402 0.03206751 0.061319288 0.07912977 0.024774032 0.08433495 0.059741862
0.07415259 0.07102946 0.07875711 0.037620343 0.03036929 0.05827494 -0.07412272 -0.104507685
-0.07294796 -0.043823775 -0.053465925 -0.030623099 -0.07463392 -0.06338565 -0.0631328 -0.046895143
-0.025638578 -0.09050005 -0.07356512 -0.06400922 -0.06707215 -0.034286678 -0.11805658 -0.086048394
-0.08436282 -0.04105148 0.033331357 0.047495365 0.037897613 0.051547132 0.062283117 0.06466939
00000000: 3abb 00be bfc0 35be a6c9 2ebe 5f88 cdbd
00000010: e226 17be 6f41 0abe f474 12be efc8 29be
00000020: bc46 f0bd bb17 e3bd 15f1 8d3d 84d8 b23d
00000030: 06f4 953c a6e3 6d3d a12d a63d 1214 843d
00000040: 5534 d63d 46cd 7c3d 7d55 4d3d 3a58 4c3d
00000050: 9df8 be3d 1201 493d bd8d 253d 3c0d bc3d
00000060: 6ddf a43d 563c 253d da0a 973d 71c6 923d
00000070: 6954 663d 4aee 343d cac2 81bc 9e6e a1bd
00000080: 2923 50bd e4fd 7bbd 02a9 afbd 427b 91bd
00000090: 186d d9bd 980b 8cbd 1ad5 3dbd 5f02 5ebd
000000a0: 54d0 bb3b 265f 7c3d 5924 e63c 2a5c a73d
000000b0: 006c a73d b7ad a03d 1ca4 9c3d 133d 9a3d
000000c0: a2ae 373d 9a01 803d 5b94 473d 0cbe 743d
000000d0: 7e6d 4d3c f33f 123d 8ab4 313d 8a18 0d3d
000000e0: d4e0 903b 50e1 453d 1ed6 163d 73d4 373d
000000f0: 0df5 9cbd 254a c6bd c8a7 66bd 0150 90bd
00000100: 79a1 82bd 8c65 96bd dbcd 6fbd 59ef d5bd
00000110: cc9b 1ebd ad96 b0bd 1bdc 19bd 38b7 b7bd
00000120: 8ec0 aabd 1f21 c0bd 8c8c c3bd 0960 debd
00000130: 84ac c5bd 15bb a8bd fde6 79bd a433 90bd
00000140: 6c8d a03d 7080 df3c d71c b63c 6669 833b
00000150: 0163 3f3b 4c95 4d3d 1dbc 833d 9141 4f3d
00000160: b264 213d 4556 8d3d 54de 803d c748 b83d
00000170: 1144 483d 5134 983d cf3c 813d 6fe3 cd3d
00000180: 892f 523d b49a 933d 21d4 363d b692 ad3c
00000190: 3113 b93c f900 123b 4285 843d d877 5c3d
000001a0: 6c9b 103c 55f6 873c f0aa 7b3d d3a8 8a3d
000001b0: e186 833d aa4a af3d c29a 643d b350 ab3d
000001c0: 5fc1 f63c 006a 0c3d 1f79 853d f733 863d
000001d0: badd 1b3d a33b e63c ce08 a83d 590a b73d
000001e0: cb44 783d 0590 383d 427d 643d 5874 483c
000001f0: 53a9 cf3c 9cd0 f43c 7255 b93d 0777 1d3d
00000200: 80a6 5e3d f2a0 af3d 7f95 57bb 8097 873b
00000210: c910 633d 12c4 903c 8148 0f3d 7351 b63c
00000220: d55f c9bc d28a f5bc fffb aaba 8a37 febb
00000230: 6205 9a3d 87ff 8a3d d1c2 843d 0cb0 9d3d
00000240: 3ed7 bc3c 7b72 8f3d 3365 a93b 74ff ad3c
00000250: 1945 2a3d 88ed b03d 556e 9d3c 864d de3c
00000260: 5fc4 ed3c 4bee 563d 1437 883d d4a9 ce3d
00000270: 2e0a c03d 7c14 d43d 3ef6 c63d acb6 e23c
00000280: 1212 c33c 7a64 593d 8da0 773c 39d7 973d
00000290: f610 9d3d 3dc4 4a3d 6d54 603d d669 ea3c
000002a0: 22c3 b73c e9ac 9a3d 35ba 183c e452 5a3d
000002b0: 3be8 093d 5fb6 b03c 3540 533d 4f7e 493c
000002c0: e793 123d 25f0 fe3c 53f9 5dbc bb1a 8e3c
000002d0: 1c93 c7bd 765e 20be cfbf 19be 3623 23be
000002e0: fb52 05be 64b5 37be b78d 11be aabb c9bd
000002f0: 96c4 b7bd 4180 c3bd 48f8 ed3a b14c b5bc
00000300: 65f8 083d 8700 af3c 90dd 69bc ffa3 c33c
00000310: 9c79 ed3b adee 523d 32be bf3c dbf9 fc3c
00000320: 8299 dabc 1865 edbc 91ea 6ebd 8039 39bd
00000330: 073e f9bc 09b5 88bd e726 3a3c f43e 1bbd
00000340: 141a 8ebc e3aa 8cbb 4a45 583d 0c19 923d
00000350: 6c89 af3d d985 ae3d 286c cb3c 46ec 2c3d
00000360: 9d1f a43d 1587 3d3d 3959 033d ef29 7b3d
00000370: ca0e a23d e9f2 ca3c cdb7 ac3d e2b3 743d
00000380: 50dd 973d e577 913d 684b a13d ca17 1a3d
00000390: 04c9 f83c b4b1 6e3d a7cd 97bd 2008 d6bd
000003a0: bd65 95bd 8f80 33bd 16ff 5abd 4bdd fabc
000003b0: abd9 98bd 56d0 81bd c54b 81bd 1f15 40bd
000003c0: ff07 d2bc 1758 b9bd 4fa9 96bd 4417 83bd
000003d0: 205d 89bd 3070 0cbd a6c7 f1bd 243a b0bd
000003e0: 6ac6 acbd 9925 28bd 7686 083d 808a 423d
000003f0: 873a 1b3d 1623 533d 951c 7f3d 6371 843d

conv2.bias f4 [32]
-0.020041933 -0.003041839 0.03204706 -0.010004607 0.008307548 -0.018517407 -0.018479953 0.0036219265
0.026386743 -0.014770205 0.03614597 0.005103916 -0.001500617 0.00079457316 0.00097116706 0.009710542
-0.024642862 0.013426097 0.01144829 -0.016506145 0.012897527 0.010314748 0.02713523 0.024016818
0.028351115 0.02212996 -0.03779236 0.013957802 0.030094512 0.02676673 0.0020155064 -0.014566393
00000000: fb2e a4bc 9759 47bb c743 033d 5dea 23bc
00000010: 621c 083c d1b1 97bc 4563 97bc d85d 6d3b
00000020: 0329 d83c bbfe 71bc cc0d 143d c03e a73b
00000030: 5ab0 c4ba e74a 503a eb95 7e3a f718 1f3c
00000040: d4df c9bc 22f9 5b3c 9c91 3b3c e537 87bc
00000050: 2650 533c 30ff 283c b44a de3c ebbe c43c
00000060: 9940 e83c e449 b53c 29cc 1abd 44af 643c
00000070: c488 f63c e745 db3c 9616 043b e1a7 6ebc

batch1.weight f4 [32]
1.1451766 1.0658319 1.1057777 0.9469606 0.9324157 0.948499 0.95706135 1.0764766
1.0120794 1.1346834 0.9972143 0.93748623 1.0864344 0.93359077 0.9130393 1.0955558
1.0404716 0.9072414 1.0788398 0.98081595 0.96100116 1.065707 0.9405275 0.99905586
0.94000185 1.0362965 1.1119429 0.89829063 0.95711756 0.9727215 0.9195667 0.89910775
00000000: 2695 923f 2e6d 883f 208a 8d3f 036c 723f
00000010: ccb2 6e3f d5d0 723f f901 753f fcc9 893f
00000020: d18b 813f 4e3d 913f 7049 7f3f 19ff 6f3f
00000030: 4810 8b3f ceff 6e3f f2bc 693f 2c3b 8c3f
00000040: 2c2e 853f f940 683f 6c17 8a3f c116 7b3f
00000050: 2c04 763f 1669 883f 69c6 703f 20c2 7f3f
00000060: f6a3 703f 5da5 843f 2554 8e3f 60f6 653f
00000070: a805 753f 4704 793f b968 6b3f ed2b 663f

batch1.bias f4 [32]
0.314772 0.07647543 0.12419503 0.08299872 -0.10631388 -0.06453382 -0.02484856 -0.024493672
0.13415374 0.18208532 -0.0002168372 -0.08050333 0.12267785 -0.065738335 -0.098744586 0.052547954
0.019969681 -0.0028700472 -0.14252253 -0.07740245 0.058436766 0.044380628 -0.0669568 -0.053331845
-0.09304046 0.15553203 0.24974458 -0.0631203 -0.13921589 -0.043786064 -0.08956896 -0.08364235
00000000: cc29 a13e 269f 9c3d f759 fe3d 3cfb a93d
00000010: 17bb d9bd 4f2a 84bd 358f cbbc f4a6 c8bc
00000020: 995f 093e 9374 3a3e cb5e 63b9 eede a4bd
00000030: 863e fb3d d2a1 86bd 9a3a cabd 863c 573d
00000040: 7597 a33c 6717 3cbb 6df1 11be 2d85 9ebd
00000050: 645b 6f3d 76c8 353d a620 89bd 7e72 5abd
00000060: ff8b bebd ca43 1f3e 0bbd 7f3e 3745 81bd
00000070: 9c8e 0ebe 0459 33bd ee6f b7bd ae4c abbd

batch1.running_mean f4 [32]
-2.185116e+06 1.5428719e+06 1.4618735e+06 -3.1454978e+06 1.1478081e+06 -1.7692525e+06 588080.1 1.1141104e+06
879229.56 -1.6057386e+06 1.9986078e+06 -985054.8 -2.2427888e+06 1.3140945e+06 1.2044774e+06 -184210.89
1.6492714e+06 2.2820275e+06 3.6425425e+06 -1.557559e+06 -2.528354e+06 1.7455362e+06 -98635.98 2.9045338e+06
-1.1500152e+06 -2.0133311e+06 -2.4260058e+06 -1.318654e+06 3.4555248e+06 593438.44 1.9872632e+06 -1.6403251e+06
00000000: 705e 05ca bf56 bc49 8c73 b249 67fc 3fca
00000010: 011d 8c49 24f9 d7c9 0293 0f49 f3ff 8749
00000020: d9a7 5649 5503 c4c9 7ef8 f349 ed7d 70c9
00000030: 93e3 08ca 7469 a049 eb07 9349 b9e4 33c8
00000040: bb53 c949 ae48 0b4a ba52 5e4a b821 bec9
00000050: 8851 1aca 0214 d549 fda5 c0c7 5747 314a
00000060: fa61 8cc9 99c4 f5c9 5712 14ca f0f7 a0c9
00000070: 93e8 524a e7e1 1049 fa95 f249 293c c8c9

batch1.running_var f4 [32]
9.087556e+11 3.297391e+12 3.6651018e+12 5.483836e+12 5.502226e+11 5.0927423e+11 3.8896636e+12 1.3646063e+12
4.8264255e+12 6.109534e+12 9.197033e+11 3.01414e+12 2.5209088e+12 3.4782314e+12 1.2704176e+12 2.5078947e+12
3.445501e+12 1.4857083e+12 4.1450563e+12 3.3073444e+11 1.8186097e+12 9.3956335e+11 4.7693814e+12 5.1263386e+12
4.860087e+12 5.3834453e+12 3.0927398e+12 2.3752401e+11 4.628985e+12 5.0042194e+12 1.6094564e+12 2.7106767e+12
00000000: 0e96 5353 f4ee 3f54 4656 5554 c399 9f54
00000010: d31b 0053 3826 ed52 8168 6254 70dc 9e53
00000020: ac77 8c54 93cf b154 9722 5653 3072 2f54
00000030: 78bc 1254 b075 4a54 65e5 9353 8bfa 1154
00000040: f78d 4854 8ff5 ac53 2746 7154 9e02 9a52
00000050: cbb6 d353 57c2 5a53 a9ce 8a54 3332 9554
00000060: 7872 8d54 cbad 9c54 6a05 3454 2336 5d52
00000070: a0b8 8654 57a4 9154 8a5d bb53 3bc8 1d54

conv3.weight f4 [32, 32, 5]
-0.12856023 -0.0141453305 -0.06698506 -0.0816297 -0.01685597 -0.12832597 -0.077213556 -0.16339001
-0.1300261 -0.15554817 -0.13187477 -0.052523997 -0.07696125 -0.16750796 -0.15416943 -0.05226141
-0.0011346935 0.08406362 0.051681545 0.056601938 -0.10437436 -0.111596 -0.05681985 -0.07222973
-0.04489626 -0.1355695 0.0013799048 -0.12512599 0.0143983085 -0.123352066 -0.13118905 0.0035813916
-0.073623694 -0.107496984 -0.036723804 -0.077768974 -0.124736935 -0.15273081 -0.13997959 -0.017447557
-0.117795646 -0.063808985 -0.13950405 -0.11573227 -0.027439153 -0.13892193 -0.0342967 -0.092548795
-0.16686228 -0.16547784 -0.12610872 -0.043318935 -0.072116755 0.013507104 -0.015041712 -0.013782166
-0.07493277 -0.117036596 -0.014154109 -0.09923603 0.09946548 0.031528138 0.09399166 0.07209441
0.09757292 -0.0065052495 -0.003188639 -0.017002452 -0.069189854 0.014760556 -0.09090887 -0.06696858
0.0029192402 0.056744065 -0.074534856 0.03147623 0.04106892 0.05281922 0.04501152 -0.016130343
-0.16098939 -0.1040821 -0.15516394 -0.11450347 -0.10808857 -0.06596293 -0.003342965 -0.12859833
-0.09775374 -0.08573767 -0.124424465 -0.13749786 -0.07474922 -0.11848366 -0.09168856 -0.13945062
-0.15118074 -0.035107438 -0.06153915 -0.09428516 -0.048339177 0.03650662 -0.090285674 -0.050748847
-0.037089605 -0.022944713 -0.078589246 -0.06646973 0.03922924 -0.08238078 -0.031937864 0.035754867
-0.077994525 0.010662142 0.07233893 -0.13084285 -0.1648621 -0.15361865 -0.08588663 -0.07011465
-0.019585416 -0.0610784 0.045841873 -0.03605905 -0.009376373 -0.023584891 -0.07506584 0.008026865
-0.12988417 -0.14502786 0.14280853 0.1613399 0.07010722 0.13678125 0.075740255 -0.118859835
-0.14828493 -0.09707426 -0.043108802 -0.0681941 -0.015684554 -0.014845417 -0.0084493 -0.061334196
-0.1023953 -0.1040581 0.018985782 -0.10605552 -0.083929114 0.016931292 -0.060585205 -0.055991527
-0.03610417 -0.0063655814 -0.03879287 -0.0047543063 0.0074072825 -0.06296144 -0.04805051 0.047446735
0.061042972 0.047590602 0.057610985 0.14487833 0.09593691 0.10171229 0.04900646 0.09584646
0.13683693 0.074394196 0.050967347 0.15361601 0.102111 0.07492847 0.042350486 0.036021113
0.14321317 0.11956545 0.112027645 0.15448315 -0.036517907 0.017183455 0.008632628 0.04248908
-0.08358604 0.13360843 0.12864621 0.052053683 0.06272476 0.13928758 -0.04152954 0.007347466
-0.08859073 -0.044498783 -0.0716532 0.058606252 0.0071117873 -0.030771242 -0.060753196 0.0076952013
0.09054937 0.006954873 0.07987088 0.12628636 0.06738437 0.06503895 0.132274 0.08140936
0.08704259 0.12235881 0.027027525 0.0069773374 0.015857184 -0.052274983 -0.08340182 -0.06010744
0.033410132 0.05190985 -0.09162106 -0.03811987 -0.03579788 -0.021247888 -0.029352676 0.0015093733
-0.02921929 0.19878584 0.0394342 0.1359084 0.19225489 0.12852947 0.06638818 -0.011791001
0.1086682 0.13276932 0.040271007 -0.032075364 -0.0016324166 0.0030787948 -0.008354817 0.022690924
0.091443196 0.108111866 0.0006803977 0.116371326 0.12556829 0.029795468 0.09277071 0.09890016
0.06756908 0.08028139 0.040763132 0.015851857 -0.049633127 -0.012015102 0.00029411883 -0.11890625
00000000: 4ba5 03be d1c1 67bc 772f 89bd 792d a7bd
00000010: 8815 8abc e267 03be 2422 9ebd b64f 27be
00000020: 9025 05be 0548 1fbe 2e0a 07be 6723 57bd
00000030: dc9d 9dbd 3587 2bbe 97de 1dbe 0f10 56bd
00000040: ffb9 94ba 8c29 ac3d 07b0 533d 6fd7 673d
00000050: 39c2 d5bd 728c e4bd eebb 68bd 2eed 93bd
00000060: 24e5 37bd bbd2 0abe ecdd b43a 0721 00be
00000070: e2e6 6b3c 02a0 fcbd 6c56 06be c8b5 6a3b
00000080: 05c8 96bd 6127 dcbd b36b 16bd 5745 9fbd
00000090: 1476 ffbd 7765 1cbe cf56 0fbe 2eee 8ebc
000000a0: d83e f1bd 49ae 82bd 26da 0ebe 0a05 edbd
000000b0: 13c8 e0bc 8d41 0ebe b27a 0cbd 398a bdbd
000000c0: f2dd 2abe 0673 29be a522 01be 326f 31bd
000000d0: f3b1 93bd e64c 5d3c 8371 76bc 98ce 61bc
000000e0: 5a76 99bd e2b0 efbd a3e6 67bc 423c cbbd
000000f0: 8fb4 cb3d a623 013d b37e c03d 3ca6 933d
00000100: 50d4 c73d fd29 d5bb 7cf8 50bb ba48 8bbc
00000110: 69b3 8dbd 42d6 713c 6e2e babd d326 89bd
00000120: b950 3f3b 776c 683d bba5 98bd 38ed 003d
00000130: e237 283d f758 583d 005e 383d c823 84bc
00000140: 67da 24be ff28 d5bd 4ce3 1ebe cc80 eabd
00000150: 8a5d ddbd 9317 87bd a515 5bbb 48af 03be
00000160: 1d33 c8bd 3b97 afbd 41d2 febd 3dcc 0cbe
00000170: 1e16 99bd 90a7 f2bd 36c7 bbbd 25cc 0ebe
00000180: 20cf 1abe d1cc 0fbd 7a10 7cbd 9418 c1bd
00000190: 4dff 45bd f787 153d b2e7 b8bd 06de 4fbd
000001a0: 45eb 17bd 8df6 bbbc 66f3 a0bd 4821 88bd
000001b0: d7ae 203d 41b7 a8bd 47d1 02bd b273 123d
000001c0: 98bb 9fbd 44b0 2e3c 6f26 943d abfb 05be
000001d0: 9cd1 28be 354e 1dbe 54e5 afbd 4598 8fbd
000001e0: 9871 a0bc 582d 7abd b0c4 3b3d a8b2 13bd
000001f0: 5c9f 19bc 1a35 c1bc 1ebc 99bd 1d83 033c
00000200: 5b00 05be 2f82 14be 663c 123e 4936 253e
00000210: 6094 8f3d 6210 0c3e b51d 9b3d c96c f3bd
00000220: 01d8 17be dfce c6bd db92 30bd 59a9 8bbd
00000230: e57c 80bc 313a 73bc ef6e 0abc 9139 7bbd
00000240: a1b4 d1bd 6a1c d5bd 1288 9b3c a333 d9bd
00000250: 07e3 abbd 7eb3 8a3c 3128 78bd 5f57 65bd
00000260: f7e1 13bd 5e96 d0bb 46e5 1ebd 03ca 9bbb
00000270: cab8 f23b edf1 80bd 9dd0 44bd 8257 423d
00000280: 3208 7a3d 5dee 423d 7ff9 6b3d fc5a 143e
00000290: 927a c43d 884e d03d ffba 483d 264b c43d
000002a0: fb1e 0c3e fc5b 983d 23c3 503d 844d 1d3e
000002b0: 921f d13d 1974 993d b477 2d3d e08a 133d
000002c0: 79a6 123e bbde f43d c06e e53d d530 1e3e
000002d0: cd93 15bd 51c4 8c3c de6f 0d3c 0809 2e3d
000002e0: 282f abbd a6d0 083e d5bb 033e 3e36 553d
000002f0: d775 803d 67a1 0e3e e11a 2abd 03c3 f03b
00000300: 0f6f b5bd 5b44 36bd eabe 92bd 1c0d 703d
00000310: ff09 e93b f913 fcbc 58d8 78bd 0728 fc3b
00000320: f371 b93d b4e5 e33b 5893 a33d 3651 013e
00000330: d100 8a3d 2433 853d d672 073e f3b9 a63d
00000340: 6343 b23d 4197 fa3d d468 dd3c 26a2 e43b
00000350: ede6 813c 4b1e 56bd 93ce aabd 3833 76bd
00000360: 10d9 083d 6c9f 543d d3a3 bbbd 9523 1cbd
00000370: cca0 12bd 0d10 aebc 0675 f0bc 2ad6 c53a
00000380: 4b5d efbc 848e 4b3e c185 213d 922b 0b3e
00000390: 77de 443e 3b9d 033e 87f6 873d 0b2f 41bc
000003a0: 6f8d de3d aef4 073e 36f3 243d 7561 03bd
000003b0: d0f6 d5ba 9bc5 493b a4e2 08bc 51e2 b93c
000003c0: 9246 bb3d c169 dd3d b75c 323a 1754 ee3d
000003d0: f994 003e a015 f43c 92fe bd3d 2b8c ca3d
000003e0: a861 8a3d 926a a43d 3ef7 263d c1db 813c
000003f0: 1b4c 4bbd feda 44bc f633 9a39 1f85 f3bd

conv3.bias f4 [32]
-0.03724194 0.031116074 0.09122712 0.04160015 0.035841987 0.04959524 0.039164744 -0.06750462
-0.07256459 0.06484775 -0.0008225465 -0.0074853557 0.025782252 0.06118294 0.01113758 -0.06655712
-0.04148908 0.0722414 -0.07410832 0.02489136 -0.07034953 0.008329357 0.018560702 0.014661197
0.018807145 -0.048570223 0.059016753 -0.05056256 0.06717568 -0.030175878 -0.04265957 0.039137736
00000000: 018b 18bd 23e7 fe3c 49d5 ba3d eb64 2a3d
00000010: 0ccf 123d 6124 4b3d 366b 203d dd3f 8abd
00000020: be9c 94bd e6ce 843d 29a0 57ba b747 f5bb
00000030: 4d35 d33c f69a 7a3d 657a 363c 194f 88bd
00000040: 74f0 29bd 4df3 933d 1ac6 97bd f7e8 cb3c
00000050: 6a13 90bd db77 083c 9d0c 983c 8435 703c
00000060: 7111 9a3c 92f1 46bd 8dbb 713d b01a 4fbd
00000070: 6793 893d 6733 f7bc cdbb 2ebd e44e 203d

batch2.weight f4 [32]
1.5395138 0.92439735 0.9515667 0.9979313 0.9293122 0.9821576 0.9722391 1.0325968
1.0115739 0.86489445 0.68927777 1.0114282 0.96051335 0.98134047 0.971185 1.0357451
1.1480411 1.0233508 0.84828955 0.9940111 1.0353721 1.0653815 0.92749286 1.0143331
1.0220776 1.0387895 0.95171934 1.0137488 0.99245924 0.9908049 0.8289178 0.9747633
00000000: ca0e c53f 4ea5 6c3f e099 733f 6d78 7f3f
00000010: 68e7 6d3f ae6e 7b3f a9e4 783f 222c 843f
00000020: 417b 813f b969 5d3f 8274 303f 7b76 813f
00000030: 34e4 753f 2139 7b3f 959f 783f 4c93 843f
00000040: 03f3 923f 29fd 823f 8129 593f 8377 7e3f
00000050: 1387 843f 6c5e 883f 2c70 6d3f abd5 813f
00000060: 70d3 823f 0ef7 843f e1a3 733f 85c2 813f
00000070: cf11 7e3f 64a5 7d3f f533 543f 168a 793f

batch2.bias f4 [32]
0.5879011 -0.08735677 -0.051690947 -0.015950011 -0.108387135 -0.04102897 -0.06444892 0.012192307
-0.021759767 -0.15122534 -0.40956312 0.025491646 -0.060139913 -0.06402951 -0.05463631 0.002532929
0.084919974 -0.017087972 -0.19893582 -0.01264352 -0.020401971 0.0035796536 -0.16537017 0.035398763
-0.0117876455 0.03809969 -0.05509534 0.011358501 -0.051460806 -0.04595591 -0.16621247 -0.058777094
00000000: b080 163f 1be8 b2bd e3b9 53bd 99a9 82bc
00000010: 13fa ddbd fe0d 28bd ccfd 83bd 3ec2 473c
00000020: 8a41 b2bc d1da 1abe 42b2 d1be dbd3 d03c
00000030: 4555 76bd e721 83bd 53ca 5fbd 7fff 253b
00000040: 86ea ad3d 13fc 8bbc d5b5 4bbe c426 4fbc
00000050: 0922 a7bc 9f98 6a3b cc56 29be 4bfe 103d
00000060: f820 41bc 6c0e 1c3d a7ab 61bd 0219 3a3c
00000070: 91c8 52bd 443c 3cbd 9a33 2abe 40c0 70bd

batch2.running_mean f4 [32]
-3.8194225 2.1982934 -3.4373863 -0.8745557 0.06987413 1.3166683 -0.82774746 2.4499452
5.5194216 -1.2795155 -1.538773 2.2339838 -0.68047094 3.8058918 -0.53161025 2.429969
-1.5959854 -1.4695234 0.14828028 -1.9593524 -0.80619574 1.3213941 2.120448 2.2733176
-0.62124324 4.100511 1.6641515 -0.115445495 2.9004195 -1.663591 -1.5035081 1.3198278
00000000: 6b71 74c0 d7b0 0c40 23fe 5bc0 e2e2 5fbf
00000010: 2b1a 8f3d 9688 a83f 42e7 53bf e7cb 1c40
00000020: 1a9f b040 2ac7 a3bf 83f6 c4bf 97f9 0e40
00000030: 5833 2ebf bb93 7340 9c17 08bf 9d84 1b40
00000040: 4049 ccbf 5819 bcbf c9d6 173e 0fcc fabf
00000050: d862 4ebf 7123 a93f 6cb5 0740 097e 1140
00000060: cc09 1fbf 6337 8340 eb02 d53f b06e ecbd
00000070: 79a0 3940 8df0 d4bf f472 c0bf 1ef0 a83f

batch2.running_var f4 [32]
16.719713 2.5800824 9.706157 0.8510448 15.028577 4.4755874 19.293524 3.631768
13.629186 4.162578 3.8829863 6.8291826 5.3341846 5.9356594 2.657555 5.7219186
6.6721067 5.6138597 1.9656411 2.5357978 35.78872 1.8082821 7.638243 5.92596
1.6483136 17.692476 1.4535183 3.061439 1.0001376 5.8857856 4.0662985 24.167772
00000000: f9c1 8541 1220 2540 6b4c 1b41 12de 593f
00000010: 0d75 7041 0338 8f40 2359 9a41 e36e 6840
00000020: 2511 5a41 d733 8540 d982 7840 aa88 da40
00000030: a4b1 aa40 ecf0 bd40 6215 2a40 f519 b740
00000040: e681 d540 bda4 b340 219a fb3f 834a 2240
00000050: a627 0f42 ca75 e73f 7d6c f440 77a1 bd40
00000060: f1fb d23f 318a 8d41 e30c ba3f 9eee 4340
00000070: 8204 803f 5b58 bc40 1e1f 8240 9957 c141

fc1.weight f4 [50, 3136]
0.035807006 0.07182598 0.05910689 0.034396183 0.054191913 0.057813134 0.038899865 0.051143315
0.032612957 0.03468232 0.030879987 0.044431265 0.02714697 0.024029372 0.054204054 0.028605824
0.040241178 0.05034815 0.047577176 0.025120987 0.025141591 0.037617978 0.026796151 0.021709984
0.037137277 0.030565197 0.009157472 0.012785375 0.016869714 0.02470459 -0.0017321188 0.013498591
0.010254303 -0.0010883028 0.014399185 0.001663586 -0.009215035 -0.016335905 -0.017085247 -0.0026768642
-0.009837467 -0.0006053484 0.009238521 0.0064028623 -0.01081442 -0.0070124315 -0.018437298 -0.0032908495
0.0052972543 -0.014352546 -0.021420306 -0.032129057 -0.01264188 -0.010112576 -0.028048886 -0.018640868
-0.028662328 -0.028267875 -0.033425853 -0.038552526 -0.030174322 -0.013264906 -0.040937945 -0.025157908
-0.03893998 -0.051617924 -0.044517923 -0.03659747 -0.019277137 -0.04667071 -0.036763184 -0.03071528
-0.018377239 -0.034436945 -0.02156865 -0.027945556 -0.028850205 -0.042076044 -0.026316004 -0.039433375
-0.036559206 -0.05685491 -0.050702576 -0.054053117 -0.050266817 -0.05251615 -0.060886417 -0.060625866
-0.04715864 -0.04152187 -0.055937856 -0.07307792 -0.060348738 -0.071402036 -0.04870025 -0.057035413
-0.0618263 0.021965543 0.015669908 0.054634668 0.02383087 0.03275494 0.033744313 0.034170166
0.034222398 0.03231239 0.030983124 0.014882704 0.022804463 0.032241408 0.032914203 0.007102493
0.03164045 0.031956244 0.026672162 0.03159827 0.0049860277 0.009169978 0.03608494 0.012231528
0.005587078 0.023174707 0.023642156 0.011582018 0.024641084 0.0063754595 0.022810416 0.021419927
0.024507722 0.02789499 0.037055977 0.015236867 0.012185474 0.037963953 0.023668814 0.0045608296
0.025057158 0.00353798 0.035387915 0.010157888 0.006217742 0.030878978 0.019330442 0.020389013
0.019007197 0.005758797 0.0033909343 0.02429675 0.0040144743 0.020096837 0.016556539 0.017654782
0.029505262 0.020101164 0.020063702 0.01846949 0.026127907 0.034828745 0.018452184 0.04471336
0.025990866 0.016773107 0.044992454 0.04840834 0.038609024 0.016628291 0.06555557 0.078216605
0.04200696 0.06614605 0.068995036 0.069374114 0.0735124 0.084091365 0.069591135 0.08155073
0.06561488 0.068913944 0.043006856 0.037738647 0.02480837 0.009612559 0.035075657 0.03194237
0.02373641 0.012135101 0.009972719 0.017288508 0.007063179 0.0012497331 0.007824253 0.00779062
0.015266096 -0.003612239 0.012427761 0.01929559 0.04527702 0.06554715 0.056356885 0.06082121
0.056845777 0.049445905 0.044935405 0.04095181 0.044997696 0.03799758 0.04182442 0.06256475
0.0433888 0.043628518 0.05599321 0.053918444 0.056694657 0.055173893 0.03840281 0.05352975
0.041955527 0.06173628 0.034186598 0.062050447 0.042680554 0.03746758 0.042707756 0.045527413
0.043746717 0.03156602 0.030091813 0.020405212 0.029113699 0.028596034 0.03350372 0.04428519
0.02717773 0.026356166 0.039793245 0.04855973 0.016044308 0.039310046 0.020210616 0.010402196
0.01955161 0.022210445 0.022308396 0.01531274 0.00566897 0.025856944 0.0012306857 0.008276943
0.030850708 0.02806898 0.0012913134 0.015063249 0.022490622 0.020496586 0.014156484 0.016985333
00000000: 5eaa 123d 8019 933d 111a 723d 03e3 0c3d
00000010: 57f8 5d3d 77cd 6c3d 7755 1f3d a77b 513d
00000020: 2a95 053d 0c0f 0e3d 07f8 fc3c 8ffd 353d
00000030: 5363 de3c 3fd9 c43c 1205 5e3d c356 ea3c
00000040: efd3 243d dd39 4e3d 49e0 423d 87ca cd3c
00000050: bdf5 cd3c 4f15 1a3d 9a83 db3c 23d9 b13c
00000060: 421d 183d dd63 fa3c 3909 163c c079 513c
00000070: 5b32 8a3c 4861 ca3c 4308 e3ba 3229 5d3c
00000080: aa01 283c 62a5 8eba 8fea 6b3c af0c da3a
00000090: a8fa 16bc e0d2 85bc 5cf6 8bbc 546e 2fbb
000000a0: 542d 21bc 3eb0 1eba 2a5d 173c 1acf d13b
000000b0: f72e 31bc 8ac8 e5bb d109 97bc 4bab 57bb
000000c0: 9794 ad3b f126 6bbc a379 afbc c299 03bd
000000d0: e31f 4fbc 38af 25bc c7c6 e5bc bcb4 98bc
000000e0: 42cd eabc 0892 e7bc 8ce9 08bd 41e9 1dbd
000000f0: 2430 f7bc 0c55 59bc 8cae 27bd f517 cebc
00000100: 877f 1fbd 516d 53bd 6d58 36bd 3be7 15bd
00000110: 16eb 9dbc c929 3fbd fe94 16bd 9c9e fbbc
00000120: dd8b 96bc c10d 0dbd bdb0 b0bc 14ee e4bc
00000130: 4457 ecbc ee57 2cbd a994 d7bc e484 21bd
00000140: 1bbf 15bd b2e0 68bd 81ad 4fbd cd66 5dbd
00000150: 94e4 4dbd 2d1b 57bd 0964 79bd d452 78bd
00000160: 6b29 41bd d612 2abd 181f 65bd e0a9 95bd
00000170: 3d30 77bd 3b3b 92bd ea79 47bd f79d 69bd
00000180: 933d 7dbd 15f1 b33c 2e5e 803c 9ac8 5f3d
00000190: f538 c33c 0b2a 063d 7a37 0a3d 04f6 0b3d
000001a0: c92c 0c3d ff59 043d 52d0 fd3c 96d6 733c
000001b0: 6dd0 ba3c 910f 043d 0bd1 063d 08bc e83b
000001c0: 6b99 013d 8de4 023d 947f da3c 306d 013d
000001d0: d561 a33b ad3d 163c cdcd 133d bf66 483c
000001e0: cf13 b73b e2d8 bd3c 32ad c13c 81c2 3d3c
000001f0: 19dc c93c 3be9 d03b e9dc ba3c d878 af3c
00000200: 6bc4 c83c 0984 e43c 02c8 173d 0da4 793c
00000210: 95a5 473c 1780 1b3d 1ae5 c13c 0373 953b
00000220: ab44 cd3c 74dd 673b ebf2 103d 456d 263c
00000230: 33be cb3b e9f5 fc3c e05a 9e3c dc06 a73c
00000240: fbb4 9b3c 4ab4 bc3b 703a 5e3b fa09 c73c
00000250: da8b 833b 1fa2 a43c 94a1 873c c3a0 903c
00000260: 05b5 f13c 32ab a43c a25c a43c 544d 973c
00000270: 310a d63c 96a8 0e3d 0929 973c 5b25 373d
00000280: ccea d43c c167 893c 024a 383d d347 463d
00000290: 7f24 1e3d 0e38 883c 0042 863d 0730 a03d
000002a0: 7d0f 2c3d 9577 873d 454d 8d3d 0414 8e3d
000002b0: ab8d 963d 1838 ac3d cc85 8e3d 1204 a73d
000002c0: 1861 863d c122 8d3d f527 303d d793 1a3d
000002d0: ec3a cb3c ff7d 1d3c 7eab 0f3d 01d6 023d
000002e0: dc72 c23c 4dd2 463c 9d64 233c a1a0 8d3c
000002f0: 3d72 e73b 16ce a33a 4c31 003c 7548 ff3b
00000300: a61e 7a3c 50bb 6cbb cf9d 4b3c c911 9e3c
00000310: 6674 393d 963d 863d 7ad6 663d a91f 793d
00000320: 1ed7 683d ca87 4a3d 300e 383d 16bd 273d
00000330: 814f 383d 5aa3 1b3d 1550 2b3d f321 803d
00000340: 74b8 313d d1b3 323d 2359 653d 96d9 5c3d
00000350: a838 683d 05fe 613d 444c 1d3d 0342 5b3d
00000360: 8fd9 2b3d 2edf 7c3d 3f07 0c3d 9c28 7e3d
00000370: ced1 2e3d 9b77 193d 54ee 2e3d f47a 3a3d
00000380: c22f 333d 5f4b 013d 1b83 f63c d528 a73c
00000390: da7f ee3c 3b42 ea3c 323b 093d 6364 353d
000003a0: d5a3 de3c e3e8 d73c 3efe 223d 91e6 463d
000003b0: 5a6f 833c 9203 213d bc90 a53c f96d 2a3c
000003c0: b32a a03c aef2 b53c 19c0 b63c 49e2 7a3c
000003d0: c4c2 b93b f1d1 d33c f64e a13a 049c 073c
000003e0: a0ba fc3c ebf0 e53c 4a41 a93a d8cb 763c
000003f0: 413e b83c 75e8 a73c 99f0 673c d324 8b3c

fc1.bias f4 [50]
-0.0016979094 -0.079411075 -0.0034888533 -0.04684592 -0.031666692 -0.02520656 0.025633514 -0.023172902
0.007027025 -0.017416915 -0.020085575 0.0141078215 0.018627815 -0.028770845 -0.043635838 0.005853219
0.0068307114 0.029814806 -0.04815797 0.0037773892 0.018000184 -0.029034864 0.018511679 -0.039911374
0.039421674 0.0005924991 -0.04305408 -0.023489371 0.0018308518 -0.018222697 0.047034387 0.009032108
0.031624954 -0.009606918 -0.0051733716 0.0055115665 -0.0133791035 -0.0011360819 0.035951465 -0.014221663
0.011257407 -0.047049392 -0.052411813 -0.011513201 -0.010576813 -0.022097137 0.032228846 0.028813425
-0.009753439 0.01986615
00000000: 638c deba 46a2 a2bd 3fa5 64bb 82e1 3fbd
00000010: efb4 01bd fd7d cebc 60fd d13c 19d5 bdbc
00000020: f542 e63b ebad 8ebc 818a a4bc 7e24 673c
00000030: 5c99 983c d6b0 ebbc 7ebb 32bd 5ccc bf3b
00000040: 29d4 df3b 2e3e f43c 4b41 45bd 138e 773b
00000050: 1f75 933c 86da edbc cea5 973c 1c7a 23bd
00000060: 9f78 213d f151 1b3a 7a59 30bd c86c c0bc
00000070: 31f9 ef3a c447 95bc 21a7 403d 68fb 133c
00000080: 2b89 013d 5666 1dbc 6385 a9bb 5f9a b43b
00000090: 0734 5bbc 95e8 94ba d841 133d fa01 69bc
000000a0: fd70 383c ddb6 40bd c5ad 56bd dda1 3cbc
000000b0: 5e4a 2dbc 0e05 b5bc 6502 043d 220a ec3c
000000c0: e3cc 1fbc 56be a23c
