DOMAIN_ADAPTION/C1_C2_experiments/experiments_cnn/S:I_ist_X/feature=D:I_ist_X_GAMMA=1.0_GAMMA_reduction1.0_num_pool=2_[True, True, True, False, False, False]_exp_1/best_model/model_fc.pt (torch, 2207 bytes, 4 tensors)

fc2.weight f4 [3, 50]
0.51421064 0.089868 -0.087242946 -0.42038175 -0.306654 0.21637298 0.61891454 0.035080425
-0.056641832 -0.21455266 -0.07805518 -0.23017025 0.18687212 0.30031592 0.6384873 -0.9052039
0.31384504 0.04690526 0.21645975 -0.060989585 -0.38565093 -0.23496749 -0.07658303 -0.89991474
-0.060218822 -0.0031708884 -0.057096675 0.18769029 -0.01232877 -0.5434806 -0.25587618 -0.15856917
-0.17446433 -0.048890326 -0.032669432 -0.044479508 0.2988518 -0.29535007 0.3675477 -0.047552116
-0.011419851 -0.14319581 0.012562302 -0.5196205 -0.1959749 0.0007912677 0.66502416 -0.0034815057
0.037978612 0.69883025 -0.5909012 0.0023815164 -0.027491234 0.54615855 0.17371593 -0.25561455
-1.169791 -0.3531051 -0.067743555 0.26636943 0.06426293 0.2177048 0.013907537 -0.27139384
-0.93943715 1.6629657 -0.08628661 -0.018460559 -0.15728436 -0.09152677 0.17153831 0.07380129
-0.052726846 1.5466609 -0.03868558 0.0010034402 0.02930722 -0.104903236 -0.077229515 0.8927925
0.16221538 -0.015609541 0.021427097 0.0004107645 0.047790367 -0.010849765 -0.25349095 0.010017496
-0.48869026 0.09493737 0.1447219 0.5659129 -0.048206303 0.63026184 0.015327388 -0.026184013
-0.992069 0.049964946 -0.054171965 -1.1796509 0.5224984 0.1091673 -0.14350884 -0.5325992
-0.3455904 0.28359464 0.80501115 0.036418054 -0.032459203 -0.3057856 -0.16119668 -0.29797962
0.059069395 0.35279673 0.6670288 -1.015071 0.29234585 0.15695456 0.27709976 -0.13287096
-0.25817615 -0.20306708 -0.1436922 -0.986345 -0.14507917 0.11826895 -0.16279763 0.11358917
-0.13932642 -0.6558506 -0.30108738 -0.12810253 -0.2145177 -0.14728421 0.04683913 -0.02845959
0.28935662 -0.14874384 0.46385 0.015995618 -0.032377254 -0.0456287 0.10828131 -0.53116363
-0.16134231 -0.12766035 0.72161853 -0.038807992 0.040748127 0.7990696
00000000: 4fa3 033f b70c b83d 6eac b2bd 473c d7be
00000010: c101 9dbe e190 5d3e 2f71 1e3f 7eb0 0f3d
00000020: 4401 68bd b1b3 5bbe 65db 9fbd c0b1 6bbe
00000030: 685b 3f3e 02c3 993e e773 233f 71bb 67bf
00000040: 4cb0 a03e bb1f 403d a0a7 5d3e 37d0 79bd
00000050: 0a74 c5be 519b 70be 90d7 9cbd d060 66bf
00000060: 03a8 76bd aece 4fbb 34de 69bd e231 403e
00000070: 9cfe 49bc 8b21 0bbf 3402 83be f55f 22be
00000080: c7a6 32be 3941 48bd 62d0 05bd 2530 36bd
00000090: 1a03 993e 2038 97be 362f bc3e 02c6 42bd
000000a0: 541a 3bbc eca1 12be 1dd2 4d3c d905 05bf
000000b0: a5ad 48be 146d 4f3a 063f 2a3f f929 64bb
000000c0: 768f 1b3d 8ae6 323f 4d45 17bf 3713 1c3b
000000d0: 4c35 e1bc 0cd1 0b3f 97e2 313e e9df 82be
000000e0: b6bb 95bf 31ca b4be 22bd 8abd 9361 883e
000000f0: 489c 833d 02ee 5e3e 70dc 633c 22f4 8abe
00000100: f47e 70bf 0fdc d43f 09b7 b0bd 993a 97bc
00000110: 270f 21be 6372 bbbd bda7 2f3e 2125 973d
00000120: 1bf8 57bd fcf8 c53f c574 1ebd de85 833a
00000130: b215 f03c 82d7 d6bd 822a 9ebd 0d8e 643f
00000140: ca1b 263e 29bf 7fbc e187 af3c e15b d739
00000150: d5bf 433d 36c3 31bc 91c9 81be 6c20 243c
00000160: 9c35 fabe 866e c23d fa31 143e abdf 103f
00000170: f973 45bd d758 213f ba1f 7b3c db7f d6bc
00000180: 3cf8 7dbf 0ba8 4c3d 6ce3 5dbd cdfe 96bf
00000190: 75c2 053f 1b93 df3d fbf3 12be 6c58 08bf
000001a0: 3af1 b0be 5133 913e 3615 4e3f 192b 153d
000001b0: f1f3 04bd ee8f 9cbe be10 25be c990 98be
000001c0: c0f2 713d c6a1 b43e 66c2 2a3f d9ed 81bf
000001d0: 5bae 953e b2b8 203e 05e0 8d3e 530f 08be
000001e0: aa2f 84be d1f0 4fbe 0c24 13be 1b81 7cbf
000001f0: a28f 14be fe36 f23d 6cb4 26be 70a1 e83d
00000200: 96ab 0ebe d3e5 27bf 2028 9abe 4f2d 03be
00000210: 87aa 5bbe acd1 16be 63da 3f3d 1624 e9bc
00000220: 8d26 943e 4e50 18be bf7d ed3e 3e09 833c
00000230: 039e 04bd 29e5 3abd 97c2 dd3d 57fa 07bf
00000240: eb36 25be 65b9 02be febb 383f 21f5 1ebd
00000250: 82e7 263d d38f 4c3f

fc2.bias f4 [3]
0.29789892 -0.18756756 0.26227236
00000000: 3586 983e b611 40be 9048 863e

fc3.weight f4 [2, 3]
0.36320215 0.48065543 -0.36681378 0.5023977 -0.008427741 0.14388028
00000000: a2f5 b93e 7818 f63e 04cf bbbe 239d 003f
00000010: 8214 0abc 5a55 133e

fc3.bias f4 [2]
0.2793575 -0.105279416
00000000: f207 8f3e bc9c d7bd
