DOMAIN_ADAPTION/P_C1_vs_C2_C3/no_mmd/feature=C:z_nut_GAMMA=0.0_GAMMA_reduction1.0_num_pool=2_[True, False, False, False, False, True]_14_07_2022__13_50_09/best_model/model_cnn.pt (torch, 762095 bytes, 16 tensors)

conv1.weight f4 [64, 1, 100]
000000 f4 53 ac 3e f0 2d 25 3c a1 f1 22 3e c2 3d 7d be
       0.336578 0.010081753 0.15912487 -0.2473059
000010 f0 fa f0 3d 4b a1 51 3e ec 62 59 be 13 cb 76 be
       0.117666125 0.20471685 -0.21229142 -0.24100904
000020 4b 62 43 be 8d fb 13 3d 09 ca 68 3e 29 08 85 3c
       -0.19080465 0.03612857 0.2273332 0.016239243
000030 5d ad a9 3d 09 c3 93 3e 23 74 7c 3e 2f 2e 33 bf
       0.082850195 0.28859738 0.24653678 -0.69992346
000040 a5 3d b8 be e7 20 22 3f 2c 82 e0 3e ca 04 5f bf
       -0.3598453 0.63331455 0.43849313 -0.8711668
000050 99 cd 0a bf 07 04 8e 3d e7 92 3b 3f e9 f9 2f 3f
       -0.5421997 0.06934362 0.7327103 0.6874071
000060 94 c5 95 be fa ad 87 be 15 58 a5 be 09 20 65 bd
       -0.29252303 -0.2649992 -0.32293764 -0.055938754
000070 26 69 9b 3e e5 d2 01 be e6 5b 7a 3d 2d a7 fa be
       0.3035366 -0.12678106 0.061122797 -0.4895567
000080 43 b5 5c 3e d4 f5 41 3f 56 18 f0 3d 85 21 db bd
       0.21553521 0.7576573 0.11723392 -0.10699753
000090 11 13 7a bf 3d 23 18 be c6 ac e0 3e 34 25 36 3d
       -0.97685343 -0.14857192 0.43881816 0.044469073
0000a0 b5 e2 3c be 5b d8 05 3e 42 ad 5c 3e f2 10 1c bd
       -0.18445857 0.13070814 0.21550468 -0.038102098
0000b0 9d d4 11 be cd 14 7a 3e c9 79 ab 3d 4e af 57 bf
       -0.14241262 0.24421997 0.08372838 -0.8425187
0000c0 ff 7c 3c bd cb cf 9d 3e eb 5d 79 3e 6e d5 81 3e
       -0.046017643 0.30822596 0.24352233 0.25358146
0000d0 68 64 97 be 70 97 b1 3e 15 70 83 bd 10 08 64 be
       -0.2956879 0.3468585 -0.06417862 -0.222687
0000e0 4c e9 27 bd a0 29 e1 be ec 5f 5f 3e 3e 4e 04 3f
       -0.040993974 -0.4397707 0.21813935 0.5168189
0000f0 f8 27 fc bd de 33 60 be 95 61 80 3d 0f 61 bf 3e
       -0.12312311 -0.21894786 0.06268612 0.37378737
000100 d3 74 ba be 6c 82 04 be f8 ec 72 3e 9a 02 89 be
       -0.36417255 -0.12940377 0.23723209 -0.26759797
000110 ef 82 d0 be b6 38 25 3e a2 d1 47 3f 3b 21 50 bd
       -0.40724894 0.16134915 0.7805425 -0.05081294
000120 bc 57 97 be d3 7e 8e be 30 fb c1 3e 29 ad b2 be
       -0.29559124 -0.27831134 0.37886953 -0.34897736
000130 5b f5 ca be 59 f0 be 3e 0a ee 54 be 19 9b 4f 3e
       -0.39640316 0.37292746 -0.2079393 0.20274009
000140 9f 87 50 3d 45 ef 34 3e 2d e6 ac 3e 47 3a c8 be
       0.05091059 0.17669399 0.3376936 -0.39106962
000150 19 1c c3 be 54 6f ed be d6 6c 15 3f 0e a1 91 3f
       -0.38107374 -0.46374 0.58369195 1.1377275
000160 32 d0 48 bf e6 ef 69 bf 3e b6 2f 3f 03 86 50 3f
       -0.7844268 -0.9138168 0.68637455 0.81454486
000170 00 a7 59 be ea 53 45 bf 51 59 e9 bd b3 df a5 3d
       -0.21255112 -0.7708117 -0.11393989 0.08099308
000180 2a 62 9b bd d2 b4 b5 3e 2d 6c 15 3f cd de a4 bb
       -0.07587083 0.35489517 0.5836819 -0.0050314427
000190 4a bf 2e be 98 62 b0 be f1 88 4f be e6 45 1b bc
       -0.17065158 -0.3445022 -0.20267083 -0.009477114
0001a0 59 aa 17 3f 41 1d 76 3e 2c ec a4 be ea ff e8 be
       0.59244305 0.24034597 -0.32211435 -0.45507747
0001b0 80 11 d3 bd 20 d1 e4 3e 4d 67 08 3d b2 70 84 be
       -0.10306072 0.446908 0.03330164 -0.2586723
0001c0 2f 77 75 3d 9b b6 5d 3e dd 55 a0 3d c6 81 92 be
       0.059928115 0.2165169 0.07828877 -0.28614634
0001d0 12 3e 33 be 73 21 56 be c8 c3 5e 3e 33 58 aa 3e
       -0.17504147 -0.20911197 0.21754372 0.33270416
0001e0 a7 2a 20 be 04 1c 15 be a6 bb bf bd 0b 5d 46 bd
       -0.1564127 -0.14561468 -0.09361963 -0.048428576
0001f0 f2 9d ea 3c 59 83 d3 bc 95 43 d1 3e 5c ba 97 3d
       0.028639767 -0.025819467 0.40871873 0.07408592
000200 16 00 86 be d7 c5 b1 be ff ce 50 3e dd 96 06 3e
       -0.2617194 -0.34721252 0.20391463 0.13143487
000210 ad 61 05 be 66 de b5 3e a9 a1 8c 3e 58 a0 d4 be
       -0.13025542 0.3552124 0.27467087 -0.41528583
000220 e6 b5 b6 be e0 fa 71 bd d7 7f 37 3e a1 48 1d 3e
       -0.35685652 -0.059077144 0.17919861 0.15359737
000230 f2 c3 b8 3d 16 98 a5 3e 63 b6 b0 3c 58 f6 e2 be
       0.090217486 0.32342595 0.021571344 -0.4432857
000240 64 a5 3d be 9e 86 1e 3e bc 2d c4 3c 32 ab df 3d
       -0.18520123 0.1548104 0.02394759 0.10921325
000250 a3 a6 19 3e ac f0 75 bd f5 d4 ad be cf 6e 18 be
       0.15004973 -0.060043976 -0.33951536 -0.1488602
000260 94 3d 0f 3f a7 39 4a bd 7b 7c 04 3b 21 fd d1 3d
       0.55953336 -0.049371388 0.0020215798 0.10253359
000270 bf 3f 12 be b5 28 59 be eb 1f 4e be 39 f9 67 3d
       -0.1428213 -0.21206935 -0.20129363 0.05663416
000280 45 fa 0f 3e cb 35 00 3f 26 59 29 3e f8 95 95 be
       0.14060314 0.5008208 0.16537914 -0.2921598
000290 8a 42 0e bf 91 55 5e be 0b 25 8d 3e c9 a3 0a 3e
       -0.5557028 -0.21712328 0.27567324 0.13539042
0002a0 54 36 fe 3d f2 f9 89 3d 54 0d b9 3c dd f3 f1 be
       0.12412706 0.067371264 0.022589363 -0.47256365
0002b0 c2 36 88 be 19 ce 21 3e 0a d8 35 3b 70 ae e4 3d
       -0.26604277 0.15801276 0.0027747178 0.11166084
0002c0 a9 26 8c 3d c7 66 62 3c 97 ba b4 be be cd 0a be
       0.06843311 0.013818449 -0.35298607 -0.13555047
0002d0 d8 30 00 3e 7c d2 bf 3e 3a 9e 63 3e ba e9 d7 bd
       0.12518632 0.37465274 0.22228327 -0.10542627
0002e0 f6 8f 60 3c b7 83 2b be 64 9d b9 be 53 79 35 be
       0.013706198 -0.16749464 -0.36252892 -0.17722063
0002f0 77 0c 4b 3e b4 ff a5 3e 9f e9 c5 3e 19 8e 87 3d
       0.19828974 0.32421649 0.386548 0.066189
000300 12 a8 13 bf d0 94 16 bf 8f 1f 6b bd 58 8a 52 3e
       -0.5767833 -0.5882082 -0.057403143 0.20560586
000310 81 31 15 3e 87 83 94 3d 01 9c 4b 3e 55 78 a3 3e
       0.14569665 0.07251649 0.1988373 0.31927744
000320 d1 0d 2e 3e b3 ac d3 be 89 28 c0 bd 5d db 92 be
       0.16997458 -0.41342697 -0.093827315 -0.28682986
000330 c8 82 bb 3d a0 bf 33 3f 96 26 04 bf be 73 f5 3e
       0.09155804 0.7021427 -0.5162138 0.47939867
000340 68 7c b9 bd 14 62 e2 3d 8a cc f6 3e 29 8a 53 bf
       -0.09056932 0.11053863 0.48202926 -0.8263269
000350 61 07 8d be 7c ac ae bc c6 50 8f 3e 80 fc 16 3f
       -0.27544692 -0.021322481 0.27991313 0.58979034
000360 ec 39 65 3e 60 79 8d be bd 14 92 3e 25 81 e8 bc
       0.22385377 -0.27631664 0.28531447 -0.028381893
000370 fc b1 bd be e6 c5 2d 3d a7 2c 16 bf ed 7b b4 3e
       -0.37049854 0.04242506 -0.58661884 0.35250798
000380 41 38 62 3e f9 4d 93 3e 60 84 36 3f 20 15 28 bf
       0.22091772 0.28770426 0.7129574 -0.65657234
000390 0a 3a c3 3e 54 f0 ba be 91 86 53 be f8 27 97 3e
       0.38130218 -0.3651148 -0.20656802 0.2952268
0003a0 24 31 52 bf 95 07 25 3f bd a6 b7 3e 82 47 de bb
       -0.8210623 0.64464694 0.358694 -0.0067834267
0003b0 80 dd a6 3e cb a2 b3 be e1 ea ef 3d 52 0a bf bd
       0.32590866 -0.3508514 0.117147215 -0.0932814
0003c0 86 a8 9d be ba 22 76 3c 83 e8 e3 3d fa 14 2c 3e
       -0.30792636 0.015022928 0.111283325 0.16804877
0003d0 7e 49 98 3e 55 8c de bc d9 e4 88 3e f2 6e 81 3c
       0.2974357 -0.027166525 0.26737097 0.015799973
0003e0 14 aa d4 be ee 20 b1 3e 6f 51 20 bf 32 a0 89 3d
       -0.4153601 0.34595436 -0.6262426 0.06720008
0003f0 33 94 30 3f 45 cf 97 be 53 70 56 3f 11 a9 97 bd
       0.68976134 -0.29650322 0.83765143 -0.07405294

conv1.bias f4 [64]
000000 b1 a5 6f 3e 50 79 75 3d 91 89 39 3e 55 58 5c 3e
       0.2340305 0.059930146 0.18118884 0.21518071
000010 ba 5c 88 be fd b7 8e 3e 16 b8 87 3e 7b be e7 3d
       -0.26633245 0.27874747 0.26507634 0.11315628
000020 24 30 bd 3e 5d 21 ca 3d 92 57 89 be 74 f7 31 bf
       0.3695079 0.09869645 -0.26824623 -0.6951821
000030 ff cf d3 3e 0d d3 4b 3e 8d c1 38 be e7 18 18 3e
       0.41369626 0.19904728 -0.18042584 0.1485325
000040 9f b7 7b 3d 37 8e e4 3e 2a e3 34 3e 59 7d 55 3e
       0.06145441 0.4463975 0.17664781 0.20848598
000050 60 de 19 3e 26 f9 03 bf 9a d9 98 3d 57 40 b1 be
       0.15026236 -0.51552045 0.07463379 -0.346194
000060 72 43 0d 3d 45 b6 ef bd 3a 66 86 3e d4 74 ee 3d
       0.03448815 -0.11704687 0.26249868 0.11643377
000070 b2 3f ad 3d 07 35 0b 3e 64 f2 1f 3e ae 48 99 3e
       0.084594145 0.13594447 0.15619808 0.29938263
000080 0a 9f 3c bf 34 12 bd 3c 05 00 77 3e a9 9c ca be
       -0.73680174 0.023079969 0.24121101 -0.39572647
000090 f4 35 ea 3b cb 72 84 3d b7 ad 87 be de c4 5a 3d
       0.007147545 0.064672075 -0.2649972 0.053410403
0000a0 e1 31 33 3e b8 85 e1 3c 7e 89 16 3e 4b 45 9e 3d
       0.17499496 0.027529582 0.14700887 0.0772806
0000b0 a0 cf 49 3e 99 08 09 3e fc 81 22 3e 91 eb d2 3d
       0.19708109 0.13382186 0.15869898 0.10298837
0000c0 75 71 be 3e 16 93 87 be 65 df e9 3d d8 58 46 be
       0.37195936 -0.26479405 0.11419562 -0.19369829
0000d0 52 60 8e be 46 48 47 3e 42 37 99 3e 82 c9 9a 3e
       -0.27807862 0.19461164 0.2992497 0.30231863
0000e0 8e 48 c3 be 06 bf 2e 3e 3a e5 3f 3e 5f 1d 02 3d
       -0.38141292 0.17065057 0.18739787 0.03176629
0000f0 79 06 07 bf 8b 66 af 3d ab 50 5c be a7 fa c2 3d
       -0.5274425 0.085644804 -0.21515147 0.095204644

conv2.weight f4 [32, 64, 10]
000000 f0 88 02 3e 0d 8f 9b 3e d8 31 a7 3e 3c 7e 95 3e
       0.1274755 0.30382577 0.32655215 0.29197872
000010 74 a7 a4 3e 7a 0a 0d 3e c4 06 6d 3e d6 6f 8c 3e
       0.32159007 0.13773528 0.23147112 0.27429074
000020 ec d3 b2 3e 57 7e cd 3e c1 43 ab 3e da 5b 96 3e
       0.3492731 0.40135452 0.3345013 0.29366952
000030 e5 8e d3 3e 67 5f 65 3d 7f d0 db 3e 73 4e c7 3e
       0.41319957 0.055999186 0.42932507 0.3892704
000040 3c d3 a2 3e bc c7 a3 3e d8 98 fa 3d eb ae ad 3e
       0.31801784 0.31988323 0.12236184 0.33922514
000050 3a 51 7f 3e 7f 64 90 3e ce a1 97 3e 47 93 36 3e
       0.24933329 0.28201672 0.29615635 0.1782962
000060 3f 3e a7 3e a5 36 b0 3e e3 94 6e 3e ce ca 84 3e
       0.32664678 0.3441669 0.23298983 0.25935978
000070 32 f0 38 3e d4 aa ca 3e 67 c9 71 be 7e 20 2a 3d
       0.18060377 0.39583457 -0.23611985 0.041534893
000080 d4 89 52 3d c8 e9 12 be d5 d8 0d 3e f1 15 8d be
       0.051400974 -0.14346993 0.13852246 -0.27555802
000090 3a 84 93 3d 40 b4 b8 bb 5a a4 3f bb 30 d3 29 3e
       0.072029546 -0.005636722 -0.0029242248 0.16584468
0000a0 f3 fb 76 3e 00 0e 91 3e 5f 85 81 3e d0 94 a1 3e
       0.24119548 0.28330994 0.25297067 0.31558847
0000b0 81 64 1f 3e 53 c2 66 3e 8b ab 45 3e b8 c1 41 3e
       0.15565683 0.22535066 0.1930372 0.18921554
0000c0 5d 32 44 3e 77 a0 8a 3e 44 6f 2a 3e 06 19 82 3e
       0.19159837 0.2707555 0.16644007 0.25409716
0000d0 9a aa 92 3e 74 ba 0a 3e 5f 3a 47 3e 37 4e e3 3d
       0.28645784 0.13547689 0.1945586 0.11098903
0000e0 e9 a4 9a 3e ef d0 8b 3e 39 cf 98 3e c3 65 4c 3e
       0.3020394 0.2730784 0.29845598 0.19960694
0000f0 c2 61 09 3e a3 bd 9a 3e ed 9b 3a be 2d 13 ba 3e
       0.13416198 0.30222806 -0.18223543 0.36342755
000100 92 11 29 bc 3c 4c 5c 3e 7c 9d 44 3e a2 76 62 be
       -0.0103191305 0.21513456 0.192007 -0.22115567
000110 27 fa 84 3e 84 5b 20 be 8b 3c cc 3e 01 68 d0 3e
       0.259721 -0.1565991 0.3988994 0.4070435
000120 a8 47 a2 3e 32 02 f2 3c 23 4a 62 3e f8 f6 8d 3e
       0.31695294 0.029542062 0.22098593 0.27727485
000130 e6 5e b7 3e c2 70 9a 3e 1e e3 87 3e f4 41 70 3e
       0.3581459 0.30164152 0.26540464 0.23462659
000140 18 32 e7 3d b3 94 3d 3e 83 e3 7f 3e f3 82 bc 3e
       0.112888515 0.18513756 0.24989133 0.36818656
000150 60 7d 5e 3e 32 50 15 3e 71 e1 1d 3e f8 7b 43 3e
       0.21727514 0.14581373 0.1541803 0.19090259
000160 00 06 8d 3e ce c2 8e 3e a2 d1 2e be c7 c7 d8 3d
       0.2754364 0.27883 -0.17072156 0.105849795
000170 6f c4 04 bd 3d bd 43 bd 3f 01 17 bd 01 8f ed bd
       -0.032413896 -0.047787894 -0.036866423 -0.115995415
000180 87 6a 80 bd 3e 57 34 bd d6 58 2f bd a2 da c3 bd
       -0.062703185 -0.044028513 -0.04280933 -0.09563185
000190 a1 2d 27 3e 4b 33 36 3e f5 c0 09 3e a1 00 60 3e
       0.16326 0.17793004 0.13452514 0.2187524
0001a0 cb 62 68 3e 48 81 c7 3d bf 73 76 3e 90 94 33 3e
       0.22693937 0.09741455 0.24067591 0.17537141
0001b0 24 4b ab 3e f8 b6 2f 3e 73 e7 99 3c da c8 92 3d
       0.33455765 0.17159641 0.018787121 0.07167216
0001c0 ec e1 4e 3d 05 1e 08 bc 23 fb 9d bd b9 ff 19 3d
       0.050508425 -0.008307938 -0.07713916 0.03759739
0001d0 3f 0b fe 3b ad 4b af 3b 21 39 20 ba 95 f1 ce bc
       0.0077528055 0.0053495974 -0.00061120285 -0.02526168
0001e0 f6 ff f5 be b3 9e 2b be 6c 96 69 3c ad 65 f0 be
       -0.48046845 -0.16759758 0.014257055 -0.46952572
0001f0 d6 03 e7 bc 3e 92 02 bf 42 4b b6 bc 74 bd b6 bd
       -0.028200071 -0.510044 -0.022252683 -0.08922854
000200 5f ea a4 be d1 44 14 bc 5f 01 b7 3c 8b 21 4f 3e
       -0.3221006 -0.00904961 0.022339521 0.2022764
000210 f4 c2 e7 3e f5 cd 63 3e 60 7f b7 bd 0e 3e 03 bd
       0.45265925 0.22246535 -0.08959842 -0.0320416
000220 0d db 98 3d 97 88 dc 3e 59 26 0c 3e b7 bd 8b bc
       0.074636556 0.4307296 0.13686503 -0.017058237
000230 5f a3 41 be 1d 4a 7f 3e bb 07 2c bd 9a 6c 35 3e
       -0.18909977 0.24930616 -0.04199956 0.1771721
000240 ed e6 37 3e e7 a4 b4 bd 52 5f 8d 3e f8 34 ad bd
       0.17959185 -0.08820515 0.27611786 -0.084573686
000250 3b b8 96 3e 65 83 ed 3d bf 12 33 3e d1 11 cd bc
       0.29437432 0.11597327 0.1748762 -0.02503291
000260 a6 23 0c 3e 3b eb 66 be b6 f6 47 3d c0 c2 fe 3c
       0.13685474 -0.22550671 0.048819266 0.031098723
000270 a2 0c 63 bd 62 b1 fb 3d 22 68 43 be df 25 8d 3d
       -0.05543197 0.122896925 -0.19082692 0.06891989
000280 ce 97 73 3e 04 2f 43 3e 3a fc 71 3d 4e 34 5d 3e
       0.23788378 0.19060904 0.059078433 0.21601984
000290 5f a2 97 3d bc ab 44 3e a8 1d da 3c e7 56 fa 3d
       0.07404017 0.19206136 0.02662547 0.122236066
0002a0 43 94 b5 3d bf 09 37 bd 9d 35 40 be 37 04 6c 3d
       0.08866169 -0.04468703 -0.18770452 0.057621207
0002b0 b0 df 00 3e a3 29 a4 be 62 06 37 3e 93 61 16 be
       0.1258533 -0.32063016 0.17873529 -0.14685659
0002c0 26 7c 18 3e 5a d1 10 3e 50 1b 38 be d5 45 a7 3e
       0.14891109 0.14142361 -0.17979169 0.32670465
0002d0 3d ff a6 3e 00 7a 9c 3e 8e 24 2f 3e 21 1a dd 3e
       0.32616606 0.3056183 0.17103788 0.43183997
0002e0 01 25 ba bd 45 09 a1 3e fe 45 1f 3e 59 26 56 3e
       -0.09089089 0.31452385 0.15554044 0.20913066
0002f0 ce 69 e8 3e b3 fb c8 bd 51 53 74 3e ef bb fe bd
       0.45393223 -0.09813633 0.23859908 -0.12438189
000300 df cd a2 3e f3 e0 dc 3d 18 0a 3c 3e 3f e3 11 3e
       0.31797692 0.10785093 0.18363225 0.14246844
000310 65 71 61 be a4 9d 95 3e af c9 cc 3c c6 54 34 3e
       -0.22015913 0.29221833 0.024998514 0.17610464
000320 24 69 4c be 4f 38 09 3e 98 7b 89 3d 62 25 ab bd
       -0.19961983 0.13400386 0.06713027 -0.083567396
000330 a1 fc 1a 3e 99 18 6d be 09 1a 47 3e 27 07 dc bc
       0.15135433 -0.23153915 0.19443525 -0.02685888
000340 3b 7f 01 3c 7e 71 ee 3d 4a d9 18 bd 2e b7 b0 be
       0.007903869 0.11642741 -0.037316598 -0.34514755
000350 40 93 19 be a0 d5 23 be be d3 1f be ca a5 b7 bd
       -0.14997578 -0.1599946 -0.15608117 -0.08967169
000360 5c af 2e be 2e 4a 46 3c 65 e2 07 be 6d d9 bc bd
       -0.17059082 0.012102647 -0.13269956 -0.09221158
000370 24 c8 d9 bd f9 db a1 3e e9 b2 25 bd 46 3d 87 3e
       -0.10633877 0.31613138 -0.040453825 0.26413935
000380 ba 58 86 3d 55 cb 1b bd 16 38 21 3e ac 59 0c be
       0.06559892 -0.03803571 0.15744051 -0.13706082
000390 d2 da 58 3e 4a 10 eb 3c 94 ed 22 3d 04 0d 50 3d
       0.21177223 0.02869429 0.039777353 0.050793663
0003a0 de 6a c2 3c 54 20 4d 3d fa 8f 07 3d 6b b4 95 3c
       0.023732599 0.05007966 0.03309629 0.018274507
0003b0 17 12 8d 3d d6 97 5b 3c 33 69 6a 3c 86 6d 2c 3d
       0.06888216 0.0134029 0.014307308 0.042096637
0003c0 8d 27 40 3f e6 06 40 3f 27 7f 54 3f c0 48 30 3f
       0.7506035 0.75010526 0.8300652 0.6886101
0003d0 f4 f5 49 3f 45 b9 33 3f 0d 6c 37 3f 13 86 2a 3f
       0.7889092 0.70204574 0.7164925 0.6661083
0003e0 12 c0 25 3f 23 f1 28 3f 27 ff d2 3e c4 fd b5 3e
       0.647462 0.65992945 0.4121029 0.3554517
0003f0 25 75 8c 3e 42 2a 80 3e 28 46 06 3e 2a 5a 37 3e
       0.27433124 0.2503224 0.131127 0.17905489

conv2.bias f4 [32]
000000 fe 99 1c 3b 6c 3f 89 3d dc 7b 19 3d f6 3f 6e bd
       0.0023895497 0.0670155 0.037471637 -0.058166467
000010 87 7c 90 bc d5 4a a9 3d 62 42 c3 bc 95 b0 3e bd
       -0.017637504 0.08266226 -0.023835365 -0.04655512
000020 ed 6e ae 3b 37 12 7a bc 5a 95 34 3d 7f 0a 36 3c
       0.005323282 -0.015263132 0.044087745 0.011110901
000030 31 b7 0c bc be e8 e3 3c 58 ad dd 3a f7 ee ee 3c
       -0.008588598 0.027820941 0.0016912622 0.029166682
000040 a5 e7 1c bc 3f ab 35 bd 13 6c 8d 3c bf 41 04 bc
       -0.009576713 -0.044352766 0.017263448 -0.008072316
000050 19 b0 25 bd ee 07 25 3d 36 80 2c bb d9 d9 98 bc
       -0.040451143 0.040290765 -0.0026321537 -0.018658565
000060 7d 40 fb 3c e1 0f 30 3d db 1e d2 bc 45 da 00 3e
       0.030670399 0.042983893 -0.025649479 0.12583263
000070 c5 3e cc bc 6e 2e 06 3c d8 cb 5a bc 50 4a 38 3d
       -0.024932275 0.008189781 -0.013354264 0.044992745

batch1.weight f4 [32]
000000 67 ee 46 3f c4 54 6c 3f 7c 5d 90 3f 70 11 bc 3f
       0.77707523 0.9231684 1.1278529 1.4692822
000010 24 75 2e 3f 18 13 c7 3e 21 5a 38 3f 52 4c 9f 3f
       0.6814749 0.38881755 0.72012526 1.2445166
000020 90 95 b7 3f e5 c6 0d 3f 2d 8b 5a 3f 0a 42 3c 3f
       1.4342518 0.55381614 0.85368615 0.7353827
000030 bd 87 ce 3e 36 e2 9c 3f 45 4d 04 3f b5 26 d9 3f
       0.40337935 1.2256534 0.51680404 1.6964937
000040 b7 eb 73 3f d3 0f 81 3f c9 93 a9 3f 3b 97 be 3f
       0.9528155 1.0082954 1.3248225 1.4889902
000050 55 0a cd 3f 57 e7 ac 3f fe ad 98 3f 98 bd 3d 3f
       1.6018778 1.3508099 1.1928098 0.7411742
000060 0d ad 01 3f 62 88 7c 3f 27 74 b5 3f 38 0e aa 3f
       0.5065468 0.98645604 1.4176072 1.3285589
000070 09 ed 4f 3f 28 df 12 3f bd 74 a3 3f 1d 06 bc 3e
       0.8122106 0.5737176 1.2770001 0.36723414

batch1.bias f4 [32]
000000 91 3d 33 be aa 72 05 3d fd 91 0e be 23 95 d9 3c
       -0.17503954 0.032580055 -0.13922878 0.026560372
000010 b6 1b 1d be f2 ec 89 be 7d 66 2c be ea 50 30 be
       -0.15342602 -0.26938587 -0.16835971 -0.17218366
000020 56 9b 52 3c 51 11 ef bd 9b 19 b9 bd 26 31 20 be
       0.012854418 -0.11673225 -0.09038087 -0.15643749
000030 13 56 fe bc bb 3d 33 be bb ca 19 be 97 54 ef bc
       -0.031046903 -0.17504017 -0.15018742 -0.02921514
000040 f2 b3 08 3d 02 4f 9d be b7 f8 ad 3d 5d bd 5d 3d
       0.033374734 -0.3072434 0.08494704 0.05413567
000050 dd 6c cd be a0 23 ef be 46 95 53 be 61 a7 31 be
       -0.4012212 -0.46706867 -0.20662412 -0.17349006
000060 53 35 c7 bd 8e 28 cb 3e 4a 60 4f 3d 12 c5 36 3c
       -0.09726968 0.39679378 0.050628938 0.011155384
000070 a5 43 da bd 08 52 15 be 5b de 49 3d 25 d8 94 bd
       -0.106574334 -0.14582074 0.04928432 -0.07267789

batch1.running_mean f4 [32]
000000 05 6a b8 41 d9 d9 0d 41 0c a4 48 c1 7e ea 10 c1
       23.051767 8.865685 -12.5400505 -9.057249
000010 83 05 a2 41 fa 45 b1 41 7f 52 a5 41 47 2c 07 3e
       20.252691 22.159168 20.665281 0.13200484
000020 10 4f a6 c1 0a 58 a4 41 b4 ce 4c 41 8c 56 8f 41
       -20.788605 20.542988 12.800465 17.91726
000030 8e a2 86 41 20 eb 86 bf 62 cf b4 41 17 a1 85 c1
       16.829372 -1.0540504 22.601261 -16.703657
000040 27 81 7a c1 88 92 27 be 17 81 4a c1 4d eb 88 c1
       -15.656531 -0.16364491 -12.656516 -17.114893
000050 11 fc f8 c0 d9 d7 01 c2 33 3d 74 41 6d be ab 41
       -7.78077 -32.46079 15.264941 21.467981
000060 fd b4 a3 41 c3 c6 4e 40 13 72 1b c1 a5 88 20 c1
       20.463373 3.2308815 -9.71535 -10.0333605
000070 fa 35 43 41 d4 d1 97 41 fe fc 8a c1 1e c6 7c 41
       12.200678 18.977455 -17.373531 15.798368

batch1.running_var f4 [32]
000000 a1 32 29 43 5b 10 ac 41 a3 d7 a9 42 ae 45 1c 42
       169.19777 21.507986 84.921165 39.068047
000010 e6 c7 f6 42 63 e3 cc 42 19 55 04 43 44 cd 41 42
       123.39043 102.444115 132.33241 48.450455
000020 dc 05 50 43 ff 6d f1 42 fd 31 9b 42 a6 44 e6 42
       208.02289 120.714836 77.59763 115.13408
000030 20 d0 97 42 38 6a 1d 42 fb 2b 02 43 ae 3d 87 42
       75.906494 39.35373 130.1718 67.62047
000040 5c a3 b3 42 c8 a3 fd 41 28 a8 95 42 e7 27 d3 42
       89.81906 31.704971 74.82843 105.577934
000050 b8 67 c0 42 85 fa 3d 43 fd 1a 32 42 98 ce 12 43
       96.202576 189.97859 44.526356 146.807
000060 37 95 ee 42 30 4d 26 42 db 9d 52 42 52 f9 1c 42
       119.291435 41.57538 52.654156 39.243477
000070 a4 65 a3 42 e5 6b e9 42 d6 97 15 43 3b 03 8d 42
       81.69852 116.71073 149.59311 70.50631

conv3.weight f4 [32, 32, 5]
000000 d1 c7 6c 3e de 65 78 3e 5f 58 0b 3e 66 75 89 3e
       0.23123099 0.24257609 0.1360793 0.2684738
000010 f0 b4 4d 3e 6b a3 f8 bd 8d f5 2e be 13 c9 f7 bd
       0.20088553 -0.121405445 -0.17085858 -0.12098899
000020 67 1b 20 bd e4 d1 b2 bc a5 12 26 3d d9 eb 56 3d
       -0.039088633 -0.0218286 0.040545125 0.052471016
000030 66 42 92 3d 21 8b 19 3d 9c 64 57 3d a5 d2 a4 bd
       0.07141571 0.0374862 0.052586183 -0.0804799
000040 d3 01 1e be fb 66 3f be 1e aa c5 bd cf 13 2a be
       -0.15430383 -0.18691628 -0.09651588 -0.16609119
000050 b9 11 51 3e 1d 3c 14 3e 6e 92 59 3e 68 91 26 3e
       0.20416917 0.14476056 0.21247265 0.16266406
000060 74 f9 88 3e b9 dd f4 3c 4d b6 03 bd 24 a6 a5 bc
       0.26752818 0.029890882 -0.032156277 -0.020220824
000070 3f 72 ae 3d fc 35 9e bb b6 a5 69 3e 03 a9 14 3e
       0.085178845 -0.004828213 0.2281712 0.14517598
000080 ea 10 3e 3e 7a 13 84 3e 80 5f 42 3e 1e d7 a5 3c
       0.1856114 0.2579611 0.18981743 0.020244177
000090 2d b7 54 bd 62 6d bc bc 04 b9 d5 3c 4f 0d 19 bd
       -0.051932503 -0.023001377 0.026089199 -0.037366208
0000a0 27 74 cc bc c8 f4 a1 bb 8d 8a 98 bc 44 c1 41 3d
       -0.02495773 -0.0049425103 -0.018620754 0.047303453
0000b0 d1 02 f6 3b 0f 70 65 3e dc 9c 1f 3e ad 3c 04 3e
       0.00750766 0.22406028 0.15587181 0.12913771
0000c0 68 e4 d0 3d ed 73 e1 3d 00 da 8a 3e 8e c6 93 3e
       0.10199815 0.11008439 0.27119446 0.28862423
0000d0 cc 98 4a 3e 73 a4 85 3e 5b a2 42 3e 5b 14 7d 3e
       0.1978485 0.26102027 0.19007246 0.24714796
0000e0 26 1d 61 3e 33 b6 85 3e cd 91 64 3e 50 cb 33 3e
       0.21983775 0.2611557 0.22321244 0.17558026
0000f0 f3 80 67 3d ad f3 37 3e e0 59 37 3e 97 76 3a 3d
       0.05651946 0.17964049 0.17905378 0.045523252
000100 19 ab 1c 3d 09 f6 9a 3d 72 37 ea bd 33 0f f3 bc
       0.03824911 0.07566459 -0.114363566 -0.029670333
000110 27 f2 69 bd 0f bc 64 bd 7f 2f c1 3d dc 26 12 3e
       -0.0571157 -0.05584341 0.09432887 0.14272636
000120 99 b5 37 3e 9a 56 f1 3d 50 dd e4 3d a9 9e 25 be
       0.17940368 0.11784096 0.111750245 -0.16173805
000130 51 bd b3 bd d6 da b5 bd 1e 4d b6 bd 83 e3 c1 bd
       -0.087763436 -0.0887963 -0.08901428 -0.094672225
000140 33 d5 7f bd 84 1b 93 bd 0d 72 2d bc c2 7d cf bc
       -0.062459182 -0.071829826 -0.010586274 -0.02532852
000150 6b 07 b5 bd fd 04 bc bd 40 9e 91 bd c0 0f 7f bc
       -0.088393055 -0.09180639 -0.07110262 -0.01556772
000160 74 23 41 3b ad b1 ca 3c 01 99 45 bc 83 7e bf bd
       0.0029470595 0.024742926 -0.012060405 -0.09350302
000170 a7 c6 95 bd 01 33 16 be 62 b4 17 be fb 4e f4 bd
       -0.073132806 -0.14667894 -0.14814904 -0.11929127
000180 af ce 29 be 1b 1a 35 be 1c 5f 4e be 81 36 8b be
       -0.1658275 -0.1768574 -0.20153469 -0.2719002
000190 1d ef 40 3c 49 5e b0 3d 2f 58 f1 3b 7e 04 b3 3d
       0.011775759 0.086117335 0.0073652486 0.08741091
0001a0 d3 cd ce 3c ff db 17 be 12 45 1d be 39 09 34 be
       0.025244629 -0.14830016 -0.1535838 -0.17581643
0001b0 fe 9d 27 be 03 9b 11 be 6d d2 2f be d2 a5 2d be
       -0.16368863 -0.14219289 -0.17170115 -0.16957787
0001c0 2e 6f ff bd 47 96 fa bd 1f 69 e1 bd 26 d5 1b 3e
       -0.12472378 -0.122356944 -0.110063784 0.15218028
0001d0 a1 1e 42 3e d0 9b 24 3e eb d6 2f 3e 8c 2e 3d 3e
       0.18956997 0.16075063 0.17171828 0.18474787
0001e0 a2 0f a0 3d 49 14 39 3e ac 0d fd 3d 77 bf c5 3d
       0.07815482 0.18074144 0.12356123 0.0965566
0001f0 98 ae 2d 3e ea aa 5e 3e 8f 02 17 3e 22 b8 ea 3d
       0.16961133 0.21744886 0.1474707 0.11460902
000200 c9 5e c6 3d a9 f8 b4 3d 98 22 17 3d 98 d2 24 3d
       0.096860476 0.08836491 0.036898226 0.0402399
000210 57 91 0c bc 65 50 3c bd 61 a8 94 bd e2 ce da bd
       -0.008579574 -0.045975108 -0.07258678 -0.10683991
000220 fb 65 dc bd f3 6e 8b bd 0d 59 f0 bd 8d f8 7f be
       -0.10761639 -0.06808271 -0.11735735 -0.24997158
000230 52 42 84 3e 6d 3c aa 3e 14 dc 75 3e 54 db 92 3e
       0.25831848 0.33249226 0.24009734 0.2868296
000240 e3 a8 14 3e ef 80 1b 3e c4 af 69 3e be 8c 15 3e
       0.1451755 0.15185903 0.22820956 0.1460447
000250 16 31 63 3e 78 52 c5 3d 93 d3 0b 3b 29 25 3d bd
       0.22186694 0.0963487 0.0021335825 -0.046178017
000260 79 31 08 bd 74 35 e6 bc 0e e5 a9 bd 6f dd 45 bc
       -0.033250306 -0.02810166 -0.08295642 -0.01207672
000270 19 6e 2b 3e 84 6e 13 3e e2 e4 7e 3d f2 60 b1 3d
       0.16741218 0.14397627 0.06223 0.08661069
000280 ef 2f 34 be 9e be 6d be 17 bc 45 be 17 3d 86 be
       -0.1759641 -0.23217246 -0.19310032 -0.26218483
000290 1b dc 27 be fe 3d 7f bd eb d0 6d bd b7 cf c6 bd
       -0.16392557 -0.06231498 -0.058060568 -0.09707587
0002a0 04 97 1e be 1a 40 12 be cb 60 40 be 51 13 8e 3b
       -0.15487295 -0.14282265 -0.18786924 0.004335799
0002b0 42 ff 40 3c d3 40 02 be f6 09 67 bd e4 fd d2 be
       0.011779608 -0.12720041 -0.056405984 -0.41209328
0002c0 bd 43 f5 be b2 25 e9 be 45 5e cf be 5b 7e 95 be
       -0.47903243 -0.45536572 -0.4050161 -0.29197964
0002d0 9f 95 0b be 86 87 44 be 19 00 56 be 91 64 1e be
       -0.13631295 -0.19192323 -0.20898475 -0.1546805
0002e0 37 dd f6 bd b5 8c 81 3c 46 b5 a3 3d 49 a5 ff 3d
       -0.12053912 0.015814165 0.079935595 0.124826975
0002f0 55 f4 fb 3d 69 0f 2c 3e 43 62 07 be fc 14 f2 bd
       0.12302462 0.16802754 -0.13221078 -0.11820409
000300 e5 67 13 be ed 73 42 be 72 e1 1c be a0 31 8d 3d
       -0.14395101 -0.18989535 -0.15320376 0.06894231
000310 fd ba 96 bd 87 fb 3b be 5f 23 d0 bd 6e 5d 90 3d
       -0.07359884 -0.18357669 -0.101629965 0.0704907
000320 b5 a7 fe be 15 0d d7 be 28 7d 99 be d7 a0 94 be
       -0.49737325 -0.42002168 -0.299783 -0.2902896
000330 bc a3 8d be cc b5 5e be 4b 53 45 be ed 3a ac bd
       -0.27663982 -0.21749038 -0.19270055 -0.08409677
000340 fe 48 3e be b8 26 bd bd 33 30 34 be 3c 0f 4c be
       -0.18582532 -0.09235901 -0.17596512 -0.19927686
000350 0a 59 a3 bd 75 ff e4 bd 1f 5c 51 bd fe 47 49 be
       -0.07975967 -0.11181537 -0.051113244 -0.19656369
000360 0d ee 95 bd 47 29 0a be 3f dc 4d be ef 09 1e be
       -0.07320795 -0.13492309 -0.20103548 -0.15433477
000370 c5 85 37 3d 63 c0 97 bd 8e cc 2f bd a6 1d 82 3c
       0.044805307 -0.07409742 -0.042919688 0.015883278
000380 9c 19 f5 bc df 07 84 3e e4 06 86 3c a3 4a be bc
       -0.029919438 0.25787255 0.016360708 -0.023228949
000390 da 66 82 bc 0c b0 a0 3d e6 c2 3c bd 08 2a 7f bd
       -0.015918184 0.07846078 -0.046084307 -0.062295943
0003a0 8e ce 1e bc e7 53 c9 bd 7b 37 26 bd d3 0f 79 3e
       -0.009692801 -0.09830456 -0.040580254 0.24322443
0003b0 76 22 eb 3e 76 db 19 3f 92 fc e7 3e 02 dc 8c 3e
       0.4592473 0.60100496 0.45309883 0.27511603
0003c0 81 a3 c7 3e 2e a6 e4 3e b5 6e 99 3e 5b ef 9c 3e
       0.3899193 0.44658035 0.29967275 0.30651364
0003d0 71 72 87 3e f3 a6 7a 3d a5 3a ff 3d ac 42 88 3c
       0.264545 0.06119437 0.124623574 0.016633354
0003e0 7f 18 37 3e 47 8c 6e 3e 9d b5 0a bf 05 19 f8 be
       0.17880438 0.23295699 -0.5418337 -0.48456588
0003f0 24 22 dc be 4f 0a c1 be 94 ed b2 be fb fb db 3e
       -0.42994797 -0.37703177 -0.34946883 0.42965683

conv3.bias f4 [32]
000000 86 8d 3c 3d 41 aa 3f 3d fe 49 89 bb 98 f2 87 3d
       0.046033405 0.046793226 -0.0041897288 0.06638068
000010 15 3f 2e bd 46 3d 31 3d ca b4 a9 3d f9 bb 11 bc
       -0.04254063 0.043271326 0.08286436 -0.008894914
000020 d6 b3 3d bd 72 cd a9 3d c5 c0 86 3d c1 a0 b8 3c
       -0.046314083 0.08291139 0.065797366 0.022537591
000030 25 c0 51 3d d9 71 58 3d ad 6b ec bc ad 1c 5e bc
       0.051208634 0.05284295 -0.028859938 -0.0135566415
000040 39 25 05 3c 8b b7 f8 bc 97 8f c0 bc 35 a3 d2 bd
       0.00812655 -0.030360958 -0.023505969 -0.102850355
000050 aa 3a 55 bc 6d a0 80 3d c6 f8 78 bd bf fb 0b 3d
       -0.013014475 0.06280599 -0.060784124 0.03417563
000060 99 d0 a8 3d 06 fc 74 3d f2 e8 16 3d fa 68 b5 3c
       0.08242912 0.05981066 0.036843248 0.022144783
000070 b8 f1 43 bd ed 5c 7c bd 44 67 94 bc fe 03 82 3d
       -0.047837943 -0.06161206 -0.018115647 0.06348418

batch2.weight f4 [32]
000000 b5 cb af 3f 51 4b 81 3f 75 d9 51 3f 8f f9 80 3f
       1.3734041 1.010111 0.8197244 1.0076159
000010 f7 d3 89 3f 46 43 75 3f 25 76 62 3f ee 2f 82 3f
       1.0767812 0.95805776 0.88461524 1.0170877
000020 31 c8 8b 3f 90 b6 9c 3f 62 83 b4 3f 98 d1 a0 3f
       1.0920469 1.2243214 1.4102595 1.2563963
000030 7b ee 8e 3f 4f c4 a7 3f 3f 78 97 3f 6c 50 67 3f
       1.1166528 1.3106784 1.1833571 0.9035709
000040 28 ca 79 3f 27 bd 1b 3f 12 40 1c 3f 79 ae 26 3f
       0.9757409 0.608355 0.61035264 0.65109974
000050 57 67 86 3f bd f2 b1 3f ab 67 81 3f a3 64 39 3f
       1.0500287 1.3902203 1.0109762 0.72419184
000060 3c 09 75 3f 1a 31 02 3f 62 d7 31 3f f6 9d 97 3f
       0.95717216 0.50856173 0.69469273 1.1845081
000070 95 a3 c2 3f fa 12 87 3f be fe 2b 3f c1 21 6f 3f
       1.5206171 1.0552666 0.6718558 0.9341088

batch2.bias f4 [32]
000000 2e e4 d4 bc 5e 0f 83 be d8 89 9a be d8 8f 2c be
       -0.02598771 -0.25597662 -0.3018329 -0.16851747
000010 d3 9a b9 be d1 21 c7 be f2 6a 61 bd 25 01 80 be
       -0.36250934 -0.38892987 -0.05503363 -0.25000873
000020 db 66 39 be 7d ab 80 3d 06 34 8d bc 9c 57 c1 bb
       -0.18105642 0.06282709 -0.01723672 -0.0059003364
000030 a4 14 42 be fd bc 3f bd 86 d7 d8 bd 84 29 6a be
       -0.18953186 -0.046811093 -0.10587983 -0.228674
000040 7e e4 98 be 7a dd d5 be ac 12 af be 01 fb 60 be
       -0.29861826 -0.41770536 -0.34193933 -0.2197075
000050 47 c6 97 be e1 db 18 bc c9 12 4e be 9a 0d 9d be
       -0.2964346 -0.009329767 -0.20124353 -0.3067444
000060 33 40 f1 be 6a 88 00 bf 7a d8 98 be 69 83 43 bd
       -0.47119293 -0.5020815 -0.2985266 -0.047732744
000070 c0 91 2f be 5f 8f bb be dc 2a bd be 4d 31 e3 be
       -0.17145443 -0.3663282 -0.36946762 -0.4437355

batch2.running_mean f4 [32]
000000 7c e8 a4 3e e7 41 98 c0 4a ac e1 c0 eb 17 97 c0
       0.32208622 -4.7580447 -7.0522814 -4.7216697
000010 67 e3 2f c1 95 4a ae c0 50 8d 2c bf 52 7f 13 c1
       -10.993018 -5.4466043 -0.67403126 -9.218584
000020 3f 9e 0a c1 0e 74 e0 bf 73 82 9f 3d fc a5 ae bf
       -8.663634 -1.7535417 0.07788553 -1.3644404
000030 2c ed 14 c1 b2 4d d0 bd ba 9f 41 c0 18 92 44 40
       -9.307903 -0.10171069 -3.025374 3.0714169
000040 8d d5 0b 3f e6 f0 6d 3f ea d6 f9 c0 a9 ed 6c 40
       0.5462273 0.92945707 -7.8074846 3.7020056
000050 f3 ab 20 c1 88 b8 3f 3f ee 72 05 c1 42 18 c5 c0
       -10.04198 0.7489095 -8.340559 -6.159211
000060 3e e3 9f 40 3d 1f c6 c0 fc 5a 30 c0 84 3c eb 3f
       4.9964895 -6.1913133 -2.7555532 1.8377843
000070 27 7d 85 41 12 fe 30 c1 d3 06 b3 c0 ec 89 ab c0
       16.68611 -11.062029 -5.594583 -5.360586

batch2.running_var f4 [32]
000000 af 1f 3c 42 14 f7 e1 41 63 7a 07 42 da 76 fa 42
       47.03094 28.245644 33.86952 125.23213
000010 b6 cc 6f 42 99 3b b4 41 c7 52 ee 41 57 c5 67 42
       59.949913 22.5291 29.790419 57.942715
000020 3d 8c 82 42 89 52 27 43 69 72 89 42 ae 22 16 43
       65.2739 167.3224 68.72346 150.13547
000030 d0 66 85 42 dd c6 a5 42 cd 4f ef 42 e1 11 fc 41
       66.700806 82.888405 119.65586 31.50873
000040 7e 37 f3 41 09 ca 41 42 f2 38 8e 42 03 ec 77 41
       30.402096 48.4473 71.11122 15.49512
000050 ba b7 80 42 73 7a aa 42 97 4a 75 42 c2 3b 38 42
       64.35884 85.23916 61.32284 46.058357
000060 69 e1 18 42 7d bb b1 42 c7 8e 39 41 98 12 3a 43
       38.220127 88.86619 11.597358 186.07263
000070 29 74 b8 42 59 20 7b 42 98 cc 8f 41 bb a6 e4 41
       92.226875 62.78159 17.9749 28.581411

fc1.weight f4 [50, 3136]
000000 c9 83 29 3f 84 a4 27 3f f3 4c 17 3f 9d ff ff 3e
       0.66216713 0.65485406 0.5910179 0.49999705
000010 f0 cf e6 3e b8 12 b7 3e 79 30 a5 3e 76 7a 89 3e
       0.4508052 0.3575647 0.32263544 0.26851243
000020 51 89 8f 3e 67 db 62 3e 41 ca 99 3e 2f 34 9a 3e
       0.28034452 0.22154008 0.3003712 0.30117938
000030 72 69 a7 3e 09 37 b5 3e 23 45 a8 3e d3 43 a1 3e
       0.32697636 0.3539355 0.32865247 0.31497058
000040 42 3f 9e 3e 26 40 6b 3e fe e0 65 3e 10 0d 7c 3e
       0.30907637 0.2297369 0.22449109 0.24614358
000050 ce a3 83 3e fe 4d 7d 3e 4c 15 25 3e 63 b6 bb 3d
       0.2571091 0.24736783 0.16121405 0.09165647
000060 03 af 00 3e 97 78 e4 3d 79 fe 24 3e da 5c 2d 3e
       0.12566762 0.11155813 0.16112699 0.16929951
000070 5b eb 26 3e 93 21 00 3e 65 c7 0f 3e ed a9 1b 3e
       0.16300718 0.12512808 0.14040907 0.1520154
000080 b6 0a 5d 3e de 53 66 3e 6e b6 66 3e da 04 50 3e
       0.21586117 0.2249293 0.22530529 0.2031435
000090 f7 39 56 3e e9 87 18 3e 58 17 dd 3d 95 43 0c 3e
       0.2092055 0.14895596 0.10795468 0.13697655
0000a0 1d 42 0d 3e 01 64 52 3e 78 c8 6e 3e 46 08 4a 3e
       0.13794751 0.20545961 0.2331866 0.19729719
0000b0 2c 99 3b 3e 20 c7 2e 3e 1e 22 33 3e 5c ab 2a 3e
       0.18320149 0.17068148 0.17493483 0.16666931
0000c0 2e 54 47 3e dd 33 32 3e 7e 65 45 3e 7b 78 3e 3e
       0.19465706 0.17402597 0.19276997 0.18600647
0000d0 75 5a 17 3e 3f 7b 96 3d 86 3b 89 3d 6d db a3 3c
       0.147806 0.07347726 0.06700806 0.020002091
0000e0 16 12 2f 3d 3d 8b c0 3d 3c 0d b6 3d 82 51 15 3e
       0.042741857 0.094015576 0.08889243 0.14581874
0000f0 00 8a 5b 3e d5 24 54 3e d7 b6 82 3e 2a b6 9e 3e
       0.21439362 0.20717175 0.2553012 0.30998355
000100 46 8b 9e 3e 4f 35 90 3e 6a 69 4c 3e af 1c 50 3e
       0.30965632 0.2816567 0.19962087 0.20323442
000110 2f fb 22 3e 8c 65 25 3e 79 12 5d 3e 71 b9 82 3e
       0.15916131 0.16152018 0.21589078 0.25532106
000120 b5 37 b7 3e c9 03 b3 3e 33 63 cb 3e 59 4e ef 3e
       0.3578469 0.34963825 0.3972412 0.46739462
000130 26 9e e7 3e 4c 75 d2 3e f2 7e af 3e d9 61 a5 3e
       0.45237845 0.41105115 0.3427654 0.32301214
000140 02 ea 96 3e ba 3b 99 3e 06 ed 88 3e c8 7d 77 3e
       0.2947541 0.2992838 0.26743335 0.24169075
000150 cd 1a 75 3e 9a 38 85 3e 98 31 84 3e fc 8e 94 3e
       0.23936005 0.26019746 0.25819087 0.29015338
000160 2f b4 9a 3e cd 9b a4 3e ee 25 9b 3e 60 06 98 3e
       0.30215594 0.32150117 0.30302376 0.29692364
000170 f0 49 9a 3e 4d b3 91 3e 5c ec 9f 3e 66 1d b3 3e
       0.30134535 0.28457108 0.31235015 0.34983367
000180 a8 4c e0 3e c9 02 9f 3e 92 19 ba be 85 c1 d5 be
       0.43808484 0.31056812 -0.36347634 -0.41749206
000190 55 0a 57 be 58 a3 ef bd 70 1a 8a bd a9 72 d5 bd
       -0.21000035 -0.11701077 -0.06743324 -0.1042226
0001a0 51 e8 35 bc 03 22 81 3d ee 45 e8 3d 0a dc 4a 3e
       -0.011102752 0.06305315 0.11341463 0.198105
0001b0 fd a4 c0 3d 01 a6 c6 bc 72 0a 03 be 97 fd 4d be
       0.09406469 -0.024249079 -0.12796953 -0.20116268
0001c0 ab d3 7f be 60 3d 88 be aa 6f 82 be a6 6d 88 be
       -0.24983089 -0.26609325 -0.25475818 -0.26646155
0001d0 22 ee 22 be 75 4a 1c be 3b bb e3 bd 96 ac 8e bd
       -0.15911153 -0.15262778 -0.11119696 -0.06966512
0001e0 8f db 83 3c dd cb 13 3d 04 39 51 bd b2 f4 1c be
       0.016095905 0.03608309 -0.051079765 -0.15327719
0001f0 74 be 3f be 5f d9 2b be af 47 10 be 9c a7 ff bd
       -0.18724996 -0.16782139 -0.14089845 -0.12483141
000200 a8 cd 48 be 50 74 ac be 0b a8 cf be 87 90 ab be
       -0.19609702 -0.3368249 -0.40557894 -0.33508703
000210 6c f1 8f be 40 5f 6c be 11 e9 01 be da 86 55 bd
       -0.28113878 -0.2308321 -0.12686564 -0.052130558
000220 b8 4f 54 3d cf 9a 24 3e 7b 6c 83 3e 1c 8f 34 3e
       0.05183384 0.1607468 0.25668702 0.17632717
000230 a8 9d 8e 3c a6 7a 2c be 2a ea 97 be f5 e5 b6 be
       0.01740916 -0.16843662 -0.2967084 -0.35722318
000240 c8 f4 5e be 80 c9 24 bc c4 31 07 3d 8f 39 ed 3d
       -0.21773064 -0.010057807 0.033006445 0.11583244
000250 e5 21 11 3e 9e 19 1d bb 91 80 fc bd ff a1 12 be
       0.14173086 -0.0023971568 -0.123292096 -0.14319609
000260 cb 4f 29 be 9f c2 ec bd 2c 25 7f bb 05 25 b6 ba
       -0.16534345 -0.115605585 -0.0038932068 -0.0013896531
000270 70 80 05 bd 03 99 f1 bd 96 ef fe bd eb c6 1e be
       -0.03259319 -0.11796763 -0.12448041 -0.15505569
000280 51 bd 84 be cc 3e a5 be 9e a3 d0 be a6 2f be be
       -0.25925687 -0.32274473 -0.4074983 -0.37145728
000290 7f c0 8d be c8 eb 1c be 8e 96 5a bd b8 82 c2 bc
       -0.27685925 -0.15324318 -0.053366236 -0.023743972
0002a0 37 25 8c bd a0 3d 57 bc df 49 f7 3c 33 b2 60 3c
       -0.06843036 -0.013137251 0.030186592 0.013714361
0002b0 73 25 5b 3c 19 f2 34 3d d7 c5 d2 3b 6b 5f 11 bd
       0.013375628 0.044176195 0.0064322758 -0.03549139
0002c0 4a c7 39 3d eb c6 2c 3e af b2 69 3e fa f8 12 3e
       0.045356072 0.16872756 0.22822069 0.1435279
0002d0 ee ae bf bd 43 ce 4d be e1 27 44 be 95 31 45 be
       -0.09359537 -0.20098214 -0.19155838 -0.19257195
0002e0 aa 5a 93 be aa d2 b7 be 9a 4b b9 be 1d 51 7b be
       -0.2878011 -0.3590291 -0.36190492 -0.24542661
0002f0 e0 0b bd bd 6a 48 e8 bc cf 00 77 bb 51 1e cd bd
       -0.092307806 -0.028354842 -0.003768969 -0.10015548
000300 59 97 81 be da b2 f7 be 95 77 0c bf 2b a1 ee be
       -0.25310782 -0.4837864 -0.5486997 -0.46607336
000310 bc 47 6c be 9a 46 84 be f7 c8 82 be b9 74 53 be
       -0.2307424 -0.25835115 -0.2554395 -0.20649995
000320 cc 15 3a be 85 70 23 be 63 42 f3 bd 39 c2 d9 bd
       -0.18172377 -0.15960892 -0.11877897 -0.10632748
000330 3b 00 8b bc 6a 71 f4 3d 20 fb 14 3e 15 e4 d1 3d
       -0.016967883 0.119356945 0.14548922 0.10248581
000340 5d 24 db 3c 76 b5 e0 3c b9 a8 10 bc b9 10 8f bd
       0.026750738 0.027430277 -0.008829289 -0.069856115
000350 e3 ff c9 bd 0b f1 be bd 75 05 e9 bd a4 db b1 bd
       -0.0986326 -0.09323319 -0.11377994 -0.08684471
000360 09 67 a7 3b 21 9c 39 3d 6a 93 84 3d cb 15 ba 3c
       0.0051087183 0.04531491 0.064734295 0.02271547
000370 84 24 cb 3c 9f 73 7e bd a1 9d 2d bd 81 10 43 3d
       0.024797685 -0.062121984 -0.042386655 0.04762316
000380 f2 44 89 3d ce ea 93 3c 01 48 22 bd 37 8a 18 be
       0.067026034 0.0180563 -0.03961945 -0.14896475
000390 81 ec 49 be a1 55 62 be bd dd 48 be 8d 11 4f be
       -0.19719125 -0.22102977 -0.19615836 -0.20221539
0003a0 56 06 a3 bd 01 11 80 bc 0d d7 71 3d 7d 3a f0 3d
       -0.07960193 -0.015633108 0.05904298 0.11729906
0003b0 24 9f 2d 3e 30 aa 87 3d aa 61 89 bc 9f d5 11 bd
       0.16955239 0.066242576 -0.016770203 -0.035604116
0003c0 e0 40 c1 bd 02 c9 e2 bc 8e ca 48 bd 14 fa 11 3d
       -0.09436202 -0.027683739 -0.049021296 0.035638884
0003d0 78 ce da 3c a0 86 ad 3d 08 71 28 3d aa b0 80 bc
       0.02670978 0.08472943 0.04112342 -0.01570924
0003e0 82 3f c9 bc 2c dc 56 bd f4 9d 89 bc 6b 2f ca 3c
       -0.024566416 -0.052456066 -0.01679895 0.024680814
0003f0 f6 fa 3f 3d f5 13 6e 3d 4d eb 81 3a 7e b8 cb bc
       0.046870194 0.0581245 0.0009912044 -0.024868246

fc1.bias f4 [50]
000000 60 8a 24 3d 87 61 14 3d d1 ca 23 3d e3 52 79 bd
       0.040171027 0.03622582 0.039988343 -0.060870063
000010 7b 24 fa 3c 39 44 49 bd ee 4d 6c 3c 1d 43 bd bc
       0.030534973 -0.049137328 0.014422877 -0.023103291
000020 e8 f3 6f bd b5 40 1b 3d d6 67 0a 3e ed 35 19 bd
       -0.058582217 0.037903506 0.13516173 -0.037404943
000030 0b 48 a7 3d a4 2f 67 3d 67 2a 0e 3d 56 9b 79 bd
       0.08168038 0.056441918 0.034708407 -0.060939156
000040 26 85 11 3d 45 eb b9 3c 69 37 12 bd 93 5b 1f bd
       0.03552737 0.022695193 -0.035697374 -0.03890569
000050 74 55 f1 3c 43 53 26 bd c7 6d 41 bd ae 25 76 3d
       0.029459693 -0.04060675 -0.047223832 0.060094528
000060 47 2c 32 3d 0d 11 85 3d 37 f6 3f 3d f9 63 01 bd
       0.043499257 0.06497393 0.04686567 -0.031589482
000070 0e c0 79 bd e9 68 80 3d 3b 34 1e bd 52 39 e7 bc
       -0.060974173 0.0627001 -0.03862403 -0.028225575
000080 5e 24 13 bd 2e 19 7d 3c 25 f3 41 3d 78 e3 0f be
       -0.035923354 0.015447898 0.04735102 -0.14051616
000090 35 8f 92 bd 26 71 c0 3c e3 8f 11 3e 70 db 76 3d
       -0.07156221 0.023491453 0.14215045 0.060267866
0000a0 d0 f9 99 bb 5c cc 7e bd d5 44 14 be 7a 63 41 bd
       -0.0046989694 -0.06220661 -0.14479382 -0.04721401
0000b0 4d 33 aa 3d 24 87 04 3c 33 5b 8f bb c2 a7 16 3d
       0.08310566 0.008088861 -0.0043748855 0.03678108
0000c0 ba 01 29 3d 00 1b 63 bd
       0.041261412 -0.05544567
