DOMAIN_ADAPTION/C1_C2_experiments/experiments_full_mmd/D:I_soll_X/feature=D:I_soll_X_GAMMA=0.5_GAMMA_reduction1.0_num_pool=2_[True, True, False, True, True, True]/best_model/model_fc.pt (torch, 2207 bytes, 4 tensors)

fc2.weight f4 [3, 50]
00000000: eac8 443d ec15 d83d 04ee 4d3d a9d2 283e
00000010: 95bc 4b3f 98d0 d2be ec1a dcbd 3eb3 5b3f
00000020: c06c cd3e 3d38 0abe 8fcb fa3e d269 573e
00000030: 4ecf dd3e e337 4cbf c9c1 c73e c8f1 bdbe
00000040: c50c 55bc 1181 d9be 883c 22be 3e3f c4be
00000050: 9f42 9cbe ba40 2fbf 4787 e03c 5003 383e
00000060: d36d 693e 5fec 893e 961c d6be 909a 1fbf
00000070: 5a53 433e 695e 6e3e 4cdf 8cbe ad1d 633e
00000080: 15c1 553e 5111 0f3e 4e13 35bf 7740 f83e
00000090: b36e c73e a681 dabe 8868 b03e 9c08 883e
000000a0: bb29 0f3e 2c9c a3be eaa3 2b3e e9d0 5cbe
000000b0: 8190 babe 45d7 0b3f 60b2 213f 7ee2 923e
000000c0: 490a 683e 0266 a53e d7dc 48bd 4228 46be
000000d0: 1903 52be b59d 3dbe 481d 1cbf df9c c23e
000000e0: 44f4 ae3e fcdd 13bf 396e d2bd b71c 633d
000000f0: 1e7c 66be 7645 b33c 8da2 4ebe f5b1 0e3f
00000100: ccf8 0ebe 3008 083e 1be4 993d 5914 b73d
00000110: 3730 153b 8630 8dbd 71ce 003d 1df7 d53e
00000120: 215d 153e d23a 26be da66 5e3d 871a 6dbd
00000130: 5b98 d63d 8776 133e 655c 55be d5af 1cbe
00000140: a056 b33e 25fd 53be 4fca bf3d 1d44 9bbd
00000150: cf0f e43e e693 d1bd af32 acbd f53d 913e
00000160: 7eb6 f03d 0632 00be 24f8 6abd 7507 e6bc
00000170: 35a3 fe3c ec29 d03d bd71 343e 2230 8abe
00000180: a89f e3be f2f8 c4bd 9409 b6bd 3a8a 86bd
00000190: 0fac 4abe 705d a2bd 8a66 883d 5b6e 00be
000001a0: afac bfbd ce72 5cbd e627 793d 49ba bdbc
000001b0: cd64 993d be99 c03d 5cf3 4abd 7a67 3f3e
000001c0: 286d b5bd 4a59 bd3c ace2 cebb d3ba be3d
000001d0: 625d 553e 719f 1d3d 4210 7f3d 3c32 a2bb
000001e0: c440 163c fc9b 213d 81f4 733d a4c2 61bd
000001f0: d529 d7bb df55 d5bc 6c73 8bba 02ef 3abe
00000200: c128 5fbd 5052 2b3e d733 213d 5482 93bd
00000210: 3601 e83a 7cde 32bc b82d 6f3c a23d 54bc
00000220: 7872 2d3d b653 b53d 61be c23d d0c8 00be
00000230: bf3a 0a3d 86a0 233d 88d3 0fbd fb70 3b3d
00000240: 14ef b03d de0a b6bd ce92 13be 3804 873e
00000250: e3a3 a13d 0301 2abd
0.04804317 0.10551056 0.050275818 0.1648661 0.7958463 -0.4117477 -0.107473224 0.85820377
0.40122032 -0.13498016 0.48983428 0.21036461 0.43322223 -0.79772776 0.39015034 -0.37098527
-0.013003533 -0.42481282 -0.15843403 -0.383295 -0.30519578 -0.6845814 0.027408255 0.17970014
0.22795801 0.2693815 -0.41818684 -0.6234522 0.19074765 0.23278202 -0.27514112 0.22179289
0.20874436 0.1397145 -0.7073258 0.48486683 0.38951644 -0.4267704 0.3445475 0.26569068
0.13980763 -0.31955087 0.16761747 -0.21564068 -0.36438373 0.5462535 0.63162804 0.28688425
0.22660173 0.32304388 -0.049038734 -0.19351295 -0.20508994 -0.18517192 -0.6098218 0.38010308
0.34170735 -0.57760596 -0.102749296 0.055447306 -0.22508284 0.021883707 -0.20179196 0.5574029
-0.13962096 0.13284373 0.07514211 0.08939428 0.0022764334 -0.06894021 0.031446878 0.41790095
0.14586307 -0.16233376 0.054297306 -0.057886627 0.10478278 0.14400683 -0.20836027 -0.1530145
0.35027027 -0.20702036 0.09364759 -0.07581351 0.4454331 -0.102332875 -0.08408105 0.28367582
0.117535576 -0.12519082 -0.05736555 -0.028079728 0.031083683 0.10164246 0.17621513 -0.26989847
-0.44457746 -0.09617795 -0.08888546 -0.065693334 -0.19792198 -0.07927978 0.06660183 -0.12542097
-0.09359109 -0.053820424 0.060829066 -0.023160117 0.07489929 0.09404324 -0.04954849 0.18691817
-0.088587105 0.023113865 -0.0063136425 0.09312978 0.20836404 0.038482133 0.062271364 -0.004949836
0.009170715 0.0394554 0.05955935 -0.055117264 -0.006566266 -0.026041923 -0.0010639257 -0.18255237
-0.054482225 0.16730618 0.03935608 -0.072025925 0.0017700556 -0.010917302 0.014598303 -0.0129541475
0.042345494 0.08853857 0.09508968 -0.12576604 0.03374743 0.03994801 -0.03511384 0.045762043
0.086393505 -0.088887915 -0.1441147 0.26370406 0.07892587 -0.04150487

fc2.bias f4 [3]
00000000: eed1 14bf 74f2 b53e 6f10 b0bd
-0.5813283 0.3553654 -0.085968845

fc3.weight f4 [2, 3]
00000000: e133 0e3f 6806 113e ee5c 773e 9e9e 8dbe
00000010: f022 d33e 1eee 403e
0.5554791 0.141626 0.24156544 -0.27660078 0.41237593 0.18840834

fc3.bias f4 [2]
00000000: 4187 04bf c862 0a3f
-0.5176888 0.5405698
