DOMAIN_ADAPTION/experiments/feature=C:x_top_GAMMA=0.5_GAMMA_reduction1.0_num_pool=2_[False, False, False, True, True, True]_19_07_2022__00_27_42/best_model/model_fc.pt (torch, 2207 bytes, 4 tensors)

fc2.weight f4 [3, 50]
0.031420153 0.2717004 -0.24556208 0.0028420351 -0.3528839 0.26160836 0.36840075 0.90948564
1.9137504 0.52793527 -0.24145499 -2.0671985 0.17009017 0.045547824 -1.6480706 0.66657746
0.2968632 -0.12511252 -0.5086396 -0.21259996 -0.30436617 -1.6835446 -3.9104147 0.18843344
2.5210168 0.012887389 -1.643536 0.36435893 -0.18187325 -0.49868414 0.3976197 -0.42204773
1.2111998 0.9239707 1.4415345 0.11848687 -2.3355124 0.012333162 0.31701168 0.5582255
0.19005814 0.44585952 -0.31943703 0.35257316 -1.9350865 -1.5066743 -0.8509801 0.61349905
0.0021262004 -0.80539423 -0.02060015 0.16787386 0.13538595 0.10305071 -0.047177356 0.031059422
0.057467103 0.111797385 -0.24573407 -0.29218233 -0.23855813 0.1280643 0.39401907 -0.010989196
-0.055276953 -0.13099384 0.013537929 0.34521875 -0.056735817 -0.4259843 -0.01765458 0.0662236
0.82395196 0.49936783 -0.3135046 -0.22663301 0.15570924 0.04427513 -0.18602572 0.12696788
-0.11088205 -0.081957005 -0.07452962 -0.39776808 0.031078855 0.3087935 0.23651113 -0.11630347
0.067842215 -0.25962374 0.08719159 0.24097867 0.26325837 0.04593817 0.1604276 0.22901893
0.16415389 -0.113246694 -0.08408025 -0.23736405 -0.012023965 -0.35669 0.023599004 -0.015382744
-0.10472544 0.027470147 -0.009163943 0.15590486 0.11338077 0.030051922 0.073851235 0.068160295
-0.21647699 -0.05876779 0.013290675 0.048903544 -0.15653569 -0.18920799 -0.027465265 0.146475
0.07774245 -0.11075145 -0.17192106 -0.13385095 0.057853006 0.10557657 -0.08675861 -0.02686504
-0.03542579 -0.05018091 0.1983124 0.023172418 0.08496279 0.11331409 0.1877678 -0.1193142
-0.120935515 0.0005889085 0.0023828147 0.20527223 -0.020727903 0.005593494 -0.021489065 -0.028509108
-0.26265344 -0.12662378 -0.13496885 0.18128757 -0.07705437 -0.09664142
00000000: 6bb2 003d 511c 8b3e a074 7bbe 7041 3a3b
00000010: 33ad b4be 88f1 853e 069f bc3e 0dd4 683f
00000020: c6f5 f43f c426 073f fa3f 77be fb4c 04c0
00000030: 1e2c 2e3e 5b90 3a3d faf3 d2bf d2a4 2a3f
00000040: 74fe 973e 7f1d 00be 3436 02bf ceb3 59be
00000050: e2d5 9bbe 647e d7bf 3c44 7ac0 b2f4 403e
00000060: 5758 2140 a125 533c 635f d2bf 418d ba3e
00000070: fb3c 3abe 8753 ffbe cf94 cb3e a416 d8be
00000080: 9808 9b3f 5889 6c3f 3484 b83f 3ea9 f23d
00000090: 0979 15c0 0811 4a3c 5b4f a23e dee7 0e3f
000000a0: 9a9e 423e b347 e43e 408d a3be 7884 b43e
000000b0: eab0 f7bf b4da c0bf d5d9 59bf 460e 1d3f
000000c0: b957 0b3b 512e 4ebf a5c1 a8bc 20e7 2b3e
000000d0: 9da2 0a3e 400c d33d 0b3d 41bd 5470 fe3c
000000e0: a062 6b3d 07f6 e43d b6a1 7bbe ec98 95be
000000f0: 9548 74be 4a23 033e debc c93e 070c 34bc
00000100: 166a 62bd 4023 06be 31ce 5d3c 83c0 b03e
00000110: d163 68bd 9d1a dabe 56a0 90bc 3da0 873d
00000120: 84ee 523f 24ad ff3e ad83 a0be 7c12 68be
00000130: 3e72 1f3e d759 353d 877d 3ebe de03 023e
00000140: 2116 e3bd 13d9 a7bd fca2 98bd 42a8 cbbe
00000150: 1599 fe3c 2e1a 9e3e f92f 723e 8430 eebd
00000160: dcf0 8a3d 67ed 84be 8191 b23d 1dc3 763e
00000170: cdc9 863e aa29 3c3d 2247 243e f083 6a3e
00000180: f517 283e e2ed e7bd 4432 acbd 900f 73be
00000190: 2a00 45bc 12a0 b6be b352 c13c e807 7cbc
000001a0: 4b7a d6bd 1309 e13c 5d24 16bc 86a5 1f3e
000001b0: 2d34 e83d 732f f63c 513f 973d a097 8b3d
000001c0: 25ac 5dbe 7fb6 70bd 22c1 593c 154f 483d
000001d0: e44a 20be bdbf 41be d6fe e0bc 8bfd 153e
000001e0: 6f37 9f3d a8d1 e2bd 130c 30be 3910 09be
000001f0: 46f7 6c3d 8738 d83d 80ae b1bd 1314 dcbc
00000200: a21a 11bd 7f8a 4dbd 6812 4b3e 15d4 bd3c
00000210: f900 ae3d 3811 e83d 3446 403e 015b f4bd
00000220: 0aad f7bd fb60 1a3a ff28 1c3b e232 523e
00000230: 90cd a9bc a149 b73b d609 b0bc ef8b e9bc
00000240: 837a 86be aaa9 01be 4635 0abe 73a3 393e
00000250: aece 9dbd f0eb c5bd

fc2.bias f4 [3]
-0.27752423 -0.13460873 0.18831949
00000000: a817 8ebe dfd6 09be d3d6 403e

fc3.weight f4 [2, 3]
-0.66613406 -0.042011946 0.41457468 0.91009086 0.098541595 0.4835394
00000000: c387 2abf b814 2cbd 2243 d43e b7fb 683f
00000010: 2dd0 c93d 7a92 f73e

fc3.bias f4 [2]
0.08898494 -0.09792586
00000000: bc3d b63d 5a8d c8bd
