DOMAIN_ADAPTION/P_C1_vs_C2_C3/no_mmd/feature=S:x_bottom_GAMMA=0.0_GAMMA_reduction1.0_num_pool=2_[False, False, False, False, False, True]_15_07_2022__02_57_08/best_model/model_cnn.pt (torch_old, 759558 bytes, 16 tensors)

conv1.weight f4 [64, 1, 100]
0	0xbe9eb33f	-0.3099613
1	0xbf1f3b1d	-0.62199575
2	0xbf246b35	-0.64226085
3	0xbf31ca0f	-0.6944894
4	0xbf62448c	-0.88385844
5	0xbf5a9f3e	-0.85399234
6	0xbf40e58f	-0.7535028
7	0xbf28ea8d	-0.65982896
8	0xbf125deb	-0.5717456
9	0xbed9d8bd	-0.4254817
10	0xbec6b61b	-0.3881081
11	0xbeab640c	-0.33474767
12	0xbef4b717	-0.47795936
13	0xbe9fccf0	-0.31211042
14	0xbeb4430e	-0.3520741
15	0xbf0cd47f	-0.55011743
16	0xbf028749	-0.5098768
17	0xbf0c04e4	-0.5469496
18	0xbf26515e	-0.64967906
19	0xbf259c83	-0.6469194
20	0xbf0a9cec	-0.54145694
21	0xbf0e9e8a	-0.5571066
22	0xbf22015d	-0.6328333
23	0xbf14cfd1	-0.581296
24	0xbf0031a2	-0.50075734
25	0xbf08c901	-0.5343171
26	0xbee11152	-0.43958527
27	0xbe3a6966	-0.18204269
28	0xbdccfe03	-0.100093864
29	0x3deb9d53	0.115046166
30	0x3dc33db6	0.09533255
31	0x3dd14929	0.10219032
32	0x3dea05db	0.11426898
33	0x3d00ba2d	0.03142755
34	0xbe4079d8	-0.1879648
35	0xbe7cc723	-0.2468534
36	0xbeb38730	-0.35064077
37	0xbed02b79	-0.40658167
38	0xbee81452	-0.45328003
39	0xbecb416e	-0.39698356
40	0xbedb1877	-0.42792103
41	0xbeb87407	-0.36026022
42	0xbeaf6757	-0.3425853
43	0xbe95af0c	-0.29235113
44	0xbdce8ec6	-0.100858256
45	0xbddf1575	-0.108927645
46	0x3db4dd49	0.08831269
47	0x3e000ce3	0.12504916
48	0x3e20b327	0.15693341
49	0x3e5d1a6e	0.21592113
50	0x3ecce9d2	0.4002214
51	0x3e80d722	0.25164133
52	0x3e9bf859	0.30462912
53	0x3e26b016	0.16278109
54	0x3e2827e2	0.16421464
55	0xbdec7641	-0.11545993
56	0xbd731f5f	-0.05935609
57	0xbe3ade92	-0.18248966
58	0xbe8f4d62	-0.27988726
59	0xbe79fce2	-0.24412873
60	0xbe8fe6db	-0.28105816
61	0xbe99817b	-0.29981598
62	0xbedf364f	-0.43596122
63	0xbeee32c0	-0.46523094
64	0xbeed5eb1	-0.46361306
65	0xbe8bc5a0	-0.27299213
66	0xbeaf6176	-0.34254044
67	0xbe3074dd	-0.1723208
68	0xbcc38bd8	-0.023870394
69	0x3e6da390	0.23206925
70	0x3e3b0561	0.1826377
71	0x3e8416c7	0.25798628
72	0x3e9113f5	0.28335539
73	0x3ea7a034	0.32739413
74	0x3df28080	0.11840916
75	0x3df6ae32	0.12044944
76	0xbdbc7dfe	-0.092037186
77	0xbe7e5291	-0.24836184
78	0xbed38e35	-0.41319433
79	0xbf2257d8	-0.6341529
80	0xbf3e9ef5	-0.744613
81	0xbf7f1e77	-0.9965586
82	0xbf818eb5	-1.0121676
83	0xbfa758e5	-1.3074003
84	0xbfa58f15	-1.293429
85	0xbfa0eb8e	-1.2571886
86	0xbfb0eded	-1.3822609
87	0xbf9b55be	-1.2135541
88	0xbf915ee8	-1.1357088
89	0xbfa455ed	-1.2838722
90	0xbf98a61a	-1.192569
91	0xbfa731f3	-1.3062118
92	0xbf87b42d	-1.060186
93	0xbf75f384	-0.960747
94	0xbf2b7a82	-0.6698381
95	0xbf16e53c	-0.58943534
96	0xbed63da7	-0.41843912
97	0xbeba89d8	-0.3643329
98	0xbea5197a	-0.32246
99	0xbe81bddc	-0.25340164
100	0x3e93dbef	0.28878734
101	0x3e842929	0.25812653
102	0x3e8145bd	0.2524852
103	0x3eda149a	0.42593843
104	0x3ec8d67b	0.39226136
105	0x3ee08a49	0.43855503
106	0x3eb68c69	0.35654
107	0x3ebf392b	0.37348303
108	0x3e9c439f	0.3052034
109	0x3ea7252c	0.32645547
110	0x3ea7f00f	0.32800338
111	0x3e9d8b61	0.307704
112	0x3e2eb879	0.17062558
113	0x3e36476d	0.17800684
114	0x3d7fbeca	0.06243781
115	0xbda912f9	-0.08255572
116	0xbe19dafb	-0.1502494
117	0xbea0a038	-0.31372237
118	0xbeadbfe0	-0.33935452
119	0xbebae40c	-0.3650211
120	0xbedf322c	-0.43592966
121	0xbecb2023	-0.39672956
122	0xbf056dfc	-0.5212095
123	0xbef4e558	-0.47831225
124	0xbf05206c	-0.52002597
125	0xbeb9093a	-0.36139852
126	0xbee3c349	-0.44484928
127	0xbee3f362	-0.44521624
128	0xbeb81f43	-0.3596135
129	0xbe43f84e	-0.1913769
130	0xbe0b0be1	-0.1357875
131	0xbe0b40f1	-0.13598992
132	0xbe035c5a	-0.12828198
133	0xbda657a3	-0.08122184
134	0xbd4d6597	-0.05014571
135	0xbdbe2a1c	-0.092853755
136	0xbe638259	-0.22217692
137	0xbe328608	-0.17433941
138	0xbe80e6b6	-0.25176018
139	0xbe6c572a	-0.23080125
140	0xbe026ac0	-0.12736034
141	0xbddcd4e1	-0.10782791
142	0xbd570951	-0.05249912
143	0x3dab9038	0.08377117
144	0xbd30d64c	-0.04317312
145	0x3de56a80	0.11201954
146	0xbb79cc3c	-0.0038116118
147	0x3dc29e47	0.09502845
148	0x3d704161	0.0586561
149	0x3d99b349	0.07504899
150	0x3e0715a8	0.13191855
151	0x3e36924f	0.1782925
152	0x3cc090e4	0.02350659
153	0x3d8a6530	0.06757581
154	0x3a582ac2	0.00082461175
155	0x3d6a1039	0.057144377
156	0xbd15bc10	-0.036556304
157	0xbe395057	-0.18097053
158	0xbe0cd937	-0.13754736
159	0xbded8ee3	-0.11599519
160	0xbe7193c4	-0.23591524
161	0xbe717ad4	-0.23582011
162	0xbe4050e5	-0.18780859
163	0xbe8c5862	-0.2741118
164	0xbe8900e6	-0.26758498
165	0xbdf8a0da	-0.12140055
166	0xbe5a2c41	-0.21305944
167	0xbe089a7d	-0.13340183
168	0xbe5e66c8	-0.21718895
169	0xbc506a10	-0.0127206
170	0xbdc552a3	-0.09634902
171	0xbda3c4b8	-0.079965055
172	0xbe166770	-0.14687896
173	0xbdcaf95b	-0.09910842
174	0xbe41b034	-0.18914872
175	0xbe77dca7	-0.24205266
176	0xbea2dd0f	-0.3180928
177	0xbee14322	-0.4399653
178	0xbec2ff59	-0.3808544
179	0xbed57193	-0.41688213
180	0xbe9b3d27	-0.30320093
181	0xbe859830	-0.26092672
182	0xbe7e7163	-0.24847941
183	0xbe83ab3a	-0.25716573
184	0xbd8f2192	-0.06988825
185	0xbd8d8062	-0.06909253
186	0xbe0389f9	-0.12845601
187	0xbdaa791f	-0.08323883
188	0x3d807e00	0.062740326
189	0x3e0a2774	0.13491613
190	0x3e0ee992	0.13956288
191	0x3e434db3	0.19072609
192	0x3dc1b826	0.09458952
193	0x3da43669	0.080181904
194	0xbd39e43a	-0.04538367
195	0xbdf6051b	-0.120126925
196	0xbe898475	-0.2685887
197	0xbed9871a	-0.42485887
198	0xbede2269	-0.43385628
199	0xbf1fa2cc	-0.62357783
200	0x3dd533c7	0.10410266
201	0xbc4f51a9	-0.012653747
202	0x3dd078d1	0.10179294
203	0x3d8474e7	0.0646761
204	0x3de31338	0.1108765
205	0x3de1f60a	0.11033256
206	0x3ddef546	0.10886626
207	0x3dbd2713	0.092359684
208	0x3d91f870	0.07127464
209	0x3d259f8f	0.04043537
210	0x3e1ac092	0.15112522
211	0xbbc7e806	-0.0061006574
212	0xbd3129f9	-0.04325292
213	0xbd1764b1	-0.03696126
214	0xb9d4085d	-0.00040442022
215	0xbde5841d	-0.11206839
216	0xbded1683	-0.115765594
217	0xbe4754f3	-0.19466
218	0xbe513246	-0.20429334
219	0xbe28be9a	-0.16478959
220	0xbe631da6	-0.22179279
221	0xbe92f214	-0.28700316
222	0xbeac8c5b	-0.33700833
223	0xbe8abfe1	-0.27099517
224	0xbeac9341	-0.33706096
225	0xbe4f10f9	-0.20221318
226	0xbe854217	-0.26026985
227	0xbe8771fc	-0.2645415
228	0xbe69389b	-0.227755
229	0xbe18ce34	-0.1492241
230	0xbe7c87ec	-0.24661225
231	0xbe8578dc	-0.2606877
232	0xbe0fcada	-0.14042225
233	0xbe1f06ba	-0.1552991
234	0xbe59e8f4	-0.21280271
235	0xbc49bcdb	-0.012313093
236	0xbdebb59c	-0.115092486
237	0xbe00d637	-0.12581716
238	0xbd5e8487	-0.054325607
239	0xbdee8e80	-0.116482735
240	0x3b4f1c55	0.003160258
241	0xbc216497	-0.009850643
242	0x3e2802ed	0.16407366
243	0x3cf41caa	0.029798824
244	0x3e624f62	0.22100595
245	0x3d887b7e	0.06664179
246	0x3e5b1db4	0.2139805
247	0x3e7f81b6	0.24951825
248	0x3e67f050	0.22650266
249	0x3e32ef9c	0.17474216
250	0x3de94c4e	0.11391507
251	0x3d004be5	0.03132238
252	0x3c054c2d	0.0081358375
253	0xbe44463b	-0.19167416
254	0xbe573230	-0.21015239
255	0xbe646823	-0.2230535

conv1.bias f4 [64]
0	0xbf2f6247	-0.68509334
1	0xbf3764e1	-0.71638304
2	0xbf3c3a0b	-0.73526067
3	0x3e4e2b08	0.20133603
4	0xbf264ca9	-0.64960724
5	0xbec218b0	-0.3790946
6	0xbf257f1f	-0.64647096
7	0xbecfbd9f	-0.40574357
8	0xbeda0042	-0.42578322
9	0xbf273662	-0.65317357
10	0xbf9d515b	-1.2290453
11	0xbfabfed3	-1.3437141
12	0xbf5c0f89	-0.85961205
13	0x3e884802	0.26617438
14	0xbe8ebc6a	-0.27878124
15	0xbf498498	-0.78717947
16	0xbf56f16a	-0.8396212
17	0x3eb76ea6	0.35826606
18	0x3f02ed4e	0.5114335
19	0xbdf71d8d	-0.12066183
20	0x3e21ecce	0.1581299
21	0xbe28456a	-0.1643273
22	0x3ef426f8	0.4768598
23	0x3e95b90c	0.29242742
24	0xbf2caf33	-0.6745483
25	0xbe1f3269	-0.15546574
26	0xbdb0e08b	-0.08636578
27	0xbe97230d	-0.2951893
28	0xbf017d7f	-0.50582117
29	0xbf3acc96	-0.72968423
30	0x3e032c81	0.12809946
31	0xbf3a930e	-0.7288064
32	0xbf01dfd8	-0.50732183
33	0xbeebced4	-0.46056235
34	0xbf4f1894	-0.8089688
35	0xbe8edc42	-0.27902418
36	0xbeb1fd89	-0.34763744
37	0x3e3c8dd7	0.18413483
38	0xbe80316f	-0.25037715
39	0xbf5cc17b	-0.8623273
40	0xbf595004	-0.8488772
41	0xbdf48165	-0.119387425
42	0x3e8c492a	0.2739957
43	0xbe5dd8a7	-0.21664678
44	0xbe300dea	-0.17192808
45	0xbf1bb9ae	-0.608302
46	0xbf8f0429	-1.1173145
47	0xbf41703f	-0.755619
48	0xbf7b1e0f	-0.9809274
49	0x3eea069c	0.45708168
50	0xbe31eb30	-0.17374873
51	0x3ea1cc43	0.31601152
52	0xbf2c0b72	-0.67204964
53	0xbf425c5b	-0.75922173
54	0xbea6122c	-0.3243574
55	0xbf0079f5	-0.5018609
56	0xbf38ea29	-0.722323
57	0xbf3f34c4	-0.7468989
58	0xbf7e1957	-0.99257416
59	0xbe1e1c1a	-0.15440407
60	0xbf1a543b	-0.60284775
61	0x3e0ca576	0.13734993
62	0x3f0dba4d	0.553624
63	0xbef1b6dd	-0.47209826

conv2.weight f4 [32, 64, 10]
0	0xc00376ca	-2.0541253
1	0xbfc548eb	-1.5412878
2	0xbf9dc182	-1.2324679
3	0xbf861a1c	-1.0476718
4	0xbf51b0da	-0.8191048
5	0xbeaa265c	-0.3323239
6	0xbc72bf02	-0.014816048
7	0x3e1cb5e6	0.15303764
8	0x3e1322a4	0.14368683
9	0x3d770205	0.06030466
10	0xbe90f12e	-0.28309005
11	0xbd80f82e	-0.062973365
12	0x3e8de617	0.27714607
13	0x3ee56415	0.4480292
14	0x3f09902e	0.53735626
15	0x3f17da79	0.5931774
16	0x3f09c57c	0.5381696
17	0x3ef5cfe1	0.48010162
18	0x3e69d047	0.22833358
19	0xbdc3c395	-0.09558789
20	0x3d916786	0.07099824
21	0x3e37b8fd	0.17941661
22	0x3e3eb8bb	0.18625157
23	0x3e3f4d36	0.18681797
24	0x3e861e1d	0.2619485
25	0x3e9d47eb	0.30718932
26	0x3cc5dc43	0.02415288
27	0xbe7ff6b5	-0.24996455
28	0xbed4abba	-0.41537267
29	0xbf2e1351	-0.67998224
30	0xbfbcb181	-1.474167
31	0xbf26c074	-0.6513741
32	0x3d002c5d	0.031292308
33	0x3e4a6413	0.19764738
34	0xbbba334c	-0.0056823846
35	0x3dbb8694	0.09156528
36	0x3e114940	0.14188099
37	0x3ed1e1c3	0.40992555
38	0x3f4c41da	0.7978798
39	0x3f8b4670	1.0880871
40	0x3d8f6e74	0.07003489
41	0x3dc64be7	0.09682446
42	0x3e024d14	0.12724715
43	0x3d90f5d9	0.07078142
44	0x3dada853	0.08479371
45	0x3d31a640	0.04337144
46	0xbc3ea880	-0.011636853
47	0xbcf63467	-0.030054284
48	0xbd7ff4c6	-0.062489294
49	0xbe1dd522	-0.15413335
50	0x3d29c460	0.041447043
51	0x3da6462a	0.081188515
52	0xbc246b53	-0.010035354
53	0x3c9aeb94	0.01891116
54	0xbcef2449	-0.029192107
55	0xbcbf8227	-0.023377491
56	0xbcbd8aef	-0.023137538
57	0xbdf1e193	-0.11810603
58	0xbdf0761a	-0.11741276
59	0xbe2a76b1	-0.1664684
60	0xbfb66d08	-1.4252024
61	0xbf49c259	-0.78812176
62	0xbd9dc1c8	-0.077029765
63	0x3e37e2f7	0.17957674
64	0xbdaca8af	-0.08430611
65	0xbebc52fe	-0.36782068
66	0xbe6eed13	-0.23332624
67	0x3e717d9b	0.23583071
68	0x3f5c4128	0.8603692
69	0x3fc2ce00	1.5219116
70	0x3d62a246	0.055330537
71	0xbc3278bd	-0.010893044
72	0xbddf71a3	-0.10910346
73	0xbdcb8ec1	-0.099393375
74	0xbdca9694	-0.09892002
75	0xbd945ba4	-0.072440416
76	0xbcdb73be	-0.026788589
77	0x3dd11e3a	0.102108434
78	0x3dc73850	0.09727538
79	0x3c6d6331	0.014488981
80	0xbd33635f	-0.04379594
81	0x3e39e764	0.18154675
82	0x3edcdc25	0.43136707
83	0x3ed3f936	0.4140107
84	0x3f16bf05	0.5888522
85	0x3f20bf48	0.6279187
86	0x3f0af737	0.5428347
87	0x3eba59d0	0.36396646
88	0x3d07747b	0.03307007
89	0xbc0dd18c	-0.008655917
90	0x3ec6a060	0.3879423
91	0x3f272095	0.6528409
92	0x3f2e1c05	0.68011504
93	0x3f215800	0.630249
94	0x3ef91fd4	0.48657095
95	0x3e99df62	0.3005324
96	0x3e8fa32e	0.28054184
97	0x3e972fd2	0.29528672
98	0x3eec15d2	0.46110398
99	0x3f6ed10b	0.93287724
100	0x3f2a27e2	0.66467106
101	0x3f657cb4	0.89643407
102	0x3f856726	1.0422103
103	0x3f8b30a6	1.0874221
104	0x3f858626	1.0431564
105	0x3f73f1c8	0.95290804
106	0x3f5d37f3	0.86413497
107	0x3f0d845c	0.5528009
108	0x3ed04a15	0.4068152
109	0x3e8ca0af	0.27466342
110	0xbc0f78db	-0.0087568415
111	0xbc784e3b	-0.01515537
112	0xbe99a75f	-0.30010507
113	0xbf46bc3c	-0.7763097
114	0xbf5ee198	-0.8706298
115	0xbed35712	-0.41277367
116	0x3eec3c57	0.46139786
117	0x3f82f410	1.0230732
118	0x3f74a879	0.9556957
119	0x3f851aad	1.0398766
120	0xbf8864f7	-1.0655812
121	0xbf3a1536	-0.72688615
122	0x3cbacf8a	0.02280404
123	0x3de9c68f	0.11414825
124	0x3e5eaf4e	0.21746561
125	0x3e4b06e7	0.19826852
126	0x3ec668b6	0.38751763
127	0x3ef5daf1	0.48018602
128	0x3f2aea8b	0.66764134
129	0x3f7ef02e	0.99585235
130	0x3f47c745	0.78038436
131	0x3e5aac3b	0.21354763
132	0xbe40f8d1	-0.18844916
133	0xbedc1d24	-0.42990983
134	0xbf2d4c71	-0.67694765
135	0xbeaf912c	-0.34290445
136	0x3e17c68a	0.1482183
137	0x3e3dacfb	0.18523018
138	0x3df622bd	0.120183446
139	0xbcd1c9a4	-0.025608845
140	0xbfa7249a	-1.3058045
141	0xbe47b8b4	-0.19504052
142	0x3f14af30	0.58079815
143	0x3ed6707b	0.4188269
144	0xbf4aafdd	-0.79174596
145	0xbf6d3ede	-0.9267405
146	0xbe964399	-0.29348448
147	0xbb54bad0	-0.0032459982
148	0x3ed2642b	0.41092047
149	0x3fce05a3	1.609547
150	0x3deb695e	0.114947066
151	0x3e871d73	0.26389655
152	0x3ed1d23a	0.40980703
153	0x3f17a794	0.5924008
154	0x3efb271f	0.49053285
155	0x3e40f37c	0.18842882
156	0xbe20ee59	-0.15715922
157	0xbf1081f0	-0.5644827
158	0xbf689ce8	-0.9086442
159	0xbf713d79	-0.94234425
160	0x3ec519bf	0.38496205
161	0x3f0815f1	0.5315848
162	0x3f13c0db	0.5771615
163	0x3eebcc13	0.46054134
164	0x3e77a25e	0.24183032
165	0x3c822827	0.015888287
166	0xbe94352a	-0.2894681
167	0xbee94f9b	-0.45568547
168	0xbf1628cd	-0.5865601
169	0xbf0f5650	-0.5599108
170	0x3e29d8fc	0.16586679
171	0x3fb5c53d	1.4200817
172	0x3fe12ab2	1.7591155
173	0x3f8b27d7	1.0871533
174	0x3ec6bcc8	0.38815904
175	0x3f93709d	1.1518742
176	0x3fa5a539	1.2941047
177	0x3f9e8818	1.2385283
178	0x3fbd9eae	1.481405
179	0x400e26a4	2.2211084
180	0x3f6a4c78	0.9152293
181	0x3dec1354	0.11527124
182	0xbf859c94	-1.0438409
183	0xbfbbd647	-1.4674767
184	0xbf48dfbd	-0.784664
185	0xbf1380d6	-0.57618463
186	0xbf654187	-0.8955311
187	0xbf82f613	-1.0231346
188	0xbf9f9590	-1.2467518
189	0xbf444741	-0.76671225
190	0x3db29243	0.087193035
191	0x3db7671f	0.08955216
192	0x3d8ca07b	0.06866547
193	0x3d84a047	0.06475883
194	0x3d755707	0.05989745
195	0x3d26eb4c	0.04075174
196	0x3dff30da	0.124604896
197	0x3db09425	0.08622006
198	0x3d82a3a3	0.063788675
199	0x3dc77209	0.09738547
200	0xbeda7f87	-0.4267542
201	0xbf7969ab	-0.9742686
202	0xbf6191a6	-0.88112867
203	0xbe3599ea	-0.17734495
204	0x3e125af2	0.14292505
205	0x3a37adbc	0.00070067844
206	0xbe263bb1	-0.16233708
207	0xbedfa4e0	-0.43680477
208	0xbe7d5524	-0.2473951
209	0x3dfa8f2b	0.122343384
210	0xbaabfc48	-0.001312145
211	0xbd13d72b	-0.036093872
212	0x3d3b4876	0.0457234
213	0x3d9074e0	0.07053542
214	0x3d22d42c	0.039753124
215	0x3ca934f2	0.02065513
216	0x3c884b85	0.016637573
217	0x3d4b1677	0.04958197
218	0x3c86a069	0.016433911
219	0x3d02aef0	0.031905115
220	0x3f9fafa5	1.2475477
221	0x3fa4d6ee	1.2878091
222	0x3f76165b	0.9612786
223	0x3da2c118	0.07946986
224	0x3eff8bb4	0.49911273
225	0x3f47280f	0.777955
226	0x3e0cc8db	0.13748495
227	0x3e2c7ef6	0.16845307
228	0x3f176c73	0.59149855
229	0x3f3ada8a	0.72989714
230	0x3f0b3698	0.5438018
231	0x3f7066e9	0.9390703
232	0x3f8af099	1.0854675
233	0x3f3fa000	0.74853516
234	0x3f0658f4	0.5247948
235	0x3f088e14	0.53341794
236	0x3f6c06bf	0.92197794
237	0x3f7d5136	0.98952043
238	0x3df5ad6d	0.11995969
239	0x3f49ca29	0.78824097
240	0x3e486fbb	0.19573872
241	0x3f392e91	0.7233668
242	0x3f6db896	0.9285978
243	0x3f7aec3c	0.98016715
244	0x3f47bf1f	0.78026
245	0x3e9307b7	0.28716823
246	0xbf8a5dc3	-1.0809864
247	0xbfc21bdc	-1.5164752
248	0xbf8aefc5	-1.0854422
249	0xbecf9d8e	-0.40549892
250	0x3cf72479	0.030168759
251	0xbb4b0572	-0.0030978587
252	0xbd1ee50e	-0.038792662
253	0xbd6c2359	-0.057650898
254	0xbba82804	-0.0051317234
255	0xbd72fdeb	-0.059324186

conv2.bias f4 [32]
0	0x3e636244	0.22205454
1	0x3e25e73e	0.16201493
2	0xbedbaa46	-0.42903346
3	0xbe89e001	-0.26928714
4	0xbe2a2721	-0.16616489
5	0xbdf3242e	-0.11872135
6	0x3d00d37f	0.0314517
7	0xbd9d7d63	-0.07689931
8	0x3d9544c0	0.07288504
9	0x3d1a8c18	0.03773126
10	0xbba0b1d3	-0.004904011
11	0xbe56875e	-0.20950076
12	0xbf513f16	-0.81736887
13	0xbeb79e79	-0.35863093
14	0xbc75c7d7	-0.015001259
15	0x3f3e8ccd	0.74433595
16	0x3f01819c	0.50588393
17	0x3b022483	0.0019858188
18	0x3dca2637	0.0987057
19	0x3d17bfa9	0.037048016
20	0x3cbeabf3	0.023275351
21	0x3c351326	0.011051929
22	0x3c1274a9	0.008938947
23	0x3e74a039	0.23889245
24	0x3da5f341	0.081030376
25	0xbe7a9345	-0.24470241
26	0x3e5939cb	0.21213453
27	0xbe5e840b	-0.21730058
28	0xbd259f2c	-0.040435
29	0xbdc98425	-0.09839658
30	0xbd4214d6	-0.047383152
31	0xbd901cec	-0.070367664

batch1.weight f4 [32]
0	0x40136b64	2.3034296
1	0x3dfbc0f4	0.12292662
2	0x3fcecca1	1.6156198
3	0x3faf502b	1.369634
4	0x3f7d9de7	0.99069065
5	0x3f17c5de	0.59286296
6	0x3f27cab8	0.655437
7	0x3f143b19	0.57902676
8	0x3f98b46e	1.1930063
9	0x3f349a84	0.7054827
10	0x3d8e2fe7	0.069427304
11	0x3fade472	1.3585341
12	0x3fe1a5a3	1.7628673
13	0x3ff46a9e	1.9095037
14	0x3f2e2a09	0.6803289
15	0x4043e10c	3.0606108
16	0x4011288f	2.2681005
17	0x3dfe1869	0.124069996
18	0x3e7388c4	0.2378264
19	0x3f8b92a9	1.0904132
20	0x3f41edd8	0.75753546
21	0x3cda2fa8	0.026634052
22	0x3fc5e638	1.5460882
23	0x3f9f6c7d	1.2454983
24	0x40495b4c	3.1461973
25	0x3fded181	1.7407686
26	0x3ff7d91e	1.9363134
27	0x3f974e49	1.1820766
28	0x3f939f8b	1.1533064
29	0x3e00848d	0.12550564
30	0x3e0d5a64	0.13804013
31	0x3f08dcbd	0.5346182

batch1.bias f4 [32]
0	0xbec74ad8	-0.3892429
1	0xbf843831	-1.0329648
2	0xbf0e8838	-0.55676603
3	0xbd404ff6	-0.046951257
4	0xbf261c95	-0.6488736
5	0xbf6ba5a4	-0.9204962
6	0xbf87cc2a	-1.0609181
7	0xbf9cc6dd	-1.2248188
8	0x3e1461a0	0.14490366
9	0xbf28b9b4	-0.6590836
10	0xbf667543	-0.9002268
11	0xbf8981ab	-1.0742697
12	0xbe9ead71	-0.309917
13	0xbe804e6c	-0.2505983
14	0xbf59d3cc	-0.850888
15	0xbea60f83	-0.3243371
16	0xbf442a85	-0.7662738
17	0xbf2ae173	-0.6675026
18	0xbf4ad998	-0.7923827
19	0xbe88f5c4	-0.26750004
20	0xbf851814	-1.0397973
21	0xbf06b2c1	-0.52616507
22	0xba81a816	-0.0009892012
23	0xbcab9a4f	-0.020947604
24	0xbeefcdcc	-0.46836698
25	0xbee8c398	-0.45461726
26	0xbf395c2c	-0.7240627
27	0xbeda79f7	-0.42671177
28	0x3ebfeeb4	0.37486804
29	0xbf4db8a1	-0.80359846
30	0xbf393cb8	-0.72358274
31	0xbf963f99	-1.1738158

batch1.running_mean f4 [32]
0	0xc058eaa0	-3.3893204
1	0x3ea2ee80	0.31822586
2	0xc1a84e7f	-21.038328
3	0xc100babf	-8.045592
4	0x411ea3db	9.915004
5	0xbfb97930	-1.4490108
6	0x413ffaa0	11.998688
7	0x402d1190	2.704197
8	0xc1d95fd1	-27.171785
9	0xc0acf597	-5.404979
10	0x40aa9b04	5.331423
11	0x409d4748	4.9149513
12	0xc1f5ba81	-30.716066
13	0xc0a9e3f8	-5.309078
14	0xc036d3e8	-2.8566837
15	0xc1addc35	-21.732523
16	0xc0e18305	-7.0472436
17	0xc00d81ec	-2.2110548
18	0xc0dcd96a	-6.90154
19	0xc129cd1d	-10.6125765
20	0xc181f39b	-16.243948
21	0x402db88f	2.7143896
22	0xc03d4916	-2.9575858
23	0x418b0701	17.37842
24	0xc15d9f28	-13.8513565
25	0xc192500b	-18.289083
26	0x4030c608	2.7620869
27	0xc170717a	-15.027704
28	0x41b4f1b8	22.618027
29	0x40d5eeb4	6.6853886
30	0xc033af1e	-2.8075633
31	0xc0aa45e3	-5.321031

batch1.running_var f4 [32]
0	0x43cb0d3b	406.10336
1	0x4236f23a	45.73655
2	0x43e73b49	462.46317
3	0x43a6ccb4	333.59924
4	0x430ecd47	142.80186
5	0x42db3c9a	109.61836
6	0x433aabf4	186.67169
7	0x42b54283	90.629906
8	0x43fe1dc7	508.23264
9	0x4321cf85	161.81062
10	0x41ef73cd	29.931543
11	0x42aed65e	87.418686
12	0x440496ea	530.35803
13	0x43ae5961	348.69827
14	0x43215b4b	161.35661
15	0x43ce7779	412.93338
16	0x43affa51	351.9556
17	0x42cbf687	101.9815
18	0x4327d79e	167.84225
19	0x42a1da12	80.92592
20	0x432e469a	174.27579
21	0x416d56d4	14.833698
22	0x438b78de	278.94427
23	0x430207c7	130.03038
24	0x440a3a2f	552.9091
25	0x435cd858	220.8451
26	0x434e938b	206.57634
27	0x43403b48	192.23157
28	0x42905e3b	72.184044
29	0x42928c5a	73.274124
30	0x41c35c8f	24.420195
31	0x42fba7eb	125.827965

conv3.weight f4 [32, 32, 5]
0	0xbe800195	-0.25001207
1	0x3eef9e08	0.46800256
2	0x3e354721	0.17702915
3	0xbf4b5580	-0.7942734
4	0xbf888abc	-1.0667338
5	0xbf1a0258	-0.60159826
6	0x3c889912	0.016674552
7	0x3e986797	0.29766533
8	0xbdbddeee	-0.09271036
9	0xbf09a15a	-0.5376183
10	0xbc58ffbf	-0.013244568
11	0xbef7ba90	-0.48384523
12	0x3f2da977	0.6783671
13	0xbd81e1ec	-0.06341919
14	0xbf7affb2	-0.9804641
15	0xbe3f2098	-0.18664777
16	0x3f5f9014	0.8732922
17	0x3e2fee58	0.17180765
18	0xbde1d934	-0.11027756
19	0xbfc70296	-1.5547664
20	0xbf98426f	-1.1895274
21	0xbe9587f3	-0.29205284
22	0x3d78fce1	0.06078804
23	0x3eb820e4	0.35962594
24	0xc0122d50	-2.2840157
25	0xbeae15cd	-0.34001008
26	0xbf3e5a2a	-0.7435633
27	0x3f2f056c	0.6836765
28	0x3f98ea61	1.1946527
29	0xbf3d24b2	-0.7388412
30	0x3e187fd4	0.14892513
31	0x3f1ceea3	0.6130163
32	0x3f7c8dd3	0.98653907
33	0xbf901f4e	-1.1259553
34	0xbe49fa24	-0.19724327
35	0xbf06f64d	-0.52719575
36	0xbe08b0f2	-0.1334875
37	0x3ea2e984	0.31818783
38	0x3f46479b	0.7745301
39	0x3ea2089d	0.31647196
40	0x3dc81704	0.09770015
41	0xbe7f6cea	-0.24943891
42	0x3f64e437	0.8941073
43	0xbe7bb384	-0.24580199
44	0xbe5410bc	-0.20709509
45	0x3ea10a30	0.31453085
46	0xbe387f57	-0.18017326
47	0xbea750fc	-0.32678974
48	0xbef57514	-0.47940886
49	0xbf00a058	-0.50244665
50	0xbcd94a05	-0.026524553
51	0xbbc7a65d	-0.00609283
52	0x3e5799d1	0.2105477
53	0x3ccdda98	0.025128648
54	0x3cd0c8d0	0.02548638
55	0xbfb88735	-1.4416262
56	0x3eedb33f	0.46425816
57	0x3fb4585d	1.4089466
58	0x3f8c980d	1.0983902
59	0xc002560f	-2.0365026
60	0x3e5534a9	0.2082087
61	0x3df791fc	0.12088391
62	0x3f14d9a1	0.58144575
63	0x3f66a8a7	0.90101093
64	0xbf676e3c	-0.9040258
65	0xbe793cd1	-0.24339606
66	0xbfd6c597	-1.677905
67	0x3effb1b3	0.4994026
68	0x3e8646eb	0.2622598
69	0xbfa5fc21	-1.2967569
70	0xbf679720	-0.90464973
71	0xbf1f6804	-0.6226809
72	0x3f11e99e	0.56997097
73	0x3f542e7a	0.8288342
74	0xbfb1db3e	-1.3895032
75	0xbe34cec7	-0.17657004
76	0xbeea77d3	-0.45794544
77	0xbf20545c	-0.6262872
78	0xbf5609cf	-0.83608717
79	0x3e0e863a	0.13918391
80	0xbe2de022	-0.16980031
81	0xbe022af7	-0.12711702
82	0xbfba06aa	-1.4533284
83	0x3ed5c7b7	0.41753933
84	0x3f1c5f6b	0.61083096
85	0xbe017b67	-0.1264473
86	0x3e6c4cd1	0.23076178
87	0x3ea8638a	0.32888442
88	0xbe583ac4	-0.21116167
89	0xbf054903	-0.5206453
90	0xbf31b5f0	-0.6941824
91	0xbcb97b19	-0.022641705
92	0x3f1161de	0.5678996
93	0x3f21bdfb	0.6318051
94	0xbf29f3de	-0.66387737
95	0x3e5a723b	0.21332638
96	0xbf6a01ce	-0.91409004
97	0xbf00ff99	-0.5039001
98	0xbf14f011	-0.5817881
99	0x3f97161d	1.1803623
100	0xbea2be38	-0.3178575
101	0x3f06c788	0.5264821
102	0x3f47e785	0.78087646
103	0x3f012626	0.50448835
104	0xbe1894bf	-0.14900492
105	0xbc2f1925	-0.010687147
106	0x3d303c3d	0.043026198
107	0x3d7abe61	0.061216716
108	0xbdaa68ca	-0.08320768
109	0xbe67f5ad	-0.22652312
110	0x3fa5fecb	1.2968382
111	0xbf952312	-1.1651328
112	0x3f3ab169	0.72926956
113	0x3fc20c82	1.5160067
114	0x3e1873d7	0.1488794
115	0xbf7e4731	-0.9932738
116	0xbe8f5036	-0.27990884
117	0x3dbed00d	0.09317026
118	0x3eb4c014	0.35302794
119	0xbf1b439a	-0.60650027
120	0x3ec763e6	0.38943404
121	0xbec52833	-0.38507232
122	0xbf2f5367	-0.68486637
123	0xbee430ab	-0.4456838
124	0xbf259e2d	-0.6469448
125	0xbfa43ec3	-1.2831653
126	0x3d38c717	0.045111742
127	0x3e7c6ced	0.24650927
128	0x3eabe399	0.3357208
129	0x3b75cf0d	0.0037507445
130	0xbf313cbf	-0.69233316
131	0xbf0768d5	-0.52894336
132	0xbf401a69	-0.750403
133	0x3ebede4a	0.37278968
134	0x3f4d1860	0.8011532
135	0x3e8e000d	0.27734414
136	0xbe807277	-0.2508733
137	0xbebfc4f2	-0.37454945
138	0x3f27197f	0.6527328
139	0x3bb54ac3	0.005532594
140	0x3e9bc21c	0.3042153
141	0xbf189b83	-0.5961229
142	0xbf114f02	-0.5676118
143	0x3e23184c	0.15927237
144	0xbec1164f	-0.37712333
145	0xbf39b3bd	-0.72539884
146	0xbe0e7d51	-0.13914992
147	0x3d0bdefb	0.034148198
148	0xbf44b21c	-0.76834273
149	0xbf89a82e	-1.0754449
150	0xbe805b21	-0.25069526
151	0xbe6fd2f3	-0.23420314
152	0x3cb70b35	0.022344211
153	0x3db884d2	0.090097085
154	0xbd248330	-0.040164173
155	0xbf875a98	-1.0574522
156	0x3f339915	0.7015546
157	0x3fd73ce6	1.681546
158	0xbf0111b5	-0.50417644
159	0xbfac7f4e	-1.347635
160	0x3f06f374	0.5271523
161	0xbdb4973d	-0.08817909
162	0xbf34b200	-0.70584106
163	0xbef4fc69	-0.47848824
164	0x3fbe5755	1.4870402
165	0x3ed52d3d	0.41636077
166	0x3e33a7e3	0.17544512
167	0x3dada933	0.08479538
168	0xbe5e8f32	-0.21734312
169	0x3de1a422	0.11017634
170	0xbf383cfa	-0.7196804
171	0x3efcd9b0	0.49384832
172	0x3f22d971	0.6361304
173	0xbfbb4d48	-1.4632959
174	0xbf4e5b62	-0.8060819
175	0x3f3e198c	0.7425773
176	0x3f899cb4	1.0750947
177	0x3f201755	0.625356
178	0xbfdb1f36	-1.71189
179	0xbf82f85c	-1.0232043
180	0xbee324fa	-0.44364148
181	0xbe8f8bb0	-0.2803626
182	0xbf5e046e	-0.8672551
183	0xbfe0c1d9	-1.7559158
184	0xbf2da58b	-0.67830724
185	0xbea36155	-0.31910196
186	0x3de13819	0.10997028
187	0xbe078e4a	-0.13237873
188	0xbf258113	-0.64650077
189	0xbe93f17d	-0.28895178
190	0x3f30a1bf	0.68996805
191	0x3edfc89f	0.4370775
192	0xbf22769f	-0.6346225
193	0xbed2b4f6	-0.41153687
194	0x3ec45c63	0.38351735
195	0x3f348494	0.705148
196	0x3eaeafb4	0.34118426
197	0x3e8fb11e	0.28064817
198	0xbe25d7c3	-0.16195588
199	0xbe341b54	-0.1758855
200	0x3eb2493f	0.34821507
201	0xbe82a6bc	-0.25517833
202	0xbf4ecf2c	-0.8078487
203	0x3f3f8fcc	0.7482879
204	0x3f22de48	0.63620424
205	0xbc5ac4c5	-0.013352578
206	0xbe41f8e2	-0.18942598
207	0xbf09531c	-0.5364244
208	0xbd833f5e	-0.06408571
209	0xbe49d413	-0.19709806
210	0x3e86f953	0.26362094
211	0x3e061fe5	0.13098104
212	0xbda32a5b	-0.07967063
213	0xbdfb5f55	-0.122740425
214	0xbdaed875	-0.0853738
215	0xbf3b5b5a	-0.73186266
216	0x3f87e8e6	1.061795
217	0x3ec1015a	0.37696344
218	0xbfcbb724	-1.5915265
219	0xbf75d724	-0.96031404
220	0x3ec2c3ba	0.38039953
221	0x3e3bf491	0.18355013
222	0x3e9b7741	0.3036442
223	0xbf879393	-1.0591911
224	0xbec62e58	-0.38707232
225	0xbffd16c8	-1.9772577
226	0xbf283007	-0.65698284
227	0xbeb4f91e	-0.3534631
228	0xbed57fc8	-0.41699052
229	0xbf3a544b	-0.7278487
230	0xbf6fcb0c	-0.936692
231	0xbea23ad2	-0.316855
232	0x3bf90e32	0.007600569
233	0xbf226cc5	-0.6344722
234	0xbe2f2111	-0.17102458
235	0x3f2b0610	0.66806126
236	0x3eea6718	0.4578178
237	0xbc93734a	-0.01799931
238	0xbe6b52c9	-0.22980799
239	0xbd212da5	-0.03935017
240	0x3e483829	0.19552673
241	0xbf9e5069	-1.2368289
242	0xbf875755	-1.0573527
243	0xbe416124	-0.18884712
244	0xbfcfe56d	-1.624189
245	0x3f10259d	0.56307393
246	0x3f2f2330	0.68413067
247	0x3ef49233	0.4776779
248	0xbe2d010b	-0.16894929
249	0xbea02084	-0.31274807
250	0x3dc9ad71	0.098475344
251	0x3ef8be30	0.48582602
252	0x3e19273e	0.14956376
253	0xbef8e2ea	-0.48610622
254	0xbefe490d	-0.49665108
255	0x3d5d368d	0.0540071

conv3.bias f4 [32]
0	0x3c66bbb3	0.014082837
1	0xbcf7c74a	-0.030246396
2	0xbcf1f19f	-0.02953416
3	0xbc0756bd	-0.008260426
4	0x3d3691a1	0.044572476
5	0xbd03f25a	-0.032213546
6	0x3ba6b911	0.0050879796
7	0x3da5b156	0.08090465
8	0x3cf0c918	0.029392764
9	0xbd9cbdb5	-0.07653371
10	0xbcd6f173	-0.026238179
11	0x3de45be3	0.111503385
12	0x3d9f369a	0.07774086
13	0xbdc67b37	-0.0969147
14	0x3d05372d	0.032523323
15	0xbd17fb2b	-0.037104767
16	0x3d957e1d	0.07299445
17	0x3e4fb4d0	0.20283818
18	0x3d7ad275	0.061235864
19	0x3dbded09	0.092737265
20	0x3cdd363b	0.027003398
21	0xbda06b0e	-0.07832919
22	0x3d9191e5	0.07107905
23	0x3d49244c	0.04910688
24	0x3c118bf9	0.00888347
25	0x3d0837ba	0.03325627
26	0xbd2140a9	-0.039368305
27	0x3cbe9886	0.023266088
28	0x3bf76f10	0.0075510815
29	0xbd563d28	-0.052304417
30	0xbca5df2c	-0.020248018
31	0xbea87195	-0.32899156

batch2.weight f4 [32]
0	0x3f894ac5	1.0725943
1	0x3fd15510	1.6354084
2	0x3ee93efb	0.45555863
3	0x3f18626b	0.59525174
4	0x3f8c602d	1.096685
5	0x3fba105a	1.453624
6	0x3fc2a90f	1.5207843
7	0x4023cefe	2.5595088
8	0x3f92827d	1.1446072
9	0x3f0f8f71	0.5607825
10	0x3f261cfc	0.64887977
11	0x3fa1f0b5	1.2651583
12	0x3f829b72	1.0203688
13	0x3f3eae7f	0.7448501
14	0x3f83c1e9	1.0293552
15	0x3f175c0b	0.5912482
16	0x3f06c694	0.52646756
17	0x3f3c6c35	0.7360261
18	0x3fdcf696	1.7262752
19	0x3f6f59c1	0.9349633
20	0x3fa4bb9f	1.2869757
21	0x3f555646	0.8333477
22	0x3fa5804f	1.2929782
23	0x3f39ff26	0.7265495
24	0x3f2b0cfd	0.66816694
25	0x3f683286	0.9070209
26	0x3f2e09a7	0.6798348
27	0x3f5ce2dd	0.86283666
28	0x3fad9914	1.3562341
29	0x3fa59851	1.2937108
30	0x3f88c39f	1.0684699
31	0x3fd87201	1.6909791

batch2.bias f4 [32]
0	0xbfbcda95	-1.4754206
1	0xbfb84636	-1.4396427
2	0xbf6ffcc2	-0.9374505
3	0xbf5e5d92	-0.86861527
4	0xbfdbfe4d	-1.7186981
5	0xbfc20b3b	-1.5159677
6	0xc0149d2c	-2.322093
7	0xbed84197	-0.4223754
8	0xbf46d1f6	-0.77664125
9	0xbf8737dd	-1.0563923
10	0xbfa747bb	-1.3068765
11	0xbfc9965a	-1.5749009
12	0xbf942613	-1.1574119
13	0xbf9b2187	-1.2119607
14	0xbff4d20c	-1.9126601
15	0xbf6c605d	-0.9233454
16	0xbf0b2a03	-0.5436098
17	0xbe0a2ff0	-0.13494849
18	0xbf664b08	-0.8995824
19	0xbfc24a7f	-1.5178984
20	0xbfd23653	-1.6422828
21	0xbf5180ce	-0.81837165
22	0xbff0e226	-1.8819015
23	0xbf88d376	-1.0689533
24	0xbf94333e	-1.1578138
25	0xbe3d0fd4	-0.18463069
26	0xbf5b0c9b	-0.8556611
27	0xbfa8c82a	-1.3186085
28	0xbfd5aa41	-1.6692582
29	0xbfe7e5f9	-1.8117057
30	0xbfa2ef46	-1.272927
31	0xbf86d092	-1.0532401

batch2.running_mean f4 [32]
0	0xc0c699c2	-6.2062693
1	0xc0df7664	-6.983202
2	0xc0919c33	-4.5503173
3	0xbef002e4	-0.46877205
4	0x3f036085	0.5131915
5	0xbf977c02	-1.1834719
6	0x3edea1de	0.4348287
7	0x3fecb0de	1.8491476
8	0xc144c3c7	-12.297797
9	0xc13b5f08	-11.710701
10	0xc118c868	-9.548927
11	0x40385280	2.8800354
12	0xc1ad6263	-21.67304
13	0x4112d67c	9.177364
14	0x3e93a36b	0.28835616
15	0xc01810a5	-2.376016
16	0x41401b75	12.006703
17	0x4019343d	2.3938134
18	0xc19924f6	-19.143047
19	0xbf9abc43	-1.2088703
20	0x3efed29e	0.49770063
21	0x3f9b58be	1.2136457
22	0xc117bd12	-9.48366
23	0xbffd7703	-1.9801944
24	0xc0f1bc10	-7.554207
25	0x41a39a2e	20.450283
26	0xc0e4daf8	-7.1517296
27	0xc0ac106c	-5.3770046
28	0xc0c4cb70	-6.1498337
29	0x3e674d3b	0.22588055
30	0xbff3680d	-1.9016129
31	0xc14cc1c3	-12.797305

batch2.running_var f4 [32]
0	0x41fcd7d3	31.605383
1	0x420718ee	33.774345
2	0x41846a49	16.551897
3	0x415bb8a8	13.732582
4	0x41da8d05	27.318857
5	0x41d96f01	27.179201
6	0x41a99e71	21.202364
7	0x424316e1	48.772343
8	0x434f8fe3	207.56206
9	0x41bea6f5	23.831522
10	0x41d4e386	26.611095
11	0x41ec0afa	29.50536
12	0x428b6529	69.69758
13	0x41b99e74	23.20237
14	0x422ec700	43.694336
15	0x41267197	10.402732
16	0x429d442f	78.63317
17	0x42c6eb70	99.45984
18	0x43000742	128.02835
19	0x41619fd9	14.101525
20	0x41d8c902	27.098148
21	0x41f2063c	30.253044
22	0x421909a8	38.25943
23	0x41980b7c	19.005608
24	0x41481c0e	12.506849
25	0x42e076e9	112.23225
26	0x42b8c5f0	92.3866
27	0x4161283e	14.072325
28	0x41f8d115	31.10209
29	0x41eeb1ad	29.836756
30	0x41d738c7	26.902723
31	0x4293aee8	73.84161

fc1.weight f4 [50, 3136]
0	0xbf977229	-1.1831714
1	0x3f639f99	0.889154
2	0xbe920048	-0.2851584
3	0x3f0dc84c	0.55383754
4	0xbe463d8d	-0.19359417
5	0xbf8819cb	-1.0632871
6	0x3f2be7d5	0.6715062
7	0x3f03caa7	0.514811
8	0xbea05fe8	-0.3132317
9	0xbe88dd37	-0.26731274
10	0x3f149a85	0.5804828
11	0x3e0cd7ff	0.13754271
12	0xbe44b324	-0.19208962
13	0x3dcd0350	0.100103974
14	0xbf088fcc	-0.53344417
15	0x3f4ba46a	0.7954775
16	0x3e3788fd	0.1792335
17	0xbe2ba31a	-0.16761437
18	0xbf6c1613	-0.9222118
19	0x3e0153aa	0.12629572
20	0x3e134e40	0.14385319
21	0xbf26b663	-0.6512205
22	0x3ebc0862	0.36725146
23	0x3d54dece	0.051970296
24	0x3f48b6bc	0.7840383
25	0xbfaeaf81	-1.364731
26	0x3f43805b	0.7636773
27	0xbebb8702	-0.3662644
28	0xbf2d7641	-0.67758566
29	0xbe739117	-0.23785816
30	0x3f27df94	0.6557553
31	0x3f48ec55	0.78485614
32	0x3e4b3d21	0.19847538
33	0xbf660e94	-0.89865994
34	0xbedd90a6	-0.4327442
35	0xbd26a72f	-0.040686782
36	0x3dcc7eb8	0.09985107
37	0x3f922430	1.1417294
38	0xbf294682	-0.6612321
39	0x3e9ed572	0.3102222
40	0xbe771a99	-0.2413124
41	0xbf027d1d	-0.5097216
42	0x3e577897	0.21042095
43	0xbf0f2948	-0.55922365
44	0x3f605d9a	0.87642825
45	0x3e906ad2	0.28206497
46	0xbf94d5e0	-1.162777
47	0xbf9679c1	-1.1755906
48	0xbe69af1a	-0.22820702
49	0x3f2d0892	0.675912
50	0xbf4d578d	-0.80211717
51	0x3fa64156	1.2988689
52	0xbecbeeb0	-0.39830542
53	0xbfaa1ed6	-1.329066
54	0x3dfa8f43	0.12234356
55	0x3f130218	0.5742507
56	0xbe06ca59	-0.13163127
57	0xbf9a3666	-1.2047851
58	0x3c7dc801	0.015489579
59	0x3d54b86e	0.0519337
60	0xbe4fdbc3	-0.20298676
61	0x3f1f6c70	0.6227484
62	0xbf153a9a	-0.58292544
63	0xbf00e83c	-0.5035436
64	0xbe2b2e4b	-0.16716878
65	0xbe09084c	-0.13382071
66	0xbe8dd2d1	-0.27699903
67	0xbd5e43cc	-0.054263875
68	0xbe46ee0e	-0.19426748
69	0xbeb5fb52	-0.35543305
70	0xbea41e96	-0.32054585
71	0xbee78d11	-0.45224813
72	0x3f096864	0.5367491
73	0x3d37069e	0.044684045
74	0xbfa56580	-1.29216
75	0x3f11c70a	0.56944335
76	0xbf7d0674	-0.9883797
77	0x3f0491f6	0.5178522
78	0x3ecd3038	0.4007585
79	0xbf7fd5a1	-0.99935347
80	0x3f2982f9	0.66215473
81	0xbf74ae5d	-0.9557856
82	0x3dd14dbd	0.102199055
83	0x3da66006	0.08123784
84	0xbf2b6aa3	-0.6695959
85	0x3dd4bbe5	0.103874005
86	0x3e5b0fbd	0.21392722
87	0xbf536eaa	-0.82590735
88	0x3efc8780	0.49322128
89	0xbef7a21c	-0.48365867
90	0xbf36065c	-0.71103454
91	0xbe8b647c	-0.272251
92	0xbde66695	-0.11250035
93	0x3f70d270	0.940711
94	0xbe3bb465	-0.18330534
95	0xbd3edf9f	-0.04659998
96	0xbc763ab7	-0.015028647
97	0xbf2c544e	-0.6731614
98	0xbf1969d9	-0.59927136
99	0x3cd8364e	0.026393082
100	0x3e9a72c7	0.30165693
101	0x3ec74fa9	0.38927963
102	0x3fa5415a	1.2910569
103	0xbe1024e8	-0.14076579
104	0xbfbfa9c2	-1.4973681
105	0xbf6c4dbd	-0.9230612
106	0xbf0922a9	-0.5356851
107	0xbeafa670	-0.3430667
108	0xbf43ba34	-0.76456
109	0xbe86ec01	-0.26351932
110	0x3f6703e1	0.90240294
111	0xbdf92930	-0.12166059
112	0xbfa6457c	-1.2989955
113	0xbfca8eaa	-1.5824788
114	0x3e82a084	0.2551309
115	0x3eada007	0.33911154
116	0xbe005ab2	-0.12534598
117	0xbe4faf56	-0.20281729
118	0x3e22f6ad	0.15914412
119	0xbeff5f20	-0.49877262
120	0xbda551fe	-0.080722794
121	0x3e49102a	0.19635072
122	0xbeacf53b	-0.33780846
123	0xbe97e41f	-0.2966623
124	0x3db0f12f	0.08639752
125	0x3e8fca41	0.28083995
126	0xbf92252a	-1.1417592
127	0xbf880bd2	-1.0628607
128	0xbe62b2f7	-0.22138582
129	0xbec3e780	-0.38262558
130	0xbdeb95a0	-0.11503148
131	0xbef6b42e	-0.4818434
132	0xbe95e24e	-0.2927422
133	0xbf7922f0	-0.97318935
134	0xbf24f6ea	-0.6443926
135	0xbee86044	-0.45385945
136	0x3e86a1ef	0.2629542
137	0x3ea71821	0.32635596
138	0x3f7284f6	0.9473413
139	0x3f9c2787	1.2199563
140	0xbf19cd89	-0.60079247
141	0xbfd50d9a	-1.6644776
142	0xbfac8d7d	-1.3480679
143	0xbf8b4f94	-1.088366
144	0xbe94615c	-0.2898053
145	0x3f227659	0.63461834
146	0x3f78615f	0.97023576
147	0xbed4786a	-0.4149812
148	0xbeb004b2	-0.34378582
149	0xbf7b1077	-0.98072
150	0xbde83b7c	-0.11339471
151	0xbfc483e6	-1.5352752
152	0xbf507c94	-0.8144009
153	0xbde0bb06	-0.10973172
154	0x3f69c31f	0.91313356
155	0xbf09f4c4	-0.5388911
156	0xbf9e5be3	-1.2371792
157	0xbece098f	-0.40241668
158	0x3e56fb5c	0.20994323
159	0xbc568af7	-0.013094655
160	0x3eb8ef9d	0.3612031
161	0xbf60f9a9	-0.8788095
162	0x3e87965e	0.2648191
163	0xbe9db850	-0.30804682
164	0xbfa5d5a1	-1.2955819
165	0xbfbd0273	-1.4766372
166	0x3f0ffe2f	0.5624723
167	0x3f9b94ef	1.2154826
168	0xbc990ecf	-0.01868382
169	0xbfbb39a9	-1.4626971
170	0xbf841d3c	-1.0321422
171	0xbefd53ac	-0.494779
172	0x3f03bd6e	0.5146092
173	0xbdca27df	-0.09870886
174	0x3f84fd15	1.0389735
175	0x3e2f5ba3	0.171248
176	0xbe4de125	-0.20105417
177	0xbf1f4beb	-0.62225217
178	0xbf8b60b2	-1.0888884
179	0x3ef074d5	0.46964136
180	0xbee282c2	-0.44240385
181	0xbf7a45d4	-0.977628
182	0xbf138771	-0.5762854
183	0xbfa17cf8	-1.2616262
184	0xbdca5f66	-0.09881477
185	0xbed50725	-0.41607013
186	0xbe54d725	-0.20785196
187	0x3f5b2057	0.8559622
188	0xbef8f92f	-0.48627612
189	0xbb83f84a	-0.004027401
190	0x3ea74ff9	0.32678202
191	0xbe60758b	-0.21919839
192	0xbf13b181	-0.57692724
193	0xbf2ea53e	-0.6822089
194	0xbe0076a8	-0.12545264
195	0xbd090867	-0.03345528
196	0x3e692c6b	0.2277085
197	0xbdd66362	-0.104681745
198	0xbdee9218	-0.11648959
199	0x3d2a49bc	0.041574225
200	0x3e3b95f7	0.18318926
201	0xbd9397dd	-0.072067
202	0xbe90949e	-0.28238386
203	0xbe7a6cf7	-0.2445563
204	0xbd8ac2fc	-0.067754716
205	0x3e298036	0.16552815
206	0x3d240e29	0.040052567
207	0x3eb46544	0.3523351
208	0x3e55d072	0.20880297
209	0x3e28d57d	0.1648769
210	0x3d17e18d	0.037080336
211	0xbe27c8fd	-0.16385265
212	0x3d3e26a6	0.046423577
213	0x3e55e04a	0.2088634
214	0xbe65ce11	-0.2244189
215	0xbdcec777	-0.10096639
216	0x3e8373f6	0.2567441
217	0xbd1be87c	-0.03806351
218	0xbe8d88fd	-0.27643576
219	0xbebae556	-0.36503094
220	0xbe8fc90c	-0.28083074
221	0xbe96b188	-0.2943232
222	0xbe7433e5	-0.23847921
223	0xbe3a92c5	-0.1822005
224	0x3e4c3137	0.19940649
225	0x3cf5cb30	0.030004114
226	0x3dd27bb9	0.102775045
227	0x3e48232c	0.19544667
228	0xbe25e7ac	-0.16201657
229	0xbe879233	-0.2647873
230	0xbd541c67	-0.0517849
231	0xbe25ea05	-0.16202553
232	0xbd5ede44	-0.054411188
233	0xb9505970	-0.00019869744
234	0xbdf82c05	-0.12117771
235	0xbe6c5e4a	-0.23082843
236	0xbecfd4a9	-0.40591934
237	0xbeb4cb47	-0.35311338
238	0xbd9f9f3f	-0.07794046
239	0xbd481fb0	-0.048858345
240	0xbe2904b1	-0.16505696
241	0x3ba45795	0.0050153234
242	0xbe670c6e	-0.22563335
243	0xbebd884b	-0.37018046
244	0xbe683459	-0.22676219
245	0xbe2415ef	-0.16023992
246	0xbdf87d60	-0.121332884
247	0xbe7e5be3	-0.2483974
248	0xbeb9eab6	-0.36311883
249	0xbe394ae5	-0.18094976
250	0xbf35f47f	-0.71076196
251	0xbe89f7a8	-0.2694676
252	0x3b42fb9a	0.0029752017
253	0xbcf9bb88	-0.03048493
254	0xbecf9a75	-0.4054753
255	0xbe0b339a	-0.13593903

fc1.bias f4 [50]
0	0x3e42a4ae	0.19008133
1	0x3de77c87	0.113030486
2	0xbe88e5ff	-0.26737973
3	0x3edb8cde	0.4288091
4	0x3dce3118	0.10067958
5	0x3e8540e4	0.2602607
6	0x3e2074dc	0.15669578
7	0x3e4ce0fb	0.20007698
8	0x3e63a5f7	0.2223128
9	0xbea99049	-0.33117893
10	0x3d6e4f7d	0.058181275
11	0x3d85634b	0.06513079
12	0xbe9d4c18	-0.30722117
13	0xbe9bfa82	-0.3046456
14	0xbe5cff30	-0.21581721
15	0x3d9d8775	0.07691852
16	0x3c833965	0.016018579
17	0x3d154965	0.036446948
18	0x3cf514bd	0.029917115
19	0xbeb52f91	-0.35387853
20	0xbe324c04	-0.1741181
21	0x3b8e4592	0.0043417895
22	0xbd36f999	-0.04467163
23	0x3ade171f	0.0016944146
24	0x3e13e498	0.1444267
25	0x3e3fdbc0	0.18736172
26	0x3f17687b	0.591438
27	0x3e2bbc95	0.16771157
28	0x3e1ae364	0.15125805
29	0xbec74091	-0.38916448
30	0x3e0b6e38	0.13616264
31	0x3eab5cce	0.33469242
32	0x3e10eb5a	0.1415228
33	0x3dfc6208	0.123233855
34	0xbe7b36fb	-0.24532692
35	0xbe44d2e3	-0.19221072
36	0xbe7b43a2	-0.24537519
37	0x3e4211eb	0.18952148
38	0xbe059cd3	-0.13048105
39	0x3e08fdc3	0.13378052
40	0xbd4d9ea5	-0.050200123
41	0xbe915382	-0.28384024
42	0xbe2e23c3	-0.1700583
43	0xbe498742	-0.19680503
44	0xbe62b4bc	-0.22139257
45	0xbe3a7d32	-0.1821182
46	0x3ed194a1	0.40933707
47	0x3ef312aa	0.47475177
48	0xbd7d9db5	-0.06191798
49	0xbe73c11f	-0.23804139
