DOMAIN_ADAPTION/experiments/feature=D:I_ist_X_GAMMA=1.0_GAMMA_reduction1.0_num_pool=2_[True, True, False, True, True, True]_exp_2/best_model/model_cnn.pt (torch, 762095 bytes, 16 tensors)

conv1.weight f4 [64, 1, 100]
-0.10374782 -0.039472003 -0.028816227 -0.023432635 -0.013547065 -0.12997355 -0.063363664 0.0007244991
-0.16810918 -0.021891769 -0.06227197 -0.083542846 0.010903096 -0.13042869 -0.11688584 -0.16405413
-0.0059183445 -0.16376603 -0.0019307641 -0.16581109 -0.03579411 -0.14356875 -0.006077141 -0.16167496
-0.15993333 -0.1244001 -0.17646007 -0.0014974874 -0.060249254 -0.15236378 -0.17458157 -0.13254641
-0.0847683 -0.14533766 -0.042501237 -0.15015915 -0.07186008 -0.03029643 -0.17385474 -0.18195465
-0.20045002 -0.08657351 -0.02724425 -0.17006722 -0.120063744 -0.04446377 -0.030280408 -0.05380132
-0.07744278 -0.09337795 -0.1046378 -0.02592248 -0.11061809 -0.07642126 -0.12371101 -0.03845849
-0.21805017 -0.15185046 -0.2169239 -0.098984465 -0.14659344 -0.20750669 -0.20319904 -0.09941074
-0.05457474 -0.046249084 -0.06441736 -0.21487817 -0.052189402 -0.041501973 -0.1330047 -0.23569879
-0.21377793 -0.23216087 -0.12990761 -0.06557358 -0.08494435 -0.19803785 -0.1933175 -0.12632471
-0.20350099 -0.15947123 -0.120393954 -0.18470304 -0.10868273 -0.13360633 -0.02541128 -0.19905765
-0.026878953 -0.039981164 -0.19817144 -0.07961429 -0.10861565 -0.037871618 0.00060660555 -0.11703202
-0.118629165 -0.13468856 0.018455885 -0.13372768 -0.16782375 -0.016747927 -0.05646823 -0.03999303
-0.023554262 -0.19809265 -0.13730523 -0.12069427 -0.020213198 -0.14144544 -0.12059451 -0.057965577
-0.06307931 -0.18055467 -0.20250809 -0.15348046 -0.084521435 -0.020670641 -0.070494294 -0.05782851
-0.08562622 -0.14255078 -0.13404213 -0.03321975 -0.09613713 -0.09783332 -0.060076118 -0.04629367
-0.08968195 -0.12854901 -0.16315286 -0.18017252 -0.16945262 -0.03786209 -0.039746877 -0.17258993
-0.035788238 -0.14571266 -0.14452402 -0.08735937 -0.20086975 -0.1791695 -0.13457246 -0.1513196
-0.069441035 -0.14364932 -0.20543753 -0.20701534 -0.022496136 -0.07369443 -0.21870784 -0.20124727
-0.18198599 -0.028018797 -0.064100325 -0.08590281 -0.061848976 -0.10141507 -0.04603078 -0.19769244
-0.03898435 -0.07219641 -0.08451603 -0.05402797 -0.13775718 -0.1659256 -0.14567788 -0.19351128
-0.11653123 -0.0652813 -0.09818632 -0.12029223 -0.07871183 -0.20787923 -0.18251595 -0.20385471
-0.01674782 -0.20695812 -0.06710108 -0.04215757 -0.14248978 -0.12977734 -0.031586777 -0.19565707
-0.21370964 -0.12835993 -0.12613465 -0.15412572 -0.10388443 -0.057706445 -0.057169955 -0.08133159
-0.039318606 -0.15677467 -0.10337831 -0.07611025 -0.076682284 -0.14441144 -0.025230145 -0.18151206
-0.20010222 -0.2444317 -0.13033998 -0.21956174 -0.06638163 -0.19658066 -0.10242232 -0.017727295
-0.015229391 -0.07485067 -0.06559331 -0.08125036 -0.03796229 -0.09712511 -0.15693216 0.008464695
-0.1462051 0.042451758 -0.047908463 0.00039931352 -0.036943443 0.005322746 0.038100895 -0.11933762
0.03392267 -0.044832855 -0.094793655 -0.07508983 0.024253588 0.09956553 -0.0691807 0.06554161
0.0830398 -0.048354577 0.076218724 0.013937414 0.0793041 0.03966536 0.16519302 -0.004666215
0.1478487 0.06487185 0.1311994 0.12345349 0.024541568 0.07002935 0.13112646 0.13545445
0.08262954 0.19593978 0.09584911 0.09319995 0.1945662 0.14324623 0.18336593 0.2207979
00000000: bd79 d4bd 65ad 21bd 0210 ecbc ccf5 bfbc
00000010: 82f4 5dbc c917 05be cfc4 81bd 50ec 3d3a
00000020: d024 2cbe 5e56 b3bc e510 7fbd 8318 abbd
00000030: e6a2 323c 198f 05be d861 efbd cefd 27be
00000040: acee c1bb 48b2 27be b111 fdba 62ca 29be
00000050: d89c 12bd b003 13be c122 c7bb 1f8e 25be
00000060: 90c5 23be 7bc5 febd f3b1 34be 5747 c4ba
00000070: ecc7 76bd 4005 1cbe 83c5 32be 3fba 07be
00000080: 019b adbd 65d3 14be c715 2ebd 52c3 19be
00000090: 612b 93bd 3830 f8bc fa06 32be 5252 3abe
000000a0: c542 4dbe 744d b1bd 552f dfbc 1a26 2ebe
000000b0: fbe3 f5bd a41f 36bd 9e0e f8bc c65e 5cbd
000000c0: 529a 9ebd f03c bfbd 584c d6bd 615b d4bc
000000d0: bd8b e2bd c082 9cbd 335c fdbd a686 1dbd
000000e0: 8b48 5fbe b07e 1bbe 4d21 5ebe 5eb8 cabd
000000f0: 971c 16be a27c 54be 6913 50be dc97 cbbd
00000100: c389 5fbd ae6f 3dbd 40ed 83bd 0609 5cbe
00000110: 8ec4 55bd f9fd 29bd 6232 08be 065b 71be
00000120: 9ae8 5abe 94bb 6dbe 8006 05be 714b 86bd
00000130: 4ef7 adbd 6fca 4abe 06f5 45be 445b 01be
00000140: 9062 50be 6d4c 23be 1b91 f6bd cb22 3dbe
00000150: 0d95 debd 19d0 08be 512b d0bc c5d5 4bbe
00000160: 4031 dcbc 4ac3 23bd 74ed 4abe d10c a3bd
00000170: e271 debd 451f 1bbd 9c04 1f3a 7cae efbd
00000180: d9f3 f2bd cceb 09be cc30 973c e9ef 08be
00000190: fdd9 2bbe f332 89bc 3b4b 67bd bbcf 23bd
000001a0: def4 c0bc cdd8 4abe be99 0cbe 8f2e f7bd
000001b0: 2696 a5bc 13d7 10be 41fa f6bd 506d 6dbd
000001c0: ba2f 81bd 53e3 38be 485e 4fbe fb29 1dbe
000001d0: 9319 adbd 7a55 a9bc 505f 90bd 96dd 6cbd
000001e0: cd5c afbd d5f8 11be 5742 09be 6f11 08bd
000001f0: 8be3 c4bd d65c c8bd 6012 76bd 6e9e 3dbd
00000200: 2cab b7bd 5aa2 03be 8b11 27be 257f 38be
00000210: fd84 2dbe 4715 1bbd 9fcd 22bd 6abb 30be
00000220: b096 12bd b335 15be 1bfe 13be 78e9 b2bd
00000230: cdb0 4dbe 3678 37be 5dcd 09be 86f3 1abe
00000240: 1a37 8ebd cf18 13be 375e 52be d4fb 53be
00000250: d149 b8bc 1bed 96bd f3f4 5fbe c413 4ebe
00000260: 895a 3abe ad87 e5bc 0847 83bd d0ed afbd
00000270: 5a55 7dbd b4b2 cfbd c58a 3cbd e36f 4abe
00000280: 0eae 1fbd b6db 93bd be16 adbd 6f4c 5dbd
00000290: 3810 0dbe 67e8 29be 952c 15be d227 46be
000002a0: eda7 eebd 34b2 85bd e915 c9bd c65b f6bd
000002b0: ab33 a1bd 4bde 54be 76e5 3abe 4abf 50be
000002c0: b932 89bc d4ec 53be 4b6c 89bd 6bad 2cbd
000002d0: d7e8 11be 5ae4 04be 2361 01bd 545a 48be
000002e0: b3d6 5abe c970 03be 7129 01be 22d3 1dbe
000002f0: 5cc1 d4bd 985d 6cbd 0b2b 6abd 2d91 a6bd
00000300: 8c0c 21bd 8a89 20be 02b8 d3bd b1df 9bbd
00000310: 9a0b 9dbd 98e0 13be 73af cebc 4cde 39be
00000320: 99e7 4cbe 4e4c 7abe d877 05be cbd4 60be
00000330: 18f3 87bd 714c 49be cbc2 d1bd d538 91bc
00000340: b284 79bc 4f4b 99bd c955 86bd 9766 a6bd
00000350: 597e 1bbd 88e9 c6bd d3b2 20be 81af 0a3c
00000360: cab6 15be e5e1 2d3d aa3b 44bd f45a d139
00000370: 0252 17bd 6e6a ae3b af0f 1c3d 4867 f4bd
00000380: 7ff2 0a3d a8a2 37bd 2d23 c2bd b2c8 99bd
00000390: 76af c63c 03e9 cb3d 9cae 8dbd ae3a 863d
000003a0: c510 aa3d 730f 46bd 9018 9c3d c059 643c
000003b0: 306a a23d 2578 223d 5c28 293e 0ce7 98bb
000003c0: a665 173e 88db 843d 2359 063e 2fd5 fc3d
000003d0: 660b c93c 8c6b 8f3d 0446 063e 92b4 0a3e
000003e0: ad39 a93d 70a4 483e 8a4c c43d 9edf be3d
000003f0: 5d3c 473e 24af 123e 47c4 3b3e d818 623e

conv1.bias f4 [64]
-0.034906328 -0.11282794 -0.009163772 0.11887594 -0.09884876 -0.032580465 0.011964812 -0.01947783
0.046769533 -0.047574688 -0.0027354695 -0.03740378 0.148233 -0.09150016 -0.065228514 0.15526713
0.15027028 0.01583999 -0.118078314 -0.07016838 -0.0871505 -0.00017242123 -0.02370461 0.19557184
0.14274003 -0.15570828 -0.045430977 0.11153116 -0.013334063 -0.04744693 -0.001477901 -0.093654715
0.04954641 -0.08508264 0.057034455 -0.1093844 -0.121212535 -0.09141899 0.4056398 -0.24316023
0.059353847 0.08971372 0.18753012 0.09376344 0.43285105 0.2736368 -0.25849405 -1.0341904
0.007042891 0.30274853 -0.020886669 -0.13775976 0.039312776 0.0010299775 -0.11267584 0.0139956055
-0.03352205 -0.08012166 -0.012394449 -0.110934004 0.18153794 -0.39591068 0.04074367 -0.02048406
00000000: f0f9 0ebd 5612 e7bd a523 16bc 3b75 f33d
00000010: 3871 cabd 1873 05bd 0f08 443c f88f 9fbc
00000020: 6991 3f3d addd 42bd 9045 33bb b534 19bd
00000030: 64ca 173e 7064 bbbd 8796 85bd 59fe 1e3e
00000040: 74e0 193e dec2 813c 0bd3 f1bd 71b4 8fbd
00000050: f67b b2bd f9cb 34b9 2c30 c2bc fc43 483e
00000060: 712a 123e fe71 1fbe d515 3abd 736a e43d
00000070: 1d77 5abc b657 42bd 21b6 c1ba 0bce bfbd
00000080: 2df1 4a3d cf3f aebd f69c 693d ee04 e0bd
00000090: 473e f8bd e139 bbbd 05b0 cf3e fffe 78be
000000a0: 051d 733d d4bb b73d e507 403e 0c07 c03d
000000b0: a79e dd3e 1f1a 8c3e 5559 84be 5a60 84bf
000000c0: 0dc8 e63b db01 9b3e 851a abbc e510 0dbe
000000d0: 6f06 213d 4f00 873a 97c2 e6bd d34d 653c
000000e0: 6b4e 09bd d316 a4bd 1612 4bbc 5e31 e3bd
000000f0: 15e5 393e ceb4 cabe d6e2 263d 30ce a7bc

conv2.weight f4 [32, 64, 10]
-0.07163668 -0.070796974 -0.0661331 -0.0626517 -0.051137008 -0.03391235 -0.09725592 -0.02517388
-0.020579558 -0.081697315 -0.038775258 -0.0502889 -0.08727878 -0.05824246 -0.069710135 -0.027721085
-0.076772176 -0.06778972 -0.027865665 -0.08180156 -0.07821522 -0.0076638786 -0.035810284 -0.02683624
-0.035177685 -0.060112122 -0.035371557 -0.031635262 -0.049017183 -0.034401827 0.060269576 0.101489484
0.1244981 0.08774763 0.12652333 0.08228649 0.06890056 0.085949406 0.10755708 0.08152475
-0.086943 -0.035846107 0.07174487 0.031317417 -0.047918666 -0.054727428 0.06759344 -0.06362721
-0.028029751 -0.08975806 0.021052666 0.04041569 0.023878876 0.04309612 0.007281481 0.044266384
0.044343777 0.028612124 -0.012538525 0.033818915 0.068017505 0.123372056 0.1266873 0.12750496
0.122879334 0.121435404 0.09154738 0.10334783 0.06862603 0.07544329 -0.024093041 0.0017025226
0.011168786 0.0019668906 -0.028437609 0.01524051 0.0021354496 -0.011628169 -0.013192805 -0.016848287
-0.036321748 -0.050673913 -0.064640254 -0.07457733 -0.05971612 -0.086083114 -0.020616155 -0.08831533
-0.04246697 -0.09441004 0.0834792 0.072648324 0.088140704 0.0735931 0.08053942 0.0858795
0.099166326 0.060561515 0.0875274 0.020530451 -0.033239827 -0.031474475 -0.032608263 0.014537794
0.028623268 0.014797071 0.003492305 0.033059254 -0.0050182017 0.022284893 -0.018803684 0.0066198697
-0.004551033 0.032862544 -0.01638032 0.024305373 -0.0030964834 -0.027038073 -0.01685399 -0.0360282
0.058558527 0.09760854 0.08771633 0.12386679 0.18053417 0.18940422 0.1801952 0.16771238
0.108858444 0.122637205 -0.037081722 -0.01318514 0.017341034 0.017956184 -0.00968588 -0.019779233
0.014257161 0.021183278 0.017541528 0.0022802618 0.090894125 0.043968875 0.035483424 0.03833031
0.096872084 0.063068405 0.07773192 0.08786313 0.04055423 0.06661755 0.0989421 0.098573305
0.12725475 0.118555866 0.07697228 0.07538061 0.100424714 0.07117361 0.11677346 0.12093653
-0.037362438 -0.025123045 -0.07918548 -0.03231525 -0.09722211 -0.081359856 -0.060953554 -0.03661587
-0.08935096 -0.10042882 0.021847283 0.06535716 0.07960555 0.0943113 0.08725193 0.096995674
0.090722136 0.020875223 0.019062169 0.06853739 -0.08808456 -0.048962496 -0.026578045 -0.053747226
-0.06852396 -0.07474157 -0.080946 -0.028181698 -0.07240744 -0.029122977 0.09748254 0.09473901
0.12941997 0.08890915 0.115413 0.112324 0.059884332 0.06767678 0.1283498 0.07554431
-0.07886595 -0.088734314 -0.060103077 -0.089849934 -0.073292084 -0.029858183 -0.021294376 -0.027224466
-0.069626056 -0.094829544 -0.019865299 -0.050559793 -0.06527011 -0.026804708 -0.043287024 0.0013706695
-0.026539711 -0.019012403 -0.024051053 -0.02260385 -0.07975614 -0.043933727 -0.02691434 -0.063435264
-0.005368582 -0.033912353 -0.033071887 -0.024869457 -0.053562026 -0.015408362 -0.03843555 -0.038788706
-0.07945649 -0.062297273 -0.044291083 -0.05850294 -0.073063634 -0.064066716 -0.043536875 -0.07790378
-0.021954447 -0.04654609 -0.03215491 -0.055238605 -0.047523495 -0.06870462 -0.07600653 -0.06811288
-0.08813029 -0.097772986 -0.06411992 -0.03464333 -0.044346053 -0.021407695 -0.065137506 -0.0540327
00000000: 40b6 92bd 01fe 90bd ca70 87bd 894f 80bd
00000010: 0a75 51bd ade7 0abd 1d2e c7bd 7439 cebc
00000020: 7696 a8bc ec50 a7bd ced2 1ebd bcfb 4dbd
00000030: 38bf b2bd a58f 6ebd 30c4 8ebd 5417 e3bc
00000040: bb3a 9dbd 56d5 8abd 8946 e4bc 9487 a7bd
00000050: 4d2f a0bd 4621 fbbb cead 12bd add7 dbbc
00000060: 7a16 10bd 2138 76bd c4e1 10bd fa93 01bd
00000070: 3ec6 48bd eee8 0cbd 3bdd 763d b8d9 cf3d
00000080: dcf8 fe3d 08b5 b33d 558f 013e d285 a83d
00000090: bd1b 8d3d 3e06 b03d e346 dc3d 73f6 a63d
000000a0: 2c0f b2bd 5ed3 12bd f9ee 923d b146 003d
000000b0: 5d46 44bd de29 60bd 6e6e 8a3d fc4e 82bd
000000c0: a69e e5bc 13d3 b7bd a476 ac3c ec8a 253d
000000d0: a29d c33c 8f85 303d 7d99 ee3b ab50 353d
000000e0: d2a1 353d f963 ea3c 636e 4dbc b485 0a3d
000000f0: c34c 8b3d 7daa fc3d 51ba 013e a990 023e
00000100: 29a8 fb3d 20b3 f83d 317d bb3d 07a8 d33d
00000110: ce8b 8c3d 0382 9a3d c55e c5bc 2e27 df3a
00000120: 49fd 363c f3e6 003b fdf5 e8bc 55b3 793c
00000130: e6f2 0b3b 1384 3ebc a326 58bc 6b05 8abc
00000140: 1dc6 14bd 738f 4fbd 1c62 84bd 00bc 98bd
00000150: e498 74bd 584c b0bd 36e3 a8bc abde b4bd
00000160: d8f1 2dbd 0d5a c1bd 25f7 aa3d a5c8 943d
00000170: 1d83 b43d fbb7 963d daf1 a43d 97e1 af3d
00000180: b717 cb3d 5a0f 783d 9141 b33d 7a2f a83c
00000190: 7c26 08bd 61eb 00bd 3e90 05bd ed2f 6e3c
000001a0: 587b ea3c 6a6f 723c 28df 643b 2469 073d
000001b0: ba6f a4bb cf8e b63c 2f0a 9abc 7eeb d83b
000001c0: d520 95bb e09a 063d 0530 86bc 101c c73c
000001d0: 5fee 4abb f37e ddbc 6111 8abc 4e92 13bd
000001e0: 11db 6f3d fce6 c73d 9fa4 b33d dfad fd3d
000001f0: f3dd 383e 2ef3 413e 1785 383e cbbc 2b3e
00000200: 2df1 de3d 3729 fb3d 01e3 17bd 7c06 58bc
00000210: c90e 8e3c d918 933c 86b1 1ebc 0f08 a2bc
00000220: de96 693c 8e88 ad3c 40b3 8f3c 7270 153b
00000230: b326 ba3d b518 343d 1157 113d 3e00 1d3d
00000240: df64 c63d 022a 813d ea31 9f3d 96f1 b33d
00000250: 311c 263d c86e 883d 28a2 ca3d cde0 c93d
00000260: 124f 023e 6bcd f23d a5a3 9d3d 2661 9a3d
00000270: 79ab cd3d 78c3 913d ec26 ef3d 92ad f73d
00000280: 5b09 19bd d8ce cdbc ff2b a2bd ff5c 04bd
00000290: 631c c7bd ff9f a6bd 6faa 79bd 86fa 15bd
000002a0: a3fd b6bd a0ad cdbd 13f9 b23c fad9 853d
000002b0: 3c08 a33d 4826 c13d 24b1 b23d aba5 c63d
000002c0: 87cc b93d 8402 ab3c 4428 9c3c 555d 8c3d
000002d0: ae65 b4bd e68c 48bd 33ba d9bc 0d26 5cbd
000002e0: 4a56 8cbd 1c12 99bd 04c7 a5bd 4edd e6bc
000002f0: 5a4a 94bd 4f93 eebc eda4 c73d 8706 c23d
00000300: ab86 043e 0016 b63d a75d ec3d 200a e63d
00000310: 4649 753d 209a 8a3d 216e 033e fab6 9a3d
00000320: 7984 a1bd 56ba b5bd a52e 76bd 3e03 b8bd
00000330: 291a 96bd 2699 f4bc 8b71 aebc d805 dfbc
00000340: 1b98 8ebd fe35 c2bd 8dbc a2bc c917 4fbd
00000350: 56ac 85bd 8c95 dbbc bc4d 31bd 09a8 b33a
00000360: cf69 d9bc e6bf 9bbc b706 c5bc b62b b9bc
00000370: 3057 a3bd daf3 33bd 767b dcbc 59ea 81bd
00000380: eeea afbb aee7 0abd 6376 07bd 08bb cbbc
00000390: db63 5bbd 5b73 7cbc 986e 1dbd e8e0 1ebd
000003a0: 16ba a2bd 6d2b 7fbd 916a 35bd c7a0 6fbd
000003b0: 63a2 95bd 6935 83bd b953 32bd 048c 9fbd
000003c0: d0d9 b3bc 1da7 3ebd deb4 03bd e041 62bd
000003d0: ffa7 42bd 02b5 8cbd 50a9 9bbd c47e 8bbd
000003e0: a77d b4bd 343d c8bd 4e51 83bd 2ae6 0dbd
000003f0: 35a4 35bd 315f afbc d066 85bd 6451 5dbd

conv2.bias f4 [32]
0.021396816 0.05488883 -0.013743953 -0.007445461 -0.023922078 0.010042724 0.022375008 -0.016021196
-0.027146982 -0.04720133 0.011198459 -0.028127838 -0.0052755224 0.032683816 -0.03946592 -0.0007831371
-0.049217544 -0.023177974 -0.045430344 -0.019913873 0.06977682 -0.010993938 0.048091758 -0.046140023
-0.040599413 0.013037769 0.0126588615 -0.06255348 0.0684668 0.0056344927 0.027949067 -0.02404327
00000000: 6048 af3c 1cd3 603d 512e 61bc 0ef9 f3bb
00000010: 3cf8 c3bc 3d8a 243c cb4b b73c e23e 83bc
00000020: 5963 debc 2f56 41bd be79 373c 5a6c e6bc
00000030: 4ade acbb 77df 053d 04a7 21bd 714b 4dba
00000040: 5698 49bd bcdf bdbc 2b15 3abd 6b22 a3bc
00000050: 26e7 8e3d eb1f 34bc ddfb 443d 52fd 3cbd
00000060: 924b 26bd 5e9c 553c 1d67 4f3c 0a1c 80bd
00000070: 5238 8c3d 8da1 b83b 71f5 e43c 64f6 c4bc

batch1.weight f4 [32]
0.87217116 0.9938791 1.0495558 1.0710523 0.9699007 0.910156 0.69681305 1.0166001
0.7130821 0.99678653 0.84605986 0.8202046 0.99467784 0.75884116 0.911784 0.9264907
0.73158985 0.88798684 0.9536739 0.9123297 0.73768276 1.0583414 1.0619061 1.0753219
0.940425 0.67074203 0.92992324 1.225182 0.8087882 0.95253384 0.74152774 0.7759013
00000000: 9c46 5f3f dc6e 7e3f d857 863f 3e18 893f
00000010: 6a4b 783f fcff 683f 5762 323f f41f 823f
00000020: 8c8c 363f 672d 7f3f 6197 583f eef8 513f
00000030: 35a3 7e3f 6a43 423f ad6a 693f 7f2e 6d3f
00000040: 7949 3b3f 1b53 633f f923 743f 708e 693f
00000050: c7d8 3c3f bb77 873f 8aec 873f 26a4 893f
00000060: b1bf 703f c0b5 2b3f 730f 6e3f c4d2 9c3f
00000070: be0c 4f3f 42d9 733f c3d4 3d3f 78a1 463f

batch1.bias f4 [32]
-0.79352504 -0.2821118 -0.6360715 -0.32299185 -0.9134699 -0.2740883 -0.51805955 -0.90640074
-0.6526101 -0.30360088 -1.0458689 -0.77668023 -0.8662056 -0.5773687 -0.3800754 -1.0433321
-0.6357752 -0.8355821 -0.29277164 -0.27829346 -0.96009505 -0.88927776 -0.8944081 -0.8983986
-0.29103282 -0.6093902 -0.8286315 -0.36938545 -0.78699124 -0.2859972 -0.93059593 -0.98190975
00000000: 7524 4bbf f570 90be 95d5 22bf 305f a5be
00000010: 2ad9 69bf 4d55 8cbe 8d9f 04bf e109 68bf
00000020: 7511 27bf 9371 9bbe 08df 85bf 84d4 46bf
00000030: a6bf 5dbf 6fce 13bf 3e99 c2be e88b 85bf
00000040: 2ac2 22bf b5e8 55bf 2ae6 95be 7b7c 8ebe
00000050: cac8 75bf b5a7 63bf eef7 64bf 73fd 65bf
00000060: 4102 95be ff00 1cbf 3221 54bf 1720 bdbe
00000070: 4278 49bf 3a6e 92be 893b 6ebf 705e 7bbf

batch1.running_mean f4 [32]
92.50996 -166.84772 -184.71245 -179.41333 160.49472 -165.70744 -187.26395 159.98792
155.50049 -146.74161 -122.2533 116.59819 204.85582 -166.41327 203.59903 -191.57072
111.48824 67.94336 -179.67593 -203.98213 -108.21964 159.67587 192.23824 161.67398
-295.64987 162.743 90.166626 -270.96475 116.62639 -187.66115 -89.2051 -67.39609
00000000: 1905 b942 04d9 26c3 63b6 38c3 d069 33c3
00000010: a67e 2043 1bb5 25c3 9243 3bc3 e8fc 1f43
00000020: 2080 1b43 dabd 12c3 b181 f4c2 4632 e942
00000030: 17db 4c43 cc69 26c3 5a99 4b43 1b92 3fc3
00000040: fbf9 de42 00e3 8742 0aad 33c3 6dfb 4bc3
00000050: 7570 d8c2 06ad 1f43 fd3c 4043 8aac 2143
00000060: 2fd3 93c3 35be 2243 5055 b442 7d7b 87c3
00000070: b640 e942 41a9 3bc3 0369 b2c2 ccca 86c2

batch1.running_var f4 [32]
6102.3604 22340.885 30352.977 25377.082 19702.746 21136.012 29639.898 18803.113
13957.727 17114.31 9397.208 10036.882 30731.428 24485.043 23894.438 25468.78
7175.162 3494.961 25533.402 32673.334 7681.2256 19260.846 27319.633 19973.357
66588.15 15277.133 5945.6123 58509.742 10130.901 27674.666 5606.972 3155.5933
00000000: e2b2 be45 c589 ae46 f421 ed46 2a42 c646
00000010: 7eed 9946 0620 a546 cc8f e746 3ae6 9246
00000020: e816 5a46 9fb4 8546 d5d4 1246 87d3 1c46
00000030: db16 f046 164a bf46 e0ac ba46 8ff9 c646
00000040: 4c39 e045 606f 5a45 ce7a c746 ab42 ff46
00000050: ce09 f045 b179 9646 446f d546 b70a 9c46
00000060: 130e 8247 88b4 6e46 e6cc b945 be8d 6447
00000070: 9b4b 1e46 5535 d846 c737 af45 7e39 4545

conv3.weight f4 [32, 32, 5]
0.3972258 0.48224297 0.42987832 0.4835602 0.43082514 0.021918304 0.06877809 0.022058545
0.040663432 0.036850493 0.29811072 0.1336039 -0.06691188 -0.006660187 -0.011977512 0.17429745
0.08976114 0.047007807 0.032560688 0.14528894 0.027510341 0.1553596 0.35590187 0.33187854
0.35067096 -0.05417763 -0.06998703 -0.12260362 -0.089152545 -0.007241256 0.10800262 -0.012159483
-0.018920712 0.0022123496 0.09551594 0.1789235 0.28555128 0.391908 0.3667292 0.32672262
0.13304734 0.10589407 0.15535966 0.07117978 0.21281113 0.030506484 0.14461204 -0.0021414054
-0.0066059493 0.112864144 0.26485205 0.25223464 0.35207704 0.36929607 0.36678705 -0.049834885
0.055513244 0.25196558 0.19481786 0.22087857 0.08160105 0.24958026 0.4388995 0.40084958
0.47984385 0.13144465 0.003390193 -0.0047087846 -0.016302805 0.097070426 -0.41993526 -0.4352831
-0.53031856 -0.531593 -0.5684092 0.1702686 0.36447367 0.3446451 0.41694894 0.34468955
-0.18504089 -0.23686515 -0.20990013 -0.19153854 -0.19083858 0.19188936 0.21936923 0.36411637
0.29621527 0.30474433 0.036966465 0.06387776 -0.1025299 -0.05906226 -0.047534604 -0.0076165497
-0.027728071 -0.098143145 -0.13819985 -0.09397921 0.059175514 0.15486668 0.21498981 0.2693575
0.3500011 0.26753542 0.42405105 0.5243149 0.5023872 0.44846535 0.22137497 0.31185362
0.4380619 0.4497357 0.3890304 0.14186366 0.24494392 0.3238813 0.38644454 0.44941372
-0.03095875 0.018097444 0.003720005 -0.0071674967 -0.060460243 0.05853241 0.121727385 -0.008498218
0.05486952 0.1453876 0.2193047 0.41228512 0.52453756 0.4640962 0.38394088 0.086372755
0.09173088 0.08601035 0.009704407 -0.025082992 0.07748688 0.08970964 0.2117403 0.29419458
0.23362549 0.13788395 -0.02018671 -0.06744695 0.043516133 0.06036287 0.0553462 0.2371384
0.26244998 0.3009955 0.25973997 0.076411836 0.2667994 0.30793092 0.37789944 0.37145817
-0.24023129 -0.22807556 -0.20263742 -0.19408451 -0.06171439 -0.41478622 -0.21539567 -0.17356025
-0.2659135 -0.3405158 -0.43981922 -0.32075432 -0.4143434 -0.48752826 -0.55493057 -0.47049204
-0.32905075 -0.23754704 -0.34907734 -0.418402 -0.37279922 -0.24507692 -0.26512447 -0.27772316
-0.3220562 -0.29478255 -0.09913592 -0.20339802 -0.28515795 -0.2588439 -0.39806816 -0.30200255
-0.31787786 -0.3107899 -0.20952293 -0.36737418 -0.32160294 -0.22765495 -0.27261582 -0.20853439
-0.43799257 -0.28936714 -0.39541382 -0.2893217 -0.28965047 -0.38941693 -0.2465065 -0.18284765
-0.27803114 -0.30544093 -0.2819402 -0.25075027 -0.27787668 -0.16782552 -0.21777308 -0.3208776
-0.31350303 -0.22506192 -0.2084886 -0.28822544 -0.35861644 -0.25172743 -0.26453257 -0.2993892
-0.22641395 -0.42707554 -0.35400802 -0.329577 -0.29185635 -0.30088958 -0.49403328 -0.4918871
-0.44366178 -0.3207216 -0.13158312 -0.3393721 -0.43463367 -0.33179122 -0.34946597 -0.31665963
-0.36865512 -0.2344226 -0.25227553 -0.13752754 -0.3600058 -0.3021353 -0.21694824 -0.26773587
-0.2635834 -0.35537335 -0.25388473 -0.085519165 -0.23862003 -0.27849308 -0.32546812 -0.31613117
00000000: 2e61 cb3e 8de8 f63e 0319 dc3e 3495 f73e
00000010: 1d95 dc3e 048e b33c 87db 8c3d 1fb4 b43c
00000020: b38e 263d 8bf0 163d f8a1 983e 76cf 083e
00000030: 1909 89bd b33d dabb 543d 44bc 087b 323e
00000040: b0d4 b73d 428b 403d 5b5e 053d a0c6 143e
00000050: 5e5d e13c 9616 1f3e c538 b63e fceb a93e
00000060: 258b b33e 5de9 5dbd 5c55 8fbd 9b17 fbbd
00000070: 9c95 b6bd 0f48 edbb 7a30 dd3d 9138 47bc
00000080: 9cff 9abc 11fd 103b dc9d c33d b937 373e
00000090: c733 923e 2aa8 c83e eec3 bb3e 3048 a73e
000000a0: 903d 083e fdde d83d 9a16 1f3e b4c6 913d
000000b0: 29eb 593e bce8 f93c 2e15 143e d256 0cbb
000000c0: b876 d8bb 5125 e73d b09a 873e e624 813e
000000d0: 7143 b43e 6014 bd3e 83cb bb3e aa1f 4cbd
000000e0: db61 633d a201 813e 557e 473e fe2d 623e
000000f0: 741e a73d f891 7f3e 6fb7 e03e 283c cd3e
00000100: 18ae f53e 6d99 063e 002e 5e3b 264c 9abb
00000110: 768d 85bc dccc c63d c101 d7be 6ddd debe
00000120: f5c2 07bf 7b16 08bf 4483 11bf e45a 2e3e
00000130: 4b9c ba3e 5375 b03e 557a d53e 267b b03e
00000140: 5c7b 3dbe c78c 72be 0ff0 56be ae22 44be
00000150: 306b 43be a57e 443e 54a2 603e 766d ba3e
00000160: 87a9 973e 7307 9c3e 266a 173d 58d2 823d
00000170: 32fb d1bd 45eb 71bd a5b3 42bd 4094 f9bb
00000180: fb25 e3bc 46ff c8bd 4384 0dbe 2c78 c0bd
00000190: 0662 723d 5f95 1e3e 4a26 5c3e 3ae9 893e
000001a0: 5833 b33e 67fa 883e 381d d93e 8039 063f
000001b0: 739c 003f 409d e53e 1fb0 623e 47ab 9f3e
000001c0: a649 e03e c243 e63e fe2e c73e b544 113e
000001d0: 94d2 7a3e c5d3 a53e 0fdc c53e 8e19 e63e
000001e0: 349d fdbc 1741 943c 54cb 733b 52dd eabb
000001f0: 29a5 77bd aebf 6f3d 354c f93d 1c3c 0bbc
00000200: ddbe 603d 7de0 143e 6991 603e 0917 d33e
00000210: 1848 063f 049e ed3e e693 c43e 33e4 b03d
00000220: 66dd bb3d 3226 b03d 3cff 1e3c d97a cdbc
00000230: 71b1 9e3d b0b9 b73d 73d2 583e aca0 963e
00000240: 853b 6f3e 7331 0d3e 995e a5bc a021 8abd
00000250: f93d 323d 0f3f 773d b2b2 623d 69d4 723e
00000260: d85f 863e 151c 9a3e a3fc 843e cf7d 9c3d
00000270: ee99 883e 1fa9 9d3e 097c c13e c42f be3e
00000280: 31ff 75be a48c 69be 2f80 4fbe 17be 46be
00000290: 3ac8 7cbd dc5e d4be af90 5cbe c7b9 31be
000002a0: d025 88be 1658 aebe fc2f e1be e939 a4be
000002b0: d124 d4be 4e9d f9be ee0f 0ebf 55e4 f0be
000002c0: 5779 a8be 883f 73be 44ba b2be c938 d6be
000002d0: 8adf bebe 72f5 7abe 65be 87be bb31 8ebe
000002e0: 8de4 a4be bded 96be c607 cbbd 9247 50be
000002f0: 3900 92be 3087 84be 97cf cbbe 14a0 9abe
00000300: e3c0 a2be db1f 9fbe 2e8d 56be 7818 bcbe
00000310: 24a9 a4be 611e 69be 4d94 8bbe 0a8a 55be
00000320: 9040 e0be ee27 94be ae73 cabe f921 94be
00000330: 114d 94be a861 c7be 336c 7cbe 6a3c 3bbe
00000340: 195a 8ebe c162 9cbe 775a 90be 5762 80be
00000350: da45 8ebe 74da 2bbe e8ff 5ebe 124a a4be
00000360: 7883 a0be a276 66be 097e 55be 4992 93be
00000370: 939c b7be 6be2 80be d070 87be 8b49 99be
00000380: 0fd9 67be a5a9 dabe 8a40 b5be 51be a8be
00000390: 326e 95be 330e 9abe eef1 fcbe a0d8 fbbe
000003a0: a327 e3be 9f35 a4be babd 06be 2ec2 adbe
000003b0: 4e88 debe 8ae0 a9be 34ed b2be 3621 a2be
000003c0: 5dc0 bcbe 7a0c 70be 422a 81be 05d4 0cbe
000003d0: ae52 b8be 7ab1 9abe ae27 5ebe ad14 89be
000003e0: 67f4 86be 7ff3 b5be 2efd 81be ac24 afbd
000003f0: cf58 74be a596 8ebe c2a3 a6be f2db a1be

conv3.bias f4 [32]
0.06167201 -0.18859756 0.07635837 -0.062379513 0.0108415745 -0.04233508 -0.023979664 0.009234661
0.03147453 -0.053682696 -0.016747382 -0.13925347 -0.033403777 0.026918618 0.025595585 0.05253767
0.12470496 -0.046838704 0.044052772 -0.018677533 0.06595712 0.008567597 -0.0119684255 0.05425837
-0.015697531 -0.15199938 -0.08341897 0.10908481 0.006330342 0.12764794 -0.052616566 0.026882073
00000000: ca9b 7c3d b81f 41be c761 9c3d a981 7fbd
00000010: dca0 313c 8d67 2dbd 0071 c4bc fa4c 173c
00000020: 70eb 003d 63e2 5bbd ce31 89bc 7698 0ebe
00000030: 66d2 08bd 6f84 dc3c d5ad d13c bd31 573d
00000040: 5065 ff3d f1d9 3fbd ae70 343d a001 99bc
00000050: 8714 873d 1b5f 0c3c 3717 44bc 063e 5e3d
00000060: 1c98 80bc baa5 1bbe 91d7 aabd db67 df3d
00000070: c26e cf3b 24b6 023e 7884 57bd cb37 dc3c

batch2.weight f4 [32]
0.6637199 1.0236621 1.0658288 0.6926829 1.3070152 1.3050086 0.9681464 1.1793561
1.0937864 0.6175709 0.75312585 0.8364369 0.88547164 1.0386102 0.9020284 0.8433996
0.91861385 0.85887736 1.0435901 1.4748192 0.784073 1.3690951 1.2764724 0.64913416
1.0217793 0.9138352 1.1408429 0.499513 0.5829883 1.6561482 1.0264814 1.2849765
00000000: 8ce9 293f 5c07 833f 146d 883f ab53 313f
00000010: 464c a73f 860a a73f 71d8 773f 24f5 963f
00000020: 3101 8c3f 2019 1e3f dbcc 403f bb20 563f
00000030: 45ae 623f 2ef1 843f 55eb 663f 09e9 573f
00000040: 472a 6b3f 63df 5b3f 5c94 853f e0c6 bc3f
00000050: 02b9 483f 823e af3f 7363 a33f a82d 263f
00000060: aac9 823f 1bf1 693f 2407 923f 2bc0 ff3e
00000070: b93e 153f aafc d33f be63 833f 1c7a a43f

batch2.bias f4 [32]
-0.40758067 0.1910828 -0.15470804 -0.016907804 -0.087981045 -0.082324505 -0.3012181 0.20320606
0.11095133 -0.40609005 -0.23157854 -0.004797716 0.11429936 -0.24415372 0.20115687 -0.25282463
-0.22277549 -0.30105504 -0.15171431 0.38036335 -0.08493514 0.30732226 0.0072333827 -0.3257589
0.08988516 -0.09727144 -0.21436252 -0.31511402 -0.40232983 0.1947744 0.14007169 0.40923414
00000000: 6aae d0be 36ab 433e c96b 1ebe 3c82 8abc
00000010: 682f b4bd c099 a8bd 4239 9abe 4015 503e
00000020: 733a e33d 09eb cfbe ed22 6dbe 2936 9dbb
00000030: c815 ea3d 6f03 7abe 11fc 4d3e 3b72 81be
00000040: 421f 64be e323 9abe ff5a 1bbe fcbe c23e
00000050: 7af2 adbd 5859 9d3e 0306 ed3b dfc9 a6be
00000060: b615 b83d 4036 c7bd d981 5bbe a056 a1be
00000070: 2dfe cdbe f172 473e f46e 0f3e 2387 d13e

batch2.running_mean f4 [32]
2.0985272 -7.53566 -7.457938 -5.374559 1.2137234 1.6976444 -7.852488 -7.3207107
-5.7067413 -1.7178982 3.403382 -6.4441724 -6.8865395 -8.782593 -4.9319987 2.2196643
-5.6356106 -6.05355 5.7727647 -6.466605 -6.6903367 7.9852386 7.504217 1.1884344
-7.610904 -8.009687 1.6429296 -1.67933 0.834582 3.6504462 -7.128538 -4.6290865
00000000: 454e 0640 2024 f1c0 6ea7 eec0 63fc abc0
00000010: 4a5b 9b3f 694c d93f 9547 fbc0 4343 eac0
00000020: a09d b6c0 17e4 dbbf 03d1 5940 a936 cec0
00000030: 885e dcc0 8085 0cc1 efd2 9dc0 fb0e 0e40
00000040: ec56 b4c0 aeb6 c1c0 7dba b840 6eee cec0
00000050: 3d17 d6c0 1387 ff40 8c22 f040 9e1e 983f
00000060: 878c f3c0 ae27 00c1 844b d23f 49f4 d6bf
00000070: 2aa7 553f e9a0 6940 fc1c e4c0 7a21 94c0

batch2.running_var f4 [32]
14.791561 27.351885 27.61193 34.68325 18.257576 27.685661 29.432354 29.23522
22.41936 31.451685 35.965683 26.659998 76.53987 41.590054 19.601973 22.813736
21.648779 22.199125 29.152767 24.59093 56.880493 30.845123 39.300053 25.008543
28.344854 29.752985 30.591654 7.7343764 4.4116473 37.2997 31.690445 49.507545
00000000: 3caa 6c41 a9d0 da41 3ce5 dc41 a6bb 0a42
00000010: 840f 9241 3c7c dd41 7675 eb41 bbe1 e941
00000020: d95a b341 0d9d fb41 dcdc 0f42 ad47 d541
00000030: 6a14 9942 375c 2642 d7d0 9c41 8882 b641
00000040: b330 ad41 cf97 b141 de38 e941 3aba c441
00000050: a085 6342 d0c2 f641 4133 1d42 7f11 c841
00000060: 43c2 e241 1d06 ee41 b5bb f441 0380 f740
00000070: 372c 8d40 e532 1542 0886 fd41 ba07 4642

fc1.weight f4 [50, 3136]
0.08126222 0.012384589 0.013173292 0.027709177 -0.06716446 -0.18134567 -0.2972124 -0.3072594
-0.3675121 -0.32298225 -0.2577159 -0.19099464 -0.08749872 -0.05798908 0.0053795534 -0.00549443
-0.031997938 -0.014311636 -0.013572175 0.005430879 -0.010528295 -0.054310955 -0.025724921 -0.006433856
-0.033029374 -0.026737101 -0.034449104 -0.04505781 -0.10795385 -0.13778332 -0.17658292 -0.15438692
-0.061788157 -0.04326084 -0.013921017 -0.012641017 -0.049631465 -0.08931161 -0.113652214 -0.10882142
-0.14881901 -0.15870425 -0.1618888 -0.22964844 -0.31587178 -0.40170375 -0.44950622 -0.42368138
-0.39884976 -0.3646141 -0.34674555 -0.27850854 -0.19651257 -0.14388789 -0.08744519 -0.020469414
0.02950354 0.10283897 0.11425423 0.11262302 0.060526744 0.014946611 -0.027761022 -0.061211508
-0.124630004 -0.19163433 -0.22796051 -0.21843934 -0.18777075 -0.16492578 -0.17923807 -0.19759509
-0.21307185 -0.16606052 -0.1620115 -0.2033255 -0.24360459 -0.24755181 -0.18729441 -0.12213379
-0.11381389 -0.09323138 -0.13489075 -0.14047861 -0.1535372 -0.1278291 -0.070064954 -0.08049927
-0.04151249 -0.004805026 0.014808235 -0.026143026 -0.01639072 -0.0022884088 0.024394838 0.004989945
0.016481532 0.020822233 0.2131095 0.06000038 0.049421743 0.08499385 0.10515029 0.034376975
-0.023907328 -0.05882751 -0.04414687 -0.030369952 0.008241709 0.09583854 0.21852864 0.26443982
0.30114874 0.27268142 0.17461762 0.09449104 0.06746246 0.0915495 0.12229648 0.13144648
0.066541605 -0.04825304 -0.120309815 -0.11997345 -0.05025352 0.022187782 0.08232975 0.12078801
0.08590583 -0.018595152 -0.008564727 0.049675435 0.16875978 0.29259607 0.32725465 0.3504393
0.35644692 0.30709738 0.2446349 0.20478144 0.18877806 0.1965645 0.22212853 0.21855181
0.18934259 0.14730322 0.10456212 0.06877756 0.031487808 -0.00483129 0.017264023 0.09361151
0.13120088 0.1340276 0.117706776 0.03422497 0.06901565 0.07674673 0.10598516 0.19390339
0.23735377 0.2545003 0.22178726 0.15152276 0.09839727 0.10929032 0.16012056 0.30659688
0.43000576 0.5018468 0.54544586 0.537688 0.48125628 0.38754222 0.3118749 0.25952363
0.1792581 0.20862918 0.19509618 0.11959652 0.078851715 0.009958483 -0.07311198 -0.11585217
-0.07437416 -0.008187836 0.06902504 0.14369471 0.24630485 0.30714104 0.32447913 0.28084445
0.25516245 0.23525077 0.20395513 0.124026634 0.05746079 0.025421986 -0.09851359 -0.09265739
-0.05670334 -0.12169074 -0.21422355 -0.26110357 -0.23404434 -0.16083051 -0.048382677 0.09555653
0.1656088 0.16949989 0.18101005 0.122171625 0.026770689 -0.10691905 -0.15693867 -0.11919011
-0.095505185 -0.053189844 -0.08486313 -0.16079661 -0.22389732 -0.21138705 -0.17248966 -0.1380527
-0.0917066 -0.04801934 -0.09848713 -0.14381586 -0.17406695 -0.14444675 -0.06410946 0.0032681203
0.07444654 0.10951957 0.0973706 0.11961788 0.04554957 0.05154041 0.05355002 0.05925246
0.06062009 0.07642901 0.05069159 -0.006775184 -0.027860872 -0.079100534 -0.1289757 -0.16850436
-0.1181085 -0.04451413 0.00096796046 0.01098026 -0.0023238529 -0.020022243 -0.063520804 -0.006225029
00000000: cf6c a63d bbe8 4a3c cbd4 573c 5bfe e23c
00000010: 858d 89bd aeb2 39be 392c 98be 1b51 9dbe
00000020: 8c2a bcbe ee5d a5be 57f3 83be 1994 43be
00000030: 8732 b3bd f585 6dbd f746 b03b 9f0a b4bb
00000040: 4510 03bd 5a7b 6abc d45d 5ebc 84f5 b13b
00000050: df7e 2cbc 2a75 5ebd 12bd d2bc 19d3 d2bb
00000060: cf49 07bd c407 dbbc 811a 0dbd 8a8e 38bd
00000070: e816 ddbd 1217 0dbe 27d2 34be 9b17 1ebe
00000080: 9415 7dbd 4732 31bd fa14 64bc 451c 4fbc
00000090: 5d4a 4bbd 01e9 b6bd 7ec2 e8bd c4dd debd
000000a0: 0364 18be 5e83 22be 2dc6 25be f628 6bbe
000000b0: f2b9 a1be 1dac cdbe ae25 e6be c4ec d8be
000000c0: 0936 ccbe b3ae babe a288 b1be ac98 8ebe
000000d0: 973a 49be 5957 13be 7716 b3bd 79af a7bc
000000e0: 68b1 f13c 3d9d d23d 1ffe e93d e6a6 e63d
000000f0: e4ea 773d a1e2 743c 156b e3bc ebb8 7abd
00000100: 043e ffbd ca3b 44be 7b6e 69be 90ae 5fbe
00000110: fa46 40be 4ee2 28be 2f8a 37be 5e56 4abe
00000120: 822f 5abe c50b 2abe 58e6 25be 8f34 50be
00000130: 7b73 79be 397e 7dbe 1bca 3fbe 4821 fabd
00000140: 4217 e9bd 18f0 bebd cd20 0abe a0d9 0fbe
00000150: db38 1dbe a2e5 02be 377e 8fbd cddc a4bd
00000160: 0009 2abd 7b73 9dbb 3d9e 723c e629 d6bc
00000170: d545 86bc 21f9 15bb afd7 c73c b182 a33b
00000180: 4704 873c 6393 aa3c 6039 5a3e f5c2 753d
00000190: 746e 4a3d 4111 ae3d 0959 d73d dfce 0c3d
000001a0: 4dd9 c3bc 1df5 70bd 59d3 34bd 68ca f8bc
000001b0: 3c08 073c ff46 c43d f9c5 5f3e a864 873e
000001c0: 2b30 9a3e e69c 8b3e f6ce 323e 8584 c13d
000001d0: c229 8a3d 4e7e bb3d 9476 fa3d e899 063e
000001e0: f746 883d fba4 45bd fe64 f6bd a4b4 f5bd
000001f0: a3d6 4dbd 27c3 b53c 809c a83d b45f f73d
00000200: 65ef af3d dc54 98bc 1253 0cbc 7878 4b3d
00000210: 5dcf 2c3e 27cf 953e ec8d a73e c86c b33e
00000220: 3680 b63e de3b 9d3e 9281 7a3e 3ab2 513e
00000230: 094f 413e 3448 493e a975 633e 0ccc 5f3e
00000240: 06e3 413e a8d6 163e aa24 d63d 40db 8c3d
00000250: 5cf9 003d cc4f 9ebb 486d 8d3c 64b7 bf3d
00000260: 8659 063e 883e 093e 4010 f13d 7b2f 0c3d
00000270: 1458 8d3d 642d 9d3d bf0e d93d 9c8e 463e
00000280: de0c 733e dd4d 823e 331c 633e c828 1b3e
00000290: 8284 c93d 9ad3 df3d a5f6 233e 44fa 9c3e
000002a0: b729 dc3e 0879 003f 57a2 0b3f eca5 093f
000002b0: 3967 f63e ef6b c63e 11ae 9f3e 48e0 843e
000002c0: 6f8f 373e e3a2 553e 4bc7 473e 05ef f43d
000002d0: 027d a13d e828 233c bcbb 95bd e743 edbd
000002e0: 7b51 98bd 4626 06bc 005d 8d3d b524 133e
000002f0: 5737 7c3e 9741 9d3e 2122 a63e d8ca 8f3e
00000300: a7a4 823e 94e5 703e 9dd9 503e ad01 fe3d
00000310: 015c 6b3d c541 d03c 7ec1 c9bd 28c3 bdbd
00000320: c341 68bd ff38 f9bd 6b5d 5bbe 5eaf 85be
00000330: 52a9 6fbe c1b0 24be ea2c 46bd 24b3 c33d
00000340: 5a95 293e 6191 2d3e b35a 393e 1e35 fa3d
00000350: 344e db3c 60f8 dabd 88b4 20be f219 f4bd
00000360: 3998 c3bd 98dd 59bd b8cc adbd dea7 24be
00000370: 5745 65be d975 58be 21a1 30be b05d 0dbe
00000380: abd0 bbbd edaf 44bd 9fb3 c9bd 7744 13be
00000390: 9b3e 32be d9e9 13be d24b 83bd f62d 563b
000003a0: 6d77 983d cc4b e03d 3d6a c73d 38fa f43d
000003b0: 3092 3a3d 091c 533d 4457 5b3d b5b2 723d
000003c0: c64c 783d d086 9c3d fca1 4f3d 5d02 debb
000003d0: 7c3c e4bc 76ff a1bd 3512 04be 688c 2cbe
000003e0: dfe2 f1bd 7354 36bd babe 7d3a 8ce6 333c
000003f0: c84b 18bb b005 a4bc 3217 82bd 54fb cbbb

fc1.bias f4 [50]
-0.22041778 0.09341606 -0.104279175 0.14503951 -0.01559031 -0.12864125 0.05054618 -0.23305464
0.1390679 -0.0055365036 -0.046071723 0.19818172 -0.1823272 -0.19364835 0.09451656 -0.07158726
0.05829996 -0.046071593 -0.0780739 -0.02434081 -0.0741875 -0.07413339 -0.090653814 0.032141566
0.11381167 -0.14849344 0.08635677 0.0013367606 0.083748214 0.32811826 -0.042435534 0.07291279
0.06437611 -0.054949425 -0.0678996 -0.024264438 -0.16504776 -0.054540675 -0.045226958 0.041899815
0.11217502 0.015848296 -0.10888586 -0.11249871 0.24989054 -0.05889525 -0.0014082544 -0.18962905
0.037527192 0.15773667
00000000: 33b5 61be eb50 bf3d 5290 d5bd 3d85 143e
00000010: 806e 7fbc 88ba 03be 8309 4f3d e0a5 6ebe
00000020: d167 0e3e 8f6b b5bb b4b5 3cbd 26f0 4a3e
00000030: fbb3 3abe c14b 46be e691 c13d 579c 92bd
00000040: f0cb 6e3d 91b5 3cbd 35e5 9fbd 6166 c7bc
00000050: 9eef 97bd 3fd3 97bd b5a8 b9bd e0a6 033d
00000060: 1816 e93d aa0e 18be d1db b03d 3e36 af3a
00000070: 2f84 ab3d 1eff a73e e2d0 2dbd 4d53 953d
00000080: 9fd7 833d a612 61bd f20e 8bbd 37c6 c6bc
00000090: 4802 29be 0b66 5fbd e73f 39bd 249f 2b3d
000000a0: 04bc e53d 49d4 813c 8dff debd b965 e6bd
000000b0: 4ee3 7f3e 253c 71bd 2d95 b8ba 1e2e 42be
000000c0: 1db6 193d b985 213e
