DOMAIN_ADAPTION/P_C1_vs_C2_C3/no_mmd/feature=D:s_diff_X_GAMMA=0.0_GAMMA_reduction1.0_num_pool=2_[True, False, False, False, False, True]_14_07_2022__21_03_30/best_model/model_cnn.pt (torch, 762095 bytes, 16 tensors)

conv1.weight f4 [64, 1, 100]
0	0x3dbf8ddf	0.09353232
1	0x3e00d292	0.12580326
2	0x3dbf8c1a	0.09352894
3	0x3dbade28	0.09124404
4	0x3da443ac	0.0802072
5	0xbb82fa01	-0.003997088
6	0x3cf545e0	0.029940546
7	0x3d72152b	0.05910222
8	0x3dd302b8	0.10303253
9	0x3da4a394	0.080390126
10	0x3cea9711	0.028636487
11	0x3d013f9e	0.03155481
12	0x3d590a91	0.052988593
13	0x3e2ed1cd	0.1707222
14	0x3e1526c0	0.14565563
15	0xbbde198e	-0.0067779487
16	0x3d08a9b6	0.033364974
17	0x3df2e157	0.118593864
18	0x3d4164d1	0.047215287
19	0x3d716532	0.058934398
20	0x3b1ccd26	0.002392599
21	0x3d96cdc0	0.073634624
22	0x3e026e92	0.12737492
23	0x3e344f5e	0.17608401
24	0x3d73f6b7	0.059561457
25	0x3d672430	0.056430995
26	0x3ddf6f72	0.109099284
27	0x3dc9cb2d	0.09853206
28	0x3de59848	0.11210686
29	0x3a9ec889	0.0012114207
30	0x3e2ff51d	0.17183347
31	0x3dce50e2	0.10074021
32	0x3db431ce	0.08798562
33	0x3d842fb9	0.06454415
34	0x3c45dbd1	0.012076334
35	0x3d884cf1	0.066553004
36	0x3bff2936	0.007786895
37	0x3e19b051	0.15008666
38	0x3d53fab9	0.05175278
39	0x3c652591	0.013986007
40	0x3d80909e	0.062775835
41	0x3e16b358	0.14716852
42	0x3d57004b	0.052490514
43	0x3d202f57	0.039107647
44	0x3d932c0f	0.07186138
45	0x3e527547	0.2055255
46	0x3e33605a	0.17517224
47	0x3e0e397d	0.13889118
48	0x3db7e782	0.089797035
49	0x3da96c24	0.08272579
50	0x3e0da95c	0.13834137
51	0x3e4297e1	0.1900325
52	0x3d4cef52	0.05003292
53	0x3e4d0968	0.2002312
54	0x3cd076f3	0.025447344
55	0x3d20bf9c	0.039245233
56	0x3cf51d7e	0.02992129
57	0x3e2164d7	0.15761124
58	0x3e0c0b1b	0.13676111
59	0x3e1c11e1	0.15241195
60	0x3d5c6ee4	0.05381669
61	0x3d943ca5	0.072381295
62	0x3e2e57ab	0.1702563
63	0x3e4c4c9e	0.19951102
64	0x3d4a1487	0.049335983
65	0x3e09f71f	0.13473175
66	0x3dfadc40	0.122490406
67	0x3de4ab97	0.11165541
68	0x3e2a3a6d	0.1662385
69	0x3d64ef15	0.05589207
70	0x3e3f8f1a	0.18706933
71	0x3dc08913	0.09401145
72	0x3e4d0d34	0.20024568
73	0x3de85ec9	0.11346204
74	0x3e507921	0.20358707
75	0x3d892931	0.0669731
76	0x3d480358	0.048831314
77	0x3e6f5f65	0.23376234
78	0x3dd07f23	0.101804994
79	0x3e11ee8e	0.14251158
80	0x3e568a6f	0.20951246
81	0x3e66dda5	0.22545488
82	0x3e284dc2	0.16435912
83	0x3d3a9fcc	0.04556255
84	0x3d9bc43f	0.0760579
85	0x3e539ac1	0.20664503
86	0x3e30b845	0.17257793
87	0x3e48078e	0.19534132
88	0x3de0a76c	0.10969433
89	0x3d4b2f46	0.04960563
90	0x3e00f38c	0.12592906
91	0x3e3fa18d	0.1871397
92	0x3e59ac34	0.21257097
93	0x3d9cedde	0.07662557
94	0x3dca2b20	0.09871507
95	0x3e68f3a0	0.22749186
96	0x3e67ba74	0.2262972
97	0x3e7db00b	0.24774186
98	0x3e5f654a	0.21815982
99	0x3e32968d	0.17440243
100	0xbd32fced	-0.04369824
101	0xbdf03a48	-0.11729866
102	0xbda45ee6	-0.08025913
103	0xbe1285aa	-0.14308801
104	0x3cbc02e5	0.022950599
105	0x3c936e21	0.01799685
106	0x3a5a557f	0.000832878
107	0xbd6d84ad	-0.057987858
108	0xbe018a65	-0.1265045
109	0x3d317479	0.043323968
110	0xbc9a4024	-0.018829413
111	0xbc9fc9f1	-0.019505473
112	0xbd8cd29f	-0.0687611
113	0xbdebd83d	-0.115158536
114	0xbd0f4a50	-0.03498298
115	0xbd7c82b6	-0.061648093
116	0x3d443869	0.04790536
117	0xbc1a1e78	-0.009406678
118	0xbc3f415c	-0.011673298
119	0x3ceccd01	0.028906347
120	0xbdcb0f3f	-0.09915017
121	0x3c9b1f98	0.018935964
122	0xbd3df069	-0.04637185
123	0xbe0f47a4	-0.13992172
124	0x3c7a21f3	0.015266883
125	0xbded3bb8	-0.11583656
126	0x3c2ebae9	0.01066468
127	0x3ce99603	0.028513914
128	0xbd6a6b5c	-0.057231292
129	0xbdab9957	-0.08378857
130	0xbd0175ab	-0.031606358
131	0x3ce3a243	0.027787333
132	0x3b607358	0.0034248438
133	0x3ce58cea	0.028021295
134	0xbd43d5ab	-0.04781119
135	0xbdf7c685	-0.120984115
136	0xbad19722	-0.0015990476
137	0xbd08b5e6	-0.033376597
138	0xbc962c96	-0.018331807
139	0x3d483341	0.048877005
140	0xbd85110d	-0.06497393
141	0x3d501b1f	0.050807115
142	0xbdd1f7e4	-0.102523595
143	0xbdddd1d4	-0.10831037
144	0x3cb4ec72	0.022085402
145	0x3d06b942	0.03289152
146	0xbda09821	-0.07841516
147	0xbccc75af	-0.02495846
148	0xbcf27cb9	-0.029600488
149	0xbc0b2cc4	-0.00849456
150	0xbd6b72ad	-0.05748241
151	0xbe1058ef	-0.14096425
152	0xbc001fa7	-0.0078200465
153	0xbe0e9c09	-0.1392671
154	0xbde21b86	-0.11040406
155	0xbdf460bb	-0.119325124
156	0xbaa49de5	-0.0012559263
157	0x3b79e0a1	0.0038128274
158	0xbdcb0850	-0.09913695
159	0x3d4cd0c4	0.050003782
160	0xbddb5dca	-0.10711248
161	0x3d21568b	0.039389174
162	0x3c2cedfa	0.010554785
163	0xbd649560	-0.055806518
164	0x3d49ae4d	0.04923849
165	0x3d2fe74b	0.042945188
166	0x3d502a13	0.050821375
167	0xbddbfce2	-0.10741593
168	0xbd84d09e	-0.06485103
169	0xbdcdb585	-0.10044388
170	0x3d5fb13a	0.054612376
171	0xbae92b6c	-0.001778943
172	0xbd9f3d03	-0.07775309
173	0xbd24f49f	-0.04027235
174	0x3d25d3b6	0.040485106
175	0x3d851cbb	0.064996205
176	0xbcc833f3	-0.024438834
177	0xbdf50595	-0.11963955
178	0xbd961f7e	-0.073302254
179	0x3d3a1e39	0.04543898
180	0xbc430215	-0.011902352
181	0x3d1dc00e	0.038513236
182	0x3d64dcc4	0.0558746
183	0xbd7d41fe	-0.061830513
184	0x3cf94eea	0.030433137
185	0xbd24efd4	-0.04026778
186	0xbd99346b	-0.07480701
187	0xbdca627f	-0.09882068
188	0xbc197017	-0.009365103
189	0xbc0087fe	-0.007844923
190	0x3d1cc9ce	0.038278393
191	0x3d92af89	0.07162387
192	0xbdd450a8	-0.103669465
193	0xbd2ccdc3	-0.042188417
194	0xbd565a27	-0.05233207
195	0x3cf29acf	0.029614834
196	0x3cde02a5	0.02710087
197	0x3d97f1f1	0.074191935
198	0x3d51c881	0.051216606
199	0x3d48ab38	0.048991412
200	0xbd9c2c32	-0.07625617
201	0xbd84d42b	-0.0648578
202	0xbda698c0	-0.081346035
203	0xbd54d138	-0.05195734
204	0xbd422889	-0.04740194
205	0x3d8734ee	0.066018924
206	0xbd54cca2	-0.051952966
207	0x3db820b8	0.089906156
208	0x3daacf37	0.08340304
209	0x3d7cba12	0.061700888
210	0x3d83b21f	0.06430458
211	0x3d9526ba	0.07282777
212	0x3ca48600	0.020083427
213	0xbd6985dc	-0.057012424
214	0x3da68f08	0.0813275
215	0x3da12a55	0.07869402
216	0x3da5902e	0.08084141
217	0xbd78f4e2	-0.060780413
218	0xbb20c000	-0.0024528503
219	0x3da78f4a	0.08181627
220	0x3c0d6930	0.008631036
221	0x3b8769fd	0.004132508
222	0xbd1896b2	-0.03725309
223	0x3d8329c5	0.06404451
224	0x3d706739	0.05869219
225	0xbac370f6	-0.0014910984
226	0x3db7d148	0.08975464
227	0xbd38d95b	-0.04512916
228	0x3d8ff1f7	0.07028573
229	0x3c747bd5	0.014922102
230	0xbca35f05	-0.01994277
231	0x3d182bbc	0.037151083
232	0xbd88c8cf	-0.06678926
233	0x3dcf76d7	0.10130089
234	0x3b1ead6f	0.0024212261
235	0xbd018f56	-0.031630836
236	0x3d00f98a	0.03148798
237	0x3db25cc4	0.087091
238	0x3dcc1f15	0.09966866
239	0x3dbb6ca6	0.091515824
240	0x3c5819d9	0.013189756
241	0x3d56845a	0.052372314
242	0x3dfacbc8	0.122458994
243	0x3dbcc6fd	0.092176415
244	0x3e0a5555	0.13509114
245	0x3d593440	0.053028345
246	0xbd5c30a6	-0.053757332
247	0x3d8e6ecb	0.06954726
248	0x3c817e0d	0.015807176
249	0x3d86f887	0.065903716
250	0x3da7717c	0.08175942
251	0x3dc946f9	0.0982799
252	0xb9dbe604	-0.0004194231
253	0xbcf14f22	-0.029456679
254	0x3e0d0bf0	0.13774085
255	0x3d9fa3d4	0.077949196

conv1.bias f4 [64]
0	0xbb15b06e	-0.0022840756
1	0xbdac8f67	-0.08425789
2	0xbc8c6fbc	-0.017143123
3	0x3d49d8df	0.04927909
4	0xbe025f87	-0.12731753
5	0xbe4fabbb	-0.20280354
6	0x3d0ebce9	0.034848128
7	0x3caaf9b5	0.020871023
8	0x3cf3d6bb	0.029765477
9	0x3c88d6f7	0.016704066
10	0xbc68720f	-0.01418735
11	0xbc0afcf2	-0.008483158
12	0xbde1829d	-0.11011241
13	0xbe286169	-0.16443409
14	0x3c705279	0.0146681005
15	0x3d8c27cf	0.068435304
16	0xbccb15e9	-0.024790721
17	0x3c38474f	0.01124747
18	0xbba0023d	-0.0048830793
19	0xbb63af2b	-0.003474186
20	0x3d940a04	0.07228473
21	0x3a9c0bff	0.0011905431
22	0x3d6c0300	0.05762005
23	0xbbd7b9a3	-0.006583409
24	0xbe12e2a6	-0.14344272
25	0xbcffe3a5	-0.031236479
26	0xbe430c09	-0.1904756
27	0xbe05f757	-0.13082634
28	0x3b775f7d	0.0037746124
29	0x3c86a572	0.016436312
30	0xbe0ea2ee	-0.1392934
31	0x3b198ad6	0.00234287
32	0xbe5facdc	-0.21843284
33	0xbea0c18a	-0.3139766
34	0x3e554195	0.20825799
35	0xbe05de2e	-0.13073036
36	0xbdba3107	-0.090913825
37	0xbd467715	-0.04845341
38	0xbe51fd64	-0.20506817
39	0xbe5edb0c	-0.21763247
40	0xbdf5d542	-0.12003566
41	0x3ab725bf	0.0013973041
42	0x3dca25d8	0.09870499
43	0xbe5a213b	-0.21301739
44	0x3da8c568	0.08240777
45	0xbe2d1282	-0.16901591
46	0x3d108d35	0.035290916
47	0xbe3c8837	-0.18411337
48	0x3e1c795c	0.1528067
49	0xbc3f173a	-0.0116632525
50	0xbb139e8c	-0.0022524921
51	0x3d50f206	0.05101206
52	0xbdfa6950	-0.12227118
53	0xbe2e836f	-0.17042325
54	0x3c1f1431	0.009709404
55	0xbdd04da2	-0.10171057
56	0xbe54ef25	-0.20794351
57	0xbdc1f07b	-0.09469696
58	0xbd77cb1c	-0.060496435
59	0x3d22f9b0	0.0397889
60	0xbd5aa940	-0.053384066
61	0x3cc81683	0.024424797
62	0xbc3f97e7	-0.011693931
63	0xbef2c032	-0.47412258

conv2.weight f4 [32, 64, 10]
0	0xbdc80488	-0.09766489
1	0xbd37f634	-0.044912532
2	0xbca127cd	-0.019672299
3	0xbd77fa24	-0.060541287
4	0x3c9ccdae	0.019141044
5	0xbc3ae3c8	-0.011406846
6	0x3b802318	0.0039104335
7	0xbcba8c94	-0.022772111
8	0x3bb3c972	0.0054866606
9	0x3c937f0a	0.018004913
10	0x3d873ab9	0.06602997
11	0x3de42715	0.11140267
12	0x3dcff09c	0.101533145
13	0x3db7f21b	0.08981725
14	0x3da65d21	0.08123232
15	0x3d9b15ac	0.07572493
16	0x3d8bb8a8	0.0682233
17	0x3dcbadec	0.09945282
18	0x3d3fa841	0.04679132
19	0x3d4c8388	0.049930125
20	0x3cb894b6	0.022531848
21	0x3d33b3ef	0.04387277
22	0x3d27acfa	0.040936448
23	0x3cc63a03	0.024197584
24	0x3dbff8cc	0.09373626
25	0x3dc4d06e	0.09610067
26	0x3d45f18e	0.048326068
27	0x3d13077d	0.035895813
28	0x3d841c73	0.06450739
29	0x3ddd52af	0.10806786
30	0xbd7769c6	-0.060403608
31	0xbdacb3bd	-0.0843272
32	0xbd70cbc5	-0.05878808
33	0xbc817120	-0.015801013
34	0xba82aa1d	-0.0009968911
35	0xbd1dd8d2	-0.038536854
36	0xbd143eb7	-0.036192622
37	0xbcb6e3f8	-0.0223255
38	0xbbef1613	-0.0072963326
39	0x3d1d3a0d	0.03838544
40	0xbd81f34c	-0.06345233
41	0xbdafdfc6	-0.08587603
42	0xbd63c82c	-0.05561082
43	0xbdba8561	-0.09107471
44	0xbc83b8d7	-0.01607935
45	0xbd87cda0	-0.06631017
46	0xbd55fbdf	-0.052242156
47	0xbdb71b55	-0.0894076
48	0xbda5bf4d	-0.08093128
49	0xbcfe78da	-0.031063486
50	0xbd55872f	-0.052130874
51	0xbd8d064b	-0.06885966
52	0xbd820e22	-0.06350352
53	0xbd786f23	-0.060652863
54	0xbc639b17	-0.013891957
55	0xbc322e83	-0.010875347
56	0xbcf77fdb	-0.030212333
57	0xbc44b536	-0.012006095
58	0xbbb99363	-0.005663322
59	0xbcae1153	-0.021248495
60	0x3d1d1945	0.038354177
61	0x3d546cf0	0.051861703
62	0x3d9e85cb	0.07740363
63	0x3d6f1f4b	0.058379453
64	0x3cf0caac	0.029393516
65	0x3da81332	0.08206786
66	0x3d2874ba	0.041126944
67	0x3d5d62ad	0.054049183
68	0x3cf592dc	0.029977255
69	0x3da14469	0.07874376
70	0x3da0e6ef	0.07856547
71	0x3da92594	0.082591206
72	0x3ce3b8eb	0.027798137
73	0x3cab8e23	0.0209418
74	0x3c9b61f3	0.018967604
75	0x3d88c6d0	0.066785455
76	0x3dc1b161	0.094576605
77	0x3d23743f	0.039905783
78	0x3d4bf791	0.049796645
79	0x3d55e6cd	0.052222062
80	0xbeb790fe	-0.35852808
81	0xbea942c6	-0.33058757
82	0xbea6727b	-0.32509217
83	0xbe71ecae	-0.23625442
84	0xbe35ad3b	-0.17741863
85	0xbde2fdc5	-0.11083559
86	0xbd929648	-0.0715757
87	0xbd8c71d9	-0.06857652
88	0xbd33f4f2	-0.04393477
89	0x3d62520d	0.05525403
90	0xbdc8eb2e	-0.09810482
91	0xbd44b92e	-0.048028164
92	0xbd0df62d	-0.0346586
93	0xbd83053f	-0.06397485
94	0xbd763298	-0.060106844
95	0xbd5c5145	-0.053788442
96	0x3ad1ff77	0.0016021569
97	0x3ce48a47	0.027897967
98	0x3c74f620	0.014951259
99	0xbb495618	-0.0030721482
100	0xbd10b565	-0.03532924
101	0xbcc8c36f	-0.024507252
102	0xbd750817	-0.05982217
103	0xbd462d78	-0.048383206
104	0xbd6b872f	-0.057501968
105	0xbd7e1232	-0.06202907
106	0xbd47343d	-0.048633803
107	0xbc889c47	-0.016676081
108	0xbcdac85c	-0.026706867
109	0xbd382de4	-0.04496564
110	0x3c9193f8	0.017770752
111	0x3c531ab7	0.012884787
112	0x3d29fecd	0.041502763
113	0x3b844a8b	0.0040372065
114	0x3d0ca166	0.03433361
115	0x3da68059	0.08129949
116	0x3c90405b	0.017608812
117	0x3d1428ec	0.03617184
118	0x3cf15829	0.029460983
119	0x3d49ecdd	0.049298156
120	0xbd100aa4	-0.035166398
121	0xbd463d36	-0.04839822
122	0xbd71c6e1	-0.059027556
123	0x3b9e490d	0.0048304857
124	0xbcb29c85	-0.02180315
125	0xbd6f4149	-0.05841187
126	0xbd1d88a8	-0.038460404
127	0xbcb6541a	-0.0222569
128	0xbd0cfa77	-0.03441855
129	0xbcba136a	-0.022714335
130	0xbd1ae48a	-0.037815608
131	0xbd8ccbea	-0.06874831
132	0xbd12e45a	-0.035862304
133	0xbc1f3bc6	-0.009718841
134	0xbc4279ed	-0.01186989
135	0xbd8953fc	-0.06705472
136	0xbd659245	-0.056047697
137	0xbd4a7392	-0.049426623
138	0xbccfaa9e	-0.025349911
139	0xbd3cc2b3	-0.046084117
140	0xba0b2b73	-0.00053089036
141	0x3bc08e69	0.0058763516
142	0x3cf81251	0.030282171
143	0x3cb2312c	0.021751963
144	0x3cf6a7b0	0.030109257
145	0x3c88d9ff	0.016705511
146	0x3d6a4163	0.057191264
147	0x3d2c67ce	0.042091183
148	0x3da88969	0.08229334
149	0x3cb927bb	0.022601953
150	0x3e1a4017	0.15063511
151	0x3e2169c9	0.1576301
152	0x3e5e289e	0.21695182
153	0x3e2a47a4	0.16628891
154	0x3e1f5ce3	0.15562777
155	0x3e521216	0.20514712
156	0x3e41afe7	0.18914758
157	0x3e3f782b	0.18698184
158	0x3e4d67cd	0.20059128
159	0x3e12794a	0.1430408
160	0x3d347e4a	0.04406575
161	0x3d0e5ff4	0.034759477
162	0x3ce03eb5	0.027373651
163	0x3d289886	0.041161083
164	0x3c466d84	0.0121110715
165	0x3cc8249f	0.024431525
166	0x3d14443d	0.03619789
167	0x3d81c12c	0.06335673
168	0x3d1ebe9e	0.038756005
169	0x3ce9ea5b	0.028554132
170	0x3dee8b84	0.11647704
171	0x3dd21ef1	0.10259808
172	0x3e1977ba	0.14987078
173	0x3e20bdf9	0.15697469
174	0x3dbcfe70	0.092282176
175	0x3ddbfca2	0.10741545
176	0x3dddc588	0.10828692
177	0x3e153e56	0.1457456
178	0x3de06f58	0.10958737
179	0x3e058380	0.13038445
180	0x3dbd1ad4	0.09233633
181	0x3d8a2d31	0.06746901
182	0x3d8d76e2	0.06907441
183	0x3d3ea2e6	0.04654207
184	0x3da95597	0.08268278
185	0x3cd6123c	0.026131742
186	0x3d8cd980	0.06877422
187	0x3dbbdcce	0.091729745
188	0x3dc12b13	0.09432044
189	0x3d324c09	0.043529544
190	0x3ce4c7e2	0.027927343
191	0x3cee3ac2	0.029080752
192	0x3dad3df1	0.0845908
193	0x3cb30321	0.021852078
194	0x3da897d6	0.082320854
195	0x3caccd82	0.021094088
196	0x3cef95fa	0.02924632
197	0x3da8d03a	0.08242841
198	0x3d7e284b	0.062050145
199	0x3d1a291d	0.037636865
200	0xbd9b1eff	-0.075742714
201	0xbdccb57e	-0.099955544
202	0xbd48abb2	-0.048991866
203	0xbd37b03d	-0.04484581
204	0xbd32e43a	-0.043674685
205	0x3c8436e1	0.01613945
206	0xbc1142f6	-0.008866062
207	0x3d1ee55f	0.038792964
208	0xbc86d608	-0.01645948
209	0x3b6ebadd	0.0036427297
210	0xbcceebff	-0.025259016
211	0xbd8e919f	-0.06961369
212	0xbd6257d3	-0.055259537
213	0xbd4b7e5f	-0.049681064
214	0x3c2e35da	0.010632956
215	0x3ca6e20c	0.02037146
216	0x3c54f26c	0.012997251
217	0x3cf0f160	0.029411972
218	0x3cd4b3dc	0.02596467
219	0x3d2b1f4f	0.041777905
220	0x3d714317	0.058901872
221	0x3c47d0d2	0.012195783
222	0x3cb67527	0.02227266
223	0x3d894dd0	0.06704295
224	0x3c912799	0.017719077
225	0x3c18c6a7	0.009324706
226	0x3d92e115	0.07171837
227	0x3d80aee3	0.06283357
228	0x3d535c14	0.051601484
229	0x3d1b004a	0.037842073
230	0xbbbf7105	-0.0058423304
231	0xbd0bcecb	-0.03413276
232	0x3c66cf10	0.0140874535
233	0x3c3c15eb	0.011479835
234	0x3cc9cccd	0.02463379
235	0x3ccb4922	0.024815146
236	0x3d1706ef	0.036871847
237	0x3d19d842	0.037559755
238	0x3ca8d2b9	0.020608293
239	0x3da399c0	0.0798831
240	0xbd6a269c	-0.057165727
241	0xbd95d34c	-0.07315692
242	0xbc56e1de	-0.013115374
243	0xbc88f9ad	-0.016720617
244	0xbcda8870	-0.026676387
245	0xbd0931c1	-0.033494715
246	0xbd8f3399	-0.06992263
247	0xbcf2dfb4	-0.029647686
248	0xbc4ac43a	-0.012375886
249	0xbcc54c8a	-0.024084348
250	0xbd9de5ba	-0.077098325
251	0xbd51e556	-0.051244102
252	0xbda7d556	-0.081949875
253	0xbda45d04	-0.08025554
254	0xbca76928	-0.020435885
255	0xbd5d8202	-0.054079063

conv2.bias f4 [32]
0	0xbc997556	-0.018732708
1	0x3d081cc3	0.033230554
2	0xbcfe04a2	-0.031008068
3	0xbb42cecd	-0.0029725314
4	0xbc101aee	-0.008795483
5	0x3c76723f	0.015041887
6	0xbd11714c	-0.03550844
7	0xbc48b51c	-0.012250211
8	0x3d0e0e7a	0.034681775
9	0x39fa81df	0.00047780477
10	0x3d0ab0df	0.033860084
11	0xbc740608	-0.014894016
12	0xbcde8821	-0.02716452
13	0xbc84b912	-0.01620153
14	0x3b50b295	0.0031844724
15	0xbc5021a2	-0.012703331
16	0x3c57bdcd	0.013167811
17	0xbc24d7d8	-0.010061227
18	0xbc3ef343	-0.011654678
19	0xbc9eaba7	-0.01936896
20	0xbd095281	-0.033525947
21	0x3cd5ca71	0.026097508
22	0x3c573712	0.013135688
23	0xbc688ef2	-0.014194237
24	0x3cd0508d	0.025429035
25	0xbc357332	-0.011074828
26	0xbc9779ff	-0.01849079
27	0x3d192a37	0.037393775
28	0xbd121e4d	-0.03567343
29	0x3d1d6b28	0.03843227
30	0x3bddc935	0.0067683705
31	0x3ca3d272	0.01999781

batch1.weight f4 [32]
0	0x3f4c554d	0.7981766
1	0x3fa47028	1.2846727
2	0x3f79d5a7	0.9759163
3	0x3f5eafec	0.86987185
4	0x3f8a5d42	1.080971
5	0x3f8e5655	1.1120096
6	0x3f9c0ba0	1.2191048
7	0x3f86823f	1.0508498
8	0x3f9f54f4	1.2447801
9	0x3f8985d6	1.0743968
10	0x3f57d6d5	0.8431218
11	0x3f8ee8fd	1.1164852
12	0x3f9dd6ae	1.233114
13	0x3f9f89c1	1.2463914
14	0x3f37d3e5	0.718077
15	0x3f44402c	0.7666042
16	0x3f6ebb6c	0.93254733
17	0x3f5fd727	0.8743767
18	0x3f7564e9	0.958571
19	0x3f2915fb	0.66049165
20	0x3f88cfdb	1.0688432
21	0x3f7b6d6d	0.98213845
22	0x3f91ec52	1.1400244
23	0x3f85981f	1.0437049
24	0x3f8981d3	1.0742744
25	0x3f41e051	0.75732905
26	0x3f743b83	0.9540331
27	0x3f5da95b	0.8658654
28	0x3f633045	0.8874553
29	0x3f4dcfcd	0.80395204
30	0x3fa2f1c1	1.2730027
31	0x3f8a5c5e	1.0809438

batch1.bias f4 [32]
0	0xbf243bc8	-0.6415372
1	0x3cbd6633	0.023120021
2	0xbe20527a	-0.15656462
3	0xbd05133c	-0.032489046
4	0xbdb96054	-0.09051576
5	0x3de8b7cf	0.11363184
6	0x3deee379	0.11664481
7	0xbd8fd8dc	-0.070237845
8	0xbd0ccf81	-0.03437758
9	0xbef44587	-0.47709295
10	0xbc0c1222	-0.008549245
11	0x3d5ea337	0.054354873
12	0xbc4f4a98	-0.012652062
13	0x3ed446e5	0.41460338
14	0xbec01c2a	-0.37521487
15	0xbf0a6efc	-0.540756
16	0xbda07fef	-0.078369014
17	0xbe9cc916	-0.30622166
18	0xbe08ad97	-0.1334747
19	0xbea955f9	-0.33073404
20	0x3d1f8c20	0.038951993
21	0x3e0e233d	0.1388063
22	0xbda86474	-0.08222285
23	0x3d77d728	0.060507923
24	0x3df46231	0.11932791
25	0xbe66257f	-0.22475241
26	0xbeef8028	-0.46777463
27	0xbf110ccf	-0.5666017
28	0xbdf2f2a1	-0.11862684
29	0xbc853da0	-0.016264737
30	0x3e0acabe	0.13553903
31	0xbdc129a2	-0.09431769

batch1.running_mean f4 [32]
0	0x420ce2c7	35.221462
1	0x41bf0123	23.875555
2	0x41996bbc	19.177605
3	0x40f64e26	7.6970396
4	0x41abe89f	21.488585
5	0x40e447cd	7.1337647
6	0x412089c7	10.033637
7	0xc1fd993c	-31.699821
8	0xc27310ac	-60.76628
9	0x424f1ef4	51.780228
10	0xbd0384b9	-0.032108996
11	0x4082544c	4.07279
12	0x4181e07b	16.23461
13	0xc273a9cb	-60.915813
14	0x4224745a	41.113625
15	0x422e2351	43.53449
16	0xbf14596a	-0.57948935
17	0xc24c4e07	-51.0762
18	0xc265f6f2	-57.491158
19	0xc2505b77	-52.08932
20	0xc22f2bb5	-43.792683
21	0xc2129736	-36.647667
22	0x4197e283	18.985601
23	0x41763a0d	15.389173
24	0x41246f13	10.277118
25	0x41cd26eb	25.644003
26	0x425fd08d	55.953663
27	0x41f33709	30.401873
28	0xc250dc44	-52.215103
29	0xc171f2ed	-15.121808
30	0xc18f7e05	-17.936533
31	0xc2515368	-52.33145

batch1.running_var f4 [32]
0	0x44e4e626	1831.1921
1	0x43f5840d	491.03165
2	0x4405194d	532.3953
3	0x4487dab0	1086.834
4	0x44e8d2d4	1862.5884
5	0x44d29502	1684.6565
6	0x45162c4c	2402.7686
7	0x4598dbac	4891.459
8	0x450928a1	2194.5393
9	0x44964c8a	1202.3918
10	0x44a88737	1348.2255
11	0x449e422f	1266.0682
12	0x44485404	801.31274
13	0x45b3e237	5756.277
14	0x4408ff85	547.9925
15	0x4438e7bc	739.62085
16	0x4475758f	981.83685
17	0x44474b27	797.17426
18	0x44996ad6	1227.3386
19	0x44702c04	960.68774
20	0x4586a66c	4308.8027
21	0x4510d58f	2317.3474
22	0x444c7f48	817.9888
23	0x4483d871	1054.7638
24	0x453508c7	2896.5486
25	0x4493610b	1179.0326
26	0x447a495f	1001.1464
27	0x44d853ee	1730.6228
28	0x44d72ba9	1721.3644
29	0x4424121a	656.28284
30	0x45a820bd	5380.0923
31	0x4433414f	717.02045

conv3.weight f4 [32, 32, 5]
0	0x3dca0c3f	0.09865617
1	0x3de4bd45	0.11168913
2	0x3c828617	0.01593308
3	0x3e0a4886	0.13504228
4	0x3daa9126	0.08328466
5	0xbe3de259	-0.18543376
6	0xbe5248a4	-0.20535523
7	0xbe3b9d93	-0.18321829
8	0xbde0098a	-0.109393194
9	0xbd85f93e	-0.0654168
10	0xbe01298d	-0.12613507
11	0xbdab36e7	-0.08360081
12	0xbd73ce36	-0.05952283
13	0xbdd6dd22	-0.104913965
14	0xbd531367	-0.051532175
15	0xbd396272	-0.0452599
16	0xbdccc8eb	-0.099992596
17	0xbdfc73c9	-0.12326772
18	0xbd227270	-0.039659917
19	0xbda59bb0	-0.08086336
20	0xbe20d54b	-0.15706365
21	0xbe4ca84b	-0.19986074
22	0xbe02c854	-0.12771732
23	0xbe3ce2c5	-0.1844588
24	0xbd281600	-0.041036606
25	0x3d806c3c	0.06270644
26	0x3d15a1b2	0.036531158
27	0x3d17798b	0.036981147
28	0x3df3a96d	0.1189755
29	0x3d743439	0.059620116
30	0x3df1d588	0.11808306
31	0x3d64a0cf	0.05581742
32	0x3db6dac1	0.08928443
33	0x3e17eab2	0.14835623
34	0x3da6bf2f	0.08141934
35	0x3e4d0e8f	0.20025085
36	0x3e1f6175	0.1556452
37	0x3e2fbeb1	0.17162587
38	0x3e55b4ca	0.20869747
39	0x3e42468f	0.18972228
40	0x3d36fd03	0.044674885
41	0x3d8810c3	0.06643822
42	0x3d3d3ec2	0.04620243
43	0x3d73001d	0.05932628
44	0x3d34ad5e	0.04411065
45	0x3d46a667	0.048498537
46	0xbc3d0f6b	-0.01153932
47	0xbd0e6fe5	-0.03477468
48	0xbdb9c735	-0.09071199
49	0xbda6c4f8	-0.081430376
50	0x3def3eae	0.11681877
51	0x3e2f3918	0.17111623
52	0x3dfc082c	0.12306246
53	0x3e1b5628	0.15169585
54	0x3dd35098	0.103181064
55	0x3dedd985	0.11613754
56	0x3d8e5d52	0.06951393
57	0x3e1782fc	0.1479606
58	0x3da0f6e1	0.078595884
59	0x3d49a5df	0.049230453
60	0xbe524265	-0.2053314
61	0xbdb7bc19	-0.08971424
62	0xbd6a89e7	-0.05726042
63	0xbe4260a8	-0.18982184
64	0xbe1b0722	-0.1513944
65	0xbe584c36	-0.21122822
66	0xbeb0350e	-0.34415478
67	0xbe7a40db	-0.24438803
68	0xbe720089	-0.23633017
69	0xbe234881	-0.15945627
70	0x3cdf8144	0.027283318
71	0x3db88dae	0.09011398
72	0x3e07bc58	0.13255441
73	0x3d833adb	0.0640771
74	0x3d515b17	0.05111226
75	0xbd5a011a	-0.053223707
76	0x3cf7ca86	0.030247938
77	0x3d1c5da3	0.038175236
78	0x3d2afb95	0.041743834
79	0x3d49eaf5	0.049296338
80	0x3dca003e	0.098633274
81	0x3daba961	0.08381916
82	0x3df11210	0.11771023
83	0x3dda23dd	0.10651372
84	0x3d939648	0.07206398
85	0xbdbce8d6	-0.092240974
86	0xbd92c03d	-0.07165573
87	0xbcedd438	-0.029031858
88	0xbd09b0bd	-0.033615816
89	0x3c805052	0.0156633
90	0xbd17f0d5	-0.03709491
91	0xbdcb747d	-0.09934328
92	0xbdbaf586	-0.09128861
93	0xbe40977c	-0.18807787
94	0xbe25fa74	-0.16208822
95	0x3cbfe90b	0.023426553
96	0xbcc09a9d	-0.023511225
97	0xbc8120b3	-0.015762663
98	0xbce71c77	-0.028211815
99	0xbdbefdcb	-0.09325751
100	0x3d265bfb	0.040615063
101	0x3dfb4445	0.12268881
102	0x3be334fe	0.0069338074
103	0x3d84e18a	0.06488331
104	0x3c1c910b	0.009556065
105	0xbddf8054	-0.109131485
106	0xbda270e2	-0.07931687
107	0xbdc1a192	-0.09454645
108	0xbd825256	-0.063633606
109	0xbd31a2d9	-0.043368194
110	0xbe467fc5	-0.19384678
111	0xbe4f4807	-0.2024232
112	0xbe1b2d7a	-0.15154067
113	0xbe1d3c9c	-0.15355152
114	0xbddc049c	-0.10743067
115	0xbe63d59d	-0.22249456
116	0xbe2ed253	-0.1707242
117	0xbe2720c2	-0.1632109
118	0xbe09b892	-0.13449314
119	0xbd999a2c	-0.07500109
120	0x3dbadcda	0.09124155
121	0x3e388c3f	0.1802225
122	0x3dff64d4	0.12470403
123	0x3dad7285	0.084691085
124	0x3e291ddd	0.16515298
125	0x3dd060a7	0.10174685
126	0x3d315646	0.043295167
127	0x3cec4a50	0.028844029
128	0xbb98890c	-0.004655009
129	0x3d4e7d6e	0.050412588
130	0xbb9101fe	-0.0044252863
131	0xbc0dd2b5	-0.0086561935
132	0xbd5cee50	-0.05393821
133	0xbddced57	-0.107874565
134	0xbe086daa	-0.13323084
135	0x3deff01d	0.1171572
136	0x3e1212b6	0.1426495
137	0x3e1ce926	0.15323314
138	0x3e03b795	0.12863
139	0x3cf0bbbb	0.029386392
140	0xbc9c3807	-0.019069685
141	0x3dcf367d	0.10117815
142	0xbc3cff8a	-0.011535535
143	0x3cc10f59	0.023566889
144	0xbde5769d	-0.11204264
145	0xbe1d8196	-0.15381464
146	0xbd20dec5	-0.03927495
147	0xbdf77d8b	-0.12084492
148	0xbd3f15dd	-0.04665171
149	0xbe0edbb0	-0.13950992
150	0x3e1bfc62	0.15232995
151	0x3de3d39a	0.11124344
152	0x3df2bfe9	0.1185301
153	0x3dfdcb64	0.12392309
154	0x3dadbecf	0.084836595
155	0xbe5df696	-0.21676096
156	0xbd845a7b	-0.0646257
157	0xbdbbdd27	-0.09173041
158	0xbe25e24d	-0.16199608
159	0xbe1723cb	-0.14759748
160	0x3d9b6f8a	0.07589634
161	0x3ced49f4	0.028965928
162	0x3d826839	0.06367535
163	0x3abc5488	0.0014368454
164	0x3d758ec8	0.05995062
165	0x3e8af6dd	0.27141467
166	0x3e91581f	0.28387544
167	0x3e9e5f98	0.30932307
168	0x3e9dec3a	0.3084429
169	0x3e978a93	0.2959791
170	0x3ddac2d5	0.106816925
171	0x3e48cb59	0.19608821
172	0x3e6865ee	0.22695133
173	0x3dc76050	0.09735167
174	0x3e4433d5	0.19160397
175	0x3ddd23a6	0.10797815
176	0x3dd1cad6	0.10243766
177	0x3e364c88	0.17802632
178	0x3dcac36a	0.099005535
179	0x3e04040d	0.1289217
180	0x3e6344b6	0.2219418
181	0x3e31aefc	0.17351907
182	0x3df1b727	0.11802512
183	0x3e2e290b	0.17007844
184	0x3e30bfa2	0.17260602
185	0xbd0bac94	-0.03410013
186	0x3d18ebb6	0.037334166
187	0x3d90c5e9	0.07068998
188	0x3d7e453b	0.062077742
189	0x3dad65a2	0.084666505
190	0x3da9cc26	0.08290891
191	0x3de6ab35	0.11263124
192	0x3dd0629d	0.10175059
193	0x3cdfcf1d	0.027320439
194	0x3d2d8719	0.042365167
195	0xbd868788	-0.06568819
196	0xbdd1cb31	-0.10243834
197	0xbe2808dd	-0.16409631
198	0xbe372c0e	-0.178879
199	0xbdd47ff6	-0.10375969
200	0xbc12c6ed	-0.00895856
201	0x3cde9597	0.02717094
202	0x3dbac7d4	0.091201454
203	0xb9d04680	-0.00039725378
204	0xbd7f5761	-0.06233919
205	0x3e3cdd95	0.18443902
206	0x3e5b3dfe	0.21410367
207	0x3ea29d94	0.31760848
208	0x3e555622	0.20833638
209	0x3e92193c	0.28534877
210	0xbc1f0081	-0.00970471
211	0xbb7d2e98	-0.0038632508
212	0x3db833b5	0.08994237
213	0x3d314591	0.043279234
214	0x3df1e51d	0.11811278
215	0xbd0f92d1	-0.035052124
216	0x3dd3498e	0.10316764
217	0x3d5a6534	0.05331917
218	0xbc283986	-0.010267621
219	0x3d3fcf14	0.046828344
220	0x3e77d563	0.24202494
221	0x3e14659d	0.14491887
222	0x3e2aac4f	0.16667293
223	0x3e5253fe	0.20539853
224	0x3e221c7d	0.1583118
225	0x3e2921d4	0.1651681
226	0x3d8f8ddc	0.070094794
227	0x3e1a55bb	0.15071766
228	0x3e032d75	0.12810309
229	0x3e15648b	0.14589135
230	0xbcb5dd59	-0.022200273
231	0xbd097cf4	-0.03356643
232	0x3c613846	0.013746327
233	0xbd79e7b2	-0.061011977
234	0xbc55d82d	-0.013052029
235	0x3ccc06f1	0.024905654
236	0xbd6952a0	-0.056963563
237	0x3d9d745c	0.076882094
238	0xbc6532b2	-0.0139891375
239	0x3d02757c	0.031850323
240	0x3d035bb5	0.03206988
241	0x3c765dc9	0.015037009
242	0xbd8c13ac	-0.068396896
243	0x3c02c7b2	0.007982181
244	0x3d4af56f	0.04955047
245	0xbe50226e	-0.20325634
246	0xbdebdb84	-0.11516479
247	0xbe5b5c65	-0.21421964
248	0xbd930093	-0.07177844
249	0xbd658e9b	-0.056044202
250	0xbdf6dce6	-0.12053852
251	0xbdd259ab	-0.10271009
252	0xbdd0a123	-0.101869844
253	0xbe12c60b	-0.1433336
254	0xbe374cef	-0.17900442
255	0xbd94f167	-0.07272606

conv3.bias f4 [32]
0	0x3d2c0384	0.04199554
1	0x3d5e2658	0.054235786
2	0x3c227347	0.00991518
3	0x3d984678	0.07435316
4	0x3b561778	0.0032667797
5	0x3d706e13	0.058698725
6	0x3d7ee66e	0.062231474
7	0xbc779b64	-0.015112732
8	0xbcea813b	-0.028626075
9	0x3d9d553d	0.076822735
10	0x3d8c98fa	0.068651155
11	0x3c8e9e51	0.017409476
12	0xba125ee3	-0.0005583597
13	0x3d544ed9	0.051833007
14	0xbd0844cd	-0.03326874
15	0x3a4af57d	0.0007742269
16	0x3cfe23b8	0.031022891
17	0xbcc3dd1b	-0.023909142
18	0xbcc402e1	-0.023927154
19	0xbd87c401	-0.06629182
20	0x3d039d35	0.032132346
21	0x3d7a4135	0.061097343
22	0xbd7406b9	-0.059576724
23	0x3d6947de	0.056953304
24	0x3d928b9a	0.07155533
25	0x3d82d65e	0.063885435
26	0x3d0c73c2	0.034290083
27	0x3cb42d90	0.021994382
28	0xbb7fa09e	-0.0039005647
29	0xbd37bd6e	-0.04485839
30	0xbc8bb1f5	-0.01705263
31	0x3d779a9f	0.060450193

batch2.weight f4 [32]
0	0x3f68103e	0.90649784
1	0x3f7e9eca	0.9946104
2	0x3f395289	0.72391564
3	0x3f6c320f	0.92263883
4	0x3eef0150	0.4668069
5	0x3ffcaf28	1.9740953
6	0x3f354ffd	0.7082518
7	0x3f8629c2	1.0481493
8	0x3f77d590	0.96810246
9	0x3f8cca07	1.0999154
10	0x3fb940dd	1.447292
11	0x3f4a94b0	0.7913313
12	0x3f8f1c84	1.1180577
13	0x3f79f0a9	0.97632843
14	0x3fb04534	1.3771119
15	0x3f610e1a	0.8791214
16	0x3fa6cd17	1.3031338
17	0x3f915117	1.1352872
18	0x3ea32d22	0.3187037
19	0x3f7800cb	0.9687621
20	0x3f53ecd1	0.8278323
21	0x3f8bf578	1.0934286
22	0x3f98ee9c	1.1947818
23	0x3f158dc1	0.58419424
24	0x3f229096	0.6350187
25	0x3f01cb3f	0.50700754
26	0x3f007518	0.5017867
27	0x3fbfae13	1.4974998
28	0x3f1e5842	0.6185342
29	0x3f3ba4ae	0.73298156
30	0x3f612d92	0.8796016
31	0x3fc05b2d	1.5027825

batch2.bias f4 [32]
0	0xbe1a3729	-0.15060104
1	0xbdbbc528	-0.09168464
2	0xbeb80a7a	-0.35945493
3	0xbec04a2d	-0.37556592
4	0xbf18d9d7	-0.597074
5	0x3e850ffa	0.25988752
6	0xbeb4d17a	-0.35316068
7	0xbe6458ac	-0.2229945
8	0xbd287e4b	-0.041136067
9	0xbb3c0545	-0.0028689664
10	0xbd6fd992	-0.0585571
11	0xbeb79fe5	-0.35864177
12	0xbd716ba6	-0.058940552
13	0xbe2ca85d	-0.168611
14	0x3e9640a5	0.29346195
15	0xbdea5f2d	-0.114439346
16	0x3dd03cf6	0.101678774
17	0x3cec99f1	0.028881999
18	0xbf1dec89	-0.6168905
19	0xbe9783f2	-0.29592854
20	0xbecbdcc2	-0.39816862
21	0x3ca5c381	0.020234825
22	0x3d60477f	0.054755684
23	0xbed5051a	-0.41605455
24	0xbec83535	-0.39103094
25	0xbeff2b8a	-0.49837905
26	0xbed3f1d2	-0.41395432
27	0xbcdc4f83	-0.026893383
28	0xbeeafb5c	-0.45894897
29	0xbeb564f2	-0.35428578
30	0xbe1904cd	-0.14943238
31	0x3e2a4ffd	0.16632076

batch2.running_mean f4 [32]
0	0xbfb2b2f1	-1.3960859
1	0x404b41ce	3.1758914
2	0x400914c0	2.1418915
3	0x40881b86	4.25336
4	0x3fc73a88	1.5564737
5	0x3f3adcc0	0.7299309
6	0x401b0b30	2.4225578
7	0x40958c3b	4.673368
8	0xc0255ba4	-2.5837183
9	0x3f9af3ed	1.210569
10	0x40b8ef3d	5.779204
11	0x403157a6	2.7709746
12	0x3f8aeb2a	1.0853016
13	0xc02e2fe7	-2.7216737
14	0x3f2b167c	0.66831183
15	0xbff8bd0e	-1.9432695
16	0x4109adcd	8.604932
17	0x3ee45887	0.4459879
18	0x4004a2a5	2.072427
19	0x406d89cb	3.7115352
20	0x402a0569	2.6565802
21	0x40b39995	5.612498
22	0xbe013bd6	-0.12620482
23	0x3ec39b90	0.38204622
24	0xbf684d98	-0.907434
25	0x4007ab21	2.1198199
26	0xbf23bc8d	-0.6395958
27	0x40ce53f2	6.447747
28	0x3fcf1875	1.6179339
29	0x40161d09	2.3455222
30	0xbefe5198	-0.49671626
31	0x40497fc1	3.1484225

batch2.running_var f4 [32]
0	0x41c0800b	24.062521
1	0x422adf83	42.718273
2	0x4101553f	8.083312
3	0x413c3394	11.762592
4	0x41c46e25	24.553782
5	0x43347ecb	180.49529
6	0x412f0c50	10.940506
7	0x41a40d0e	20.506374
8	0x41f0f1dc	30.118095
9	0x419439c5	18.528208
10	0x415adbf6	13.678701
11	0x41801c2c	16.013756
12	0x41ed83be	29.689327
13	0x413ac66f	11.673446
14	0x42960ba5	75.02274
15	0x41c64e85	24.78834
16	0x4228ef92	42.233955
17	0x42d0b870	104.36023
18	0x4172d053	15.17586
19	0x42062e39	33.54514
20	0x40f9f82b	7.811544
21	0x429b1a03	77.550804
22	0x4219ec38	38.480682
23	0x40cebfeb	6.4609275
24	0x41a786b7	20.940779
25	0x41104bcc	9.018505
26	0x4078e5e0	3.8890305
27	0x425482b5	53.127644
28	0x420ba4bf	34.910885
29	0x412b1081	10.691529
30	0x4166174b	14.380687
31	0x42cac80a	101.3907

fc1.weight f4 [50, 3136]
0	0xbdcdea7e	-0.100544915
1	0xbde94a37	-0.113911085
2	0xbdb48572	-0.08814515
3	0xbd859c8a	-0.06523998
4	0xbd268428	-0.040653378
5	0xbcf6eecf	-0.03014317
6	0xbb18620c	-0.00232518
7	0xbb2b6668	-0.0026153568
8	0x3d267f4d	0.040648747
9	0x3ce17166	0.027519893
10	0x3d92e048	0.071716845
11	0x3d8da968	0.06917077
12	0x3d923910	0.0713979
13	0x3da74c60	0.08168864
14	0x3dab8fc9	0.08377034
15	0x3dcf0463	0.101082586
16	0x3def6875	0.116898455
17	0x3db401b3	0.087893866
18	0x3dd2aa0a	0.102863386
19	0x3db1bff2	0.08679189
20	0x3dab73ff	0.08371734
21	0x3de87475	0.113503374
22	0x3dbe53ad	0.09293304
23	0x3dbd7d29	0.09252388
24	0x3dafdf5c	0.08587524
25	0x3d8acfea	0.06777938
26	0x3dadfefc	0.084959
27	0x3d8844af	0.06653725
28	0x3d7950a7	0.06086793
29	0x3d1a7275	0.03770681
30	0x3cf48cec	0.029852353
31	0x3c160a5a	0.009157741
32	0x3be9d174	0.0071355645
33	0x3c3b2786	0.011422997
34	0xbcbaaf7a	-0.022788752
35	0xbd2c802d	-0.042114425
36	0xbd19317e	-0.037400715
37	0xbd7a5fa1	-0.061126355
38	0xbdca2722	-0.09870745
39	0xbdc95929	-0.09831459
40	0xbdf70bc1	-0.12062789
41	0xbe0b6805	-0.13613899
42	0xbe225f3b	-0.1585664
43	0xbe39468d	-0.18093319
44	0xbe537fb5	-0.20654185
45	0xbe73fb7f	-0.23826407
46	0xbe806154	-0.25074255
47	0xbe83274d	-0.25615922
48	0xbe8ba6a3	-0.2727557
49	0xbe82c44a	-0.25540382
50	0xbe7306cf	-0.23733066
51	0xbe7fd0fe	-0.24982068
52	0xbe80d947	-0.2516577
53	0xbe8808e0	-0.2656927
54	0xbe8a2ba9	-0.26986435
55	0xbe916805	-0.28399673
56	0xbe8fb3ed	-0.2806696
57	0xbe89e6fe	-0.26934046
58	0xbe88358d	-0.26603356
59	0xbe8e9a39	-0.27852038
60	0xbe85f38f	-0.26162383
61	0xbe9144ee	-0.28372902
62	0xbe91107d	-0.28332892
63	0xbe811efd	-0.25218955
64	0xbe861dc0	-0.26194572
65	0xbe8cb5ca	-0.27482444
66	0xbe8df92a	-0.2772916
67	0xbe82ebe5	-0.25570598
68	0xbe846bb4	-0.2586342
69	0xbe878aaf	-0.26472995
70	0xbe74262d	-0.23842688
71	0xbe81671b	-0.25273976
72	0xbe79aff1	-0.24383523
73	0xbe84b6de	-0.25920767
74	0xbe8d9cbc	-0.2765864
75	0xbe87c0d0	-0.26514292
76	0xbe8c3dba	-0.27390844
77	0xbe8f8ef4	-0.28038752
78	0xbea13c4a	-0.3149131
79	0xbe9c32d7	-0.30507538
80	0xbeb03fc5	-0.34423652
81	0xbeaaee83	-0.33385095
82	0xbeb1e332	-0.3474365
83	0xbebee4f7	-0.3728406
84	0xbecb3fe7	-0.3969719
85	0xbec5a2f9	-0.386009
86	0xbec7c33d	-0.39016142
87	0xbec17d0b	-0.37790713
88	0xbecd0388	-0.40041757
89	0xbec6070e	-0.38677257
90	0xbec39806	-0.38201922
91	0xbec2d4b1	-0.38052896
92	0xbeba6f36	-0.36412972
93	0xbeb419b1	-0.3517585
94	0xbeb349e1	-0.35017303
95	0xbea4b4e4	-0.3216926
96	0xbe8aad7f	-0.27085492
97	0xbe96171d	-0.2931451
98	0xbe5183ee	-0.20460483
99	0xbe584ffe	-0.21124265
100	0xbe65a5f6	-0.2242659
101	0xbe842ce3	-0.25815496
102	0xbe722c16	-0.2364963
103	0xbe829827	-0.25506708
104	0xbe80692e	-0.25080246
105	0xbe72583f	-0.23666476
106	0xbe7769fe	-0.24161527
107	0xbe758d48	-0.23979676
108	0xbe8148f9	-0.25250986
109	0xbe788e20	-0.24272966
110	0xbe7ab897	-0.24484478
111	0xbe51e041	-0.20495702
112	0xbe498377	-0.19679056
113	0xbe3c04a2	-0.18361142
114	0xbe24e0ed	-0.16101427
115	0xbe2d2cb2	-0.16911581
116	0xbe1a37c7	-0.1506034
117	0xbe1ce18d	-0.15320416
118	0xbdf8b9e5	-0.121448316
119	0xbe086606	-0.13320169
120	0xbde2d4e8	-0.11075765
121	0xbda464b9	-0.08027024
122	0xbdc0b4c5	-0.09409479
123	0xbdab6216	-0.08368318
124	0xbd8ac4e5	-0.06775836
125	0xbd5dc034	-0.054138377
126	0xbd846cd7	-0.06466072
127	0xbd48d158	-0.04902777
128	0xbd8d412e	-0.06897198
129	0xbd3c3130	-0.045945346
130	0xbd0922bf	-0.033480402
131	0xbd4108a2	-0.047127374
132	0xbd09de83	-0.03365947
133	0xbd5a5bcc	-0.0533102
134	0xbd35cdd4	-0.044385746
135	0xbd11e02e	-0.035614185
136	0xbc9985a6	-0.018740486
137	0xbc89c28e	-0.016816404
138	0xbd31363b	-0.04326461
139	0xbbf5dd55	-0.0075031915
140	0xbb610d9f	-0.0034340394
141	0xbc80016a	-0.015625674
142	0xbc177aa9	-0.009245553
143	0xbb79d4cb	-0.003812122
144	0xbd42463a	-0.047430255
145	0xbd1e6928	-0.038674504
146	0xbda807f0	-0.08204639
147	0xbd95ad0d	-0.073083974
148	0xbda136cf	-0.07871782
149	0xbd949e09	-0.07256705
150	0xbddc049e	-0.10743068
151	0xbdb3d783	-0.0878134
152	0xbdc7f218	-0.097629726
153	0xbe030428	-0.12794554
154	0xbe00f902	-0.12594989
155	0xbe2da629	-0.16957916
156	0xbe3b704a	-0.18304554
157	0xbe4d22a9	-0.20032753
158	0xbe4dd5e4	-0.20101124
159	0xbe5b8bcb	-0.21440046
160	0xbe817ebb	-0.25292
161	0xbe80bf1b	-0.25145802
162	0xbe83628e	-0.2566113
163	0xbe7158dc	-0.23569053
164	0xbe7069f0	-0.23477912
165	0xbe871c33	-0.26388702
166	0xbe7915ec	-0.24324769
167	0xbe81db14	-0.25362456
168	0xbe84060d	-0.25785866
169	0xbe81f3d4	-0.2538134
170	0xbe8654ba	-0.26236516
171	0xbe90df4a	-0.28295356
172	0xbe8f4e26	-0.2798931
173	0xbe882b01	-0.2659531
174	0xbe97a3cd	-0.29617158
175	0xbe981b9e	-0.2970857
176	0xbe994433	-0.29934844
177	0xbe8e88d4	-0.27838767
178	0xbe92ade8	-0.28648305
179	0xbe8a2ed5	-0.26988855
180	0xbe96f8ff	-0.29486844
181	0xbe918f15	-0.28429475
182	0xbe8017d2	-0.25018173
183	0xbe7b9d7a	-0.24571791
184	0xbe7e9e7d	-0.24865146
185	0xbe64dd1a	-0.22349969
186	0xbe7587db	-0.23977606
187	0xbe5660b1	-0.20935322
188	0xbe523667	-0.20528565
189	0xbe40d3d3	-0.18830805
190	0xbe17d7f1	-0.14828469
191	0xbde68223	-0.1125529
192	0xbdb2f63d	-0.087383725
193	0xbdb8c322	-0.09021594
194	0xbd848dc0	-0.06472349
195	0xbccd4292	-0.025056157
196	0xbde34e1f	-0.11098885
197	0xbde64c28	-0.112449944
198	0xbdfe099a	-0.12404175
199	0xbe0507df	-0.12991284
200	0xbe0385f9	-0.12844075
201	0xbe0709e6	-0.1318737
202	0xbdf11054	-0.117706925
203	0xbdf0afbb	-0.11752268
204	0xbe0550df	-0.13019131
205	0xbdeba6a1	-0.11506391
206	0xbe051e00	-0.12999725
207	0xbe00c796	-0.12576136
208	0xbe0ab6f4	-0.13546354
209	0xbe06caf2	-0.13163355
210	0xbe02549c	-0.12727588
211	0xbe219d90	-0.15782762
212	0xbe0a8236	-0.13526234
213	0xbdf22761	-0.11823917
214	0xbe0aec42	-0.13566688
215	0xbe02ac90	-0.1276114
216	0xbde6b33a	-0.112646535
217	0xbdb608b7	-0.08888381
218	0xbda5297a	-0.08064552
219	0xbdc28e74	-0.09499827
220	0xbd9a251b	-0.075266086
221	0xbda6eae4	-0.081502706
222	0xbd88e67d	-0.06684587
223	0xbd0e91ef	-0.034807142
224	0xbc402ccb	-0.0117294295
225	0x3c07e685	0.008294706
226	0x3d002039	0.03128073
227	0x3d823120	0.06357026
228	0x3d6b770d	0.057486583
229	0x3d8d47c3	0.06898453
230	0x3dc4f27a	0.09616561
231	0x3d889603	0.066692375
232	0x3db6a162	0.089175
233	0x3dac1000	0.08401489
234	0x3ddb4be9	0.10707838
235	0x3dcd02d9	0.10010309
236	0x3e02d0f8	0.12775028
237	0x3e06ede7	0.1317669
238	0x3de0b313	0.10971656
239	0x3df181cd	0.11792336
240	0x3dc2898b	0.094988905
241	0x3dc68a86	0.0969439
242	0x3d563975	0.05230089
243	0x3d6abc2a	0.057308353
244	0x3cfa9e4a	0.030593056
245	0x3ce56596	0.028002542
246	0x3cb349e2	0.021885816
247	0x3bd84992	0.006600567
248	0x3bb1bcf1	0.005424135
249	0xbc8a42a5	-0.016877482
250	0xbc5f11f2	-0.013615118
251	0xbd425964	-0.04744853
252	0xbd8505ba	-0.06495233
253	0xbda6b09f	-0.081391566
254	0xbde77626	-0.11301832
255	0xbe09b00d	-0.13446064

fc1.bias f4 [50]
0	0xbe7f3752	-0.24923447
1	0x3e6ad25c	0.22931808
2	0xbd354c59	-0.044262264
3	0xbe192d87	-0.14958774
4	0x3e880799	0.26568297
5	0xbd831324	-0.06400135
6	0xbd000c8c	-0.031261966
7	0x3cbabd1e	0.022795256
8	0xbe115e21	-0.14196064
9	0x3e6f34dc	0.23360008
10	0xbe1ebc1a	-0.15501443
11	0x3d799fd2	0.060943432
12	0x3d468daa	0.048474945
13	0xbda65dc7	-0.08123355
14	0x3e1c4e81	0.15264322
15	0x3cbd086a	0.023075301
16	0xbe18690c	-0.14883822
17	0xbd5e11a6	-0.05421605
18	0xbd10fdab	-0.035398167
19	0xbe0b8d80	-0.13628197
20	0x3e87ecdc	0.26547897
21	0xbcda4a22	-0.026646677
22	0xbc8d86e1	-0.01727623
23	0xbe0806db	-0.13283865
24	0xbe87b3f2	-0.26504475
25	0xbd3f7850	-0.0467456
26	0xbe089ef3	-0.13341884
27	0x3e880425	0.26565662
28	0xbd50095d	-0.05079018
29	0x3e9c1c5e	0.30490392
30	0x3d94858f	0.07252037
31	0x3dec31b1	0.115329154
32	0xbdff4330	-0.12463987
33	0x3e99a40a	0.30007964
34	0xbe38a77c	-0.1803264
35	0xbcaf66d4	-0.021411337
36	0x3cc730e2	0.024315301
37	0xbdc5020f	-0.09619533
38	0x3d07bf2f	0.03314131
39	0xbdbff538	-0.09372944
40	0x3e514a33	0.20438461
41	0xbdb490c0	-0.08816671
42	0xbdfba437	-0.12287181
43	0xbcd0f368	-0.02550669
44	0x3e951ece	0.29125065
45	0xbc2a21f9	-0.010384076
46	0x3b9982a5	0.0046847635
47	0x3df7cee3	0.121000074
48	0x3cf66780	0.03007865
49	0x3e36508c	0.17804164
