DOMAIN_ADAPTION/C1_C2_experiments/experiments_full_mmd/others/feature=C:x_bottom_GAMMA=0.5_GAMMA_reduction0.999_num_pool=2_[True, True, False, True, True, True]_exp_1/best_model/model_cnn.pt (torch, 762095 bytes, 16 tensors)

conv1.weight f4 [64, 1, 100]
-0.01609726 0.022801608 0.016206738 0.038305283 0.035738546 -0.010880675 0.0044987714 0.056963436
-0.053559046 0.031667456 0.0035676155 -0.012334727 0.08168382 -0.031128792 -0.008996572 -0.070727795
0.083093345 -0.06799841 0.08158154 -0.08723198 0.040156264 -0.032600954 0.09136428 -0.041631427
-0.052813184 -0.021858314 -0.036271006 0.03626326 0.01401765 -0.028775707 -0.03904532 0.0005879412
0.008765855 -0.02370467 0.03692048 -0.023126485 0.027874561 0.02087133 -0.04592909 -0.047863774
-0.04768398 -0.0038950997 0.033717845 -0.02938618 -0.0025319187 0.021614831 0.046541903 0.055599682
0.028676603 0.032448307 0.009991931 0.056706473 -0.012983659 0.053240694 -0.014370241 0.030132366
-0.09165593 -0.00079405535 -0.10536239 -0.00041221778 -0.03771229 -0.065720074 -0.06237385 0.028305337
0.06401184 0.04019362 0.06732762 -0.039431892 0.049100325 0.035405923 0.014925679 -0.061894685
-0.058859397 -0.07028807 0.016411744 0.05010126 0.032867696 -0.039134096 -0.03769455 0.016513227
-0.0061808126 -0.009559047 0.02463776 -0.024727307 0.025850054 -0.020134103 0.05459991 -0.03918641
0.07213408 0.035889983 -0.03366476 0.025227122 0.001991962 0.0056237527 0.04141339 -0.031436842
-0.04333613 -0.052502424 0.039327934 -0.049572203 -0.04709303 0.07413136 0.042158384 0.023802502
0.043276068 -0.0644458 -0.007798875 -0.019737976 0.051670663 -0.026625248 0.00916813 0.009973415
-6.492149e-05 -0.06254552 -0.04562621 -0.040592033 -0.006689632 0.07419505 0.041596107 0.04071369
0.00073477137 -0.025347624 -0.0055714725 0.07989926 0.009710449 0.005939434 0.03630607 0.05193415
0.019192131 -0.014827543 -0.038770474 -0.0509645 -0.037389055 0.058965467 0.059787165 -0.04192226
0.049478695 -0.023338798 0.005986909 0.019111441 -0.08784577 -0.058583368 0.01926346 -0.034518156
0.011872673 -0.021866264 -0.064137906 -0.061316647 0.05301523 0.021673687 -0.061510757 -0.054477606
-0.062131036 0.04086547 0.05164565 0.039929606 0.045447603 0.011622394 0.061249062 -0.04546177
0.07300842 0.006522263 0.011111868 0.061911568 8.550404e-05 -0.05746013 -0.021588763 -0.042700823
-0.013717583 0.014042723 0.02396848 -0.013674516 0.016883885 -0.066072285 -0.03546714 -0.088997476
0.077019766 -0.07815423 0.036698118 0.042147983 -0.0014216274 -0.019147838 0.05847348 -0.058801513
-0.0779762 -0.03534776 -0.030357003 -0.012875807 0.015743528 0.026072126 0.049047854 0.036004253
0.064207226 -0.046560388 0.01653011 0.022754375 0.03228236 -0.025668662 0.062601976 -0.07645853
-0.04138478 -0.09550309 0.010555676 -0.075910136 0.038652863 -0.060934033 0.03336083 0.058802705
0.06565789 0.03745727 0.03925093 -0.0009774254 0.032138396 0.0065391297 -0.073791884 0.06984728
-0.07779149 0.08599093 0.012067621 0.04671596 0.00049002067 0.029969417 0.056355506 -0.07295215
0.034058023 -0.05345162 -0.060269713 -0.058504272 -0.013629835 0.055390403 -0.07977872 0.018437069
0.023064421 -0.07429588 0.028948104 -0.054061454 0.018022792 -0.036810152 0.07510782 -0.08518415
0.05369777 -0.037937973 0.011507791 0.010364915 -0.07363943 -0.065019384 0.00078354584 0.008183037
-0.05248015 0.03357744 -0.04890642 -0.047819927 0.022909302 -0.022393482 0.02256429 0.046540864
00000000: 67de 83bc 70ca ba3c fec3 843c 00e6 1c3d
00000010: 9562 123d dc44 32bc 6e6a 933b 7e52 693d
00000020: bb60 5bbd bcb5 013d a8ce 693b 9817 4abc
00000030: d949 a73d cf01 ffbc 5c66 13bc bcd9 90bd
00000040: d82c aa3d c042 8bbd 3914 a73d aea6 b2bd
00000050: e57a 243d 9488 05bd 321d bb3d b785 2abd
00000060: a352 58bd 3510 b3bc e890 14bd c988 143d
00000070: 49aa 653c 08bb ebbc fced 1fbd 1120 1a3a
00000080: a99e 0f3c 4c30 c2bc ee39 173d c173 bdbc
00000090: 3159 e43c 5afa aa3c 2420 3cbd ce0c 44bd
000000a0: 4750 43bd ee44 7fbb b91b 0a3d 49bb f0bc
000000b0: 8cee 25bb 9611 b13c b9a2 3e3d 7ebc 633d
000000c0: 32eb ea3c 84e8 043d 32b5 233c 0c45 683d
000000d0: 6ab9 54bc ea12 5a3d 2971 6bbc 27d8 f63c
000000e0: 1bb6 bbbd 2728 50ba 3dc8 d7bd ef1e d8b9
000000f0: 3478 1abd 3f98 86bd b97b 7fbd 98e0 e73c
00000100: a418 833d 11a2 243d 10e3 893d 5683 21bd
00000110: 6c1d 493d cd05 113d d68a 743c 4885 7dbd
00000120: 8d16 71bd 31f3 8fbd ec71 863c fb36 4d3d
00000130: 47a0 063d 134b 20bd 9a65 1abd bf46 873c
00000140: 6a88 cabb 8d9d 1cbc 21d5 c93c ec90 cabc
00000150: 7ec3 d33c 46f0 a4bc 28a4 5f3d ee81 20bd
00000160: 08bb 933d 6001 133d 0fe4 09bd 1ca9 ce3c
00000170: 948b 023b 7547 b83b 16a1 293d ebc3 00bd
00000180: 3a81 31bd c80c 57bd 5416 213d 390c 4bbd
00000190: 9fe4 40bd 2fd2 973d 45ae 2c3d 77fd c23c
000001a0: 3f42 313d 29fc 83bd b58d ffbb 89b1 a1bc
000001b0: 9ea4 533d 311d dabc ed35 163c 8967 233c
000001c0: 7626 88b8 de17 80bd 8ce2 3abd d543 26bd
000001d0: b334 dbbb 93f3 973d ae60 2a3d 66c3 263d
000001e0: ac9d 403a d2a5 cfbc e690 b6bb 39a2 a33d
000001f0: 9318 1f3c 959f c23b acb5 143d e7b8 543d
00000200: d138 9d3c 39ef 72bc cacd 1ebd 27c0 50bd
00000210: 4425 19bd c685 713d 63e3 743d adb6 2bbd
00000220: 2caa 4a3d 0231 bfbc d52d c43b 998f 9c3c
00000230: 7ce8 b3bd 1df5 6fbd 67ce 9d3c e962 0dbd
00000240: 9a85 423c e120 b3bc bc5a 83bd 2a27 7bbd
00000250: 7f26 593d 048d b13c b4f2 7bbd e923 5fbd
00000260: 1d7d 7ebd 8d62 273d 648a 533d 3a8d 233d
00000270: 4427 3a3d db6b 3e3c 4ce0 7a3d 1f36 3abd
00000280: 7085 953d b5b8 d53b 8d0e 363c fc96 7d3d
00000290: a250 b338 505b 6bbd ebda b0bc 0fe7 2ebd
000002a0: b7bf 60bc 7313 663c 8c59 c43c 140b 60bc
000002b0: 1350 8a3c e850 87bd fe45 11bd 4f44 b6bd
000002c0: 8abc 9d3d 530f a0bd c450 163d 5da3 2c3d
000002d0: e655 baba eddb 9cbc e381 6f3d dbd9 70bd
000002e0: fcb1 9fbd d0c8 10bd 40af f8bc 0cf5 52bc
000002f0: 92f8 803c 3695 d53c 67e6 483d 3279 133d
00000300: 147f 833d 1bb6 3ebd 276a 873c 6267 ba3c
00000310: 823a 043d 1647 d2bc 7735 803d 4a96 9cbd
00000320: 1683 29bd 2097 c3bd b7f1 2c3c c676 9bbd
00000330: 7752 1e3d f795 79bd 5ea5 083d 1bdb 703d
00000340: a577 863d cb6c 193d 95c5 203d f41c 80ba
00000350: 8da3 033d 3246 d63b 3320 97bd 170c 8f3d
00000360: 2551 9fbd 031c b03d 45b7 453c 3c59 3f3d
00000370: bb74 003a 6c82 f53c 08d5 663d f067 95bd
00000380: 6d80 0b3d 16f0 5abd 60dd 76bd 2da2 6fbd
00000390: ac4f 5fbc 0ce1 623d 0763 a3bd 5609 973c
000003a0: 99f1 bc3c 7028 98bd 9324 ed3c 8b6f 5dbd
000003b0: 89a4 933c 3ec6 16bd 21d2 993d 0775 aebd
000003c0: 31f2 5b3d d964 1bbd 2c8b 3c3c 9bd1 293c
000003d0: 45d0 96bd e228 85bd df66 4d3a 2512 063c
000003e0: 6df5 56bd 7f88 093d 1952 48bd d4de 43bd
000003f0: 4aac bb3c 8972 b7bc bfd8 b83c a2a1 3e3d

conv1.bias f4 [64]
-0.06516825 -0.09850587 -0.06983836 0.5460498 -0.09721918 -0.09682713 -0.10265831 -0.08732535
-0.077366576 0.52660716 -0.08363266 -0.071745746 -0.058856923 -0.1140413 0.057636835 -0.03907742
0.2682591 0.602514 -0.106212035 -0.11707798 0.045875598 -0.10396567 0.59113395 0.5283409
0.39651224 -0.16188733 -0.107081085 -0.033095054 0.37957227 -0.11321544 0.5164127 -0.095567726
-0.08088341 -0.098381996 -0.09104373 -0.10581287 -0.11304899 -0.12421225 -0.043342486 0.18594338
0.38284838 -0.077545084 -0.07750412 -0.09548003 -0.09788488 0.5124647 -0.1408472 0.5256538
-0.069806404 0.5509991 0.4904349 -0.02352591 -0.03322713 -0.08790169 0.064604685 0.5314414
-0.14120382 -0.10252237 -0.07304469 -0.11887589 -0.0820081 -0.10218922 -0.048267055 -0.07760647
00000000: ee76 85bd 72bd c9bd 6a07 8fbd ebc9 0b3f
00000010: d91a c7bd 4d4d c6bd 853e d2bd a2d7 b2bd
00000020: 5e72 9ebd bacf 063f 9a47 abbd 6fef 92bd
00000030: f513 71bd 7c8e e9bd 9a14 6c3d a50f 20bd
00000040: 4259 893e 5c3e 1a3f b285 d9bd 94c6 efbd
00000050: 0de8 3b3d f4eb d4bd 8e54 173f 5941 073f
00000060: a703 cb3e cbc5 25be 544d dbbd ae8e 07bd
00000070: 4c57 c23e 7fdd e7bd 9f33 043f 03b9 c3bd
00000080: 34a6 a5bd 807c c9bd 2375 babd 6bb4 d8bd
00000090: 3b86 e7bd fe62 febd e487 31bd f167 3e3e
000000a0: b404 c43e f5cf 9ebd 7bba 9ebd 098b c3bd
000000b0: de77 c8bd e330 033f 403a 10be 3f91 063f
000000c0: a9f6 8ebd 470e 0d3f 491a fb3e 69b9 c0bc
000000d0: 2c19 08bd cd05 b4bd 764f 843d 8b0c 083f
000000e0: bc97 10be 40f7 d1bd 7498 95bd 3475 f3bd
000000f0: ddf3 a7bd 9548 d1bd adb3 45bd 24f0 9ebd

conv2.weight f4 [32, 64, 10]
-0.01158169 -0.010741988 -0.0060781077 -0.0025967306 0.0089179855 0.026142664 -0.03720093 0.03488116
0.03947548 -0.021642318 0.05775897 0.045799654 0.00941057 0.03844493 0.028243462 0.069129005
0.019821886 0.02854909 0.069113985 0.014947119 -0.111829296 -0.039662186 -0.06976491 -0.05894893
-0.06615524 -0.092593946 -0.06236539 -0.05717657 -0.07352237 -0.05304794 -0.078489676 0.0025077907
0.028678639 -0.0020922027 0.027649889 -0.013686613 -0.021273308 -0.007656529 0.020949 -0.06829899
-0.08069334 -0.029540136 -0.04088978 -0.08110318 -0.047707576 -0.049720414 -0.04521447 -0.05758025
-0.02289536 -0.08453425 -0.002574951 0.0071850605 -0.017406557 -0.0028703045 -0.038115714 1.4094073e-05
0.0016706778 -0.0068565663 -0.03860331 0.01737533 0.03400234 0.08754383 0.08760236 0.084272474
0.08211745 0.08100007 0.050496858 0.06802991 0.038491867 0.04949662 0.025312632 0.048543736
0.056175902 0.047135185 0.01695899 0.060852174 0.04927031 0.037255067 0.037308812 0.037094854
-0.0042478414 -0.036398936 -0.029849442 -0.040520553 -0.031041978 -0.05206208 0.0137646925 -0.057139914
-0.011091483 -0.06209893 -0.05104928 -0.063933745 -0.03936047 -0.045347966 -0.04248207 -0.023717778
0.006491284 -0.029570116 0.009583849 -0.062148843 -0.10094209 -0.06344707 -0.09196271 -0.042063873
-0.0035233516 -0.016784549 -0.02821074 -0.023914054 -0.0383275 -0.010250376 -0.018803684 0.0066198697
-0.004551033 0.032862544 -0.01638032 0.024305373 -0.0030964834 -0.027038073 -0.01685399 -0.0360282
0.046045434 0.050648 0.0046326276 0.013966841 0.063827835 0.07060551 0.10324428 0.048458885
0.07862339 0.10710493 -0.009117223 0.011775636 0.04147885 0.075864285 0.031073658 0.023994168
0.051827222 0.09890702 0.0495247 0.03791841 0.04117351 -0.005412244 -0.021905579 0.0013628249
0.05683203 0.029516961 0.045919385 0.05144846 0.0030824202 0.009177221 0.03296062 0.014757018
0.031866446 0.018739095 -0.028558547 -0.03432813 -0.0061073797 -0.032893427 0.015378265 0.028467814
0.033547882 0.045189988 -0.0012396047 0.06354699 -0.009300275 0.012736507 0.039009433 0.029910287
-0.020454075 -0.043408815 -0.07852899 -0.016756387 -0.003371024 0.024765706 0.009589236 0.020523347
0.010452321 -0.05794346 -0.061013076 -0.050809097 -0.02802955 0.01109254 0.033477023 0.0063077975
-0.008468955 -0.014686566 -0.020890992 0.031873375 -0.01235243 0.030932095 -0.015476932 -0.036513977
0.0032648018 -0.03695216 -0.015809705 -0.017477341 -0.07360545 -0.05867449 0.009172505 -0.029660614
0.0045801173 0.0053128423 0.03256666 0.0020900678 0.018314395 0.06034449 0.06996825 0.06593391
0.02439273 -0.011379407 0.056538384 0.024714364 0.0083269905 0.04636062 0.029774956 0.073276855
0.044563383 0.05284272 0.047593858 0.049685813 -0.07004653 -0.013946789 0.0025187195 -0.031882007
0.022802904 -0.007815574 0.0011463262 0.0022117635 -0.029471206 -0.046595875 0.022703419 0.039836306
0.006008257 0.021429066 0.046352558 0.0120147 0.001586657 0.029696608 0.038171995 -0.07356601
0.06684223 0.059273463 0.042112894 0.035986792 0.065095745 0.024082951 0.048310943 0.03496528
0.03467736 -0.037747648 -0.004064903 0.025411714 0.015708977 0.038647372 -0.0050824895 0.006022335
00000000: 21c1 3dbc 2aff 2fbc dd2a c7bb e92d 2abb
00000010: be1c 123c 2429 d63c 0160 18bd 8cdf 0e3d
00000020: 0ab1 213d 3b4b b1bc ab94 6c3d 6b98 3b3d
00000030: cb2e 1a3c 6e78 1d3d d55e e73c 8293 8d3d
00000040: 8261 a23c c8df e93c a28b 8d3d c3e4 743c
00000050: c206 e5bd d174 22bd e8e0 8ebd 6f74 71bd
00000060: 667c 87bd e5a1 bdbd da72 7fbd fb31 6abd
00000070: e592 96bd cc48 59bd 32bf a0bd bf59 243b
00000080: 77ef ea3c 561d 09bb 0582 e23c d13d 60bc
00000090: 5c45 aebc 9fe3 fabb 3d9d ab3c 57e0 8bbd
000000a0: 8d42 a5bd 28fe f1bc 0b7c 27bd 6d19 a6bd
000000b0: 0569 43bd a2a7 4bbd cf32 39bd 45d9 6bbd
000000c0: 0d8f bbbc 4b20 adbd 82c0 28bb a870 eb3b
000000d0: 3298 8ebc b81b 3cbb 391f 1cbd 9575 6c37
000000e0: a5fa da3a 0cad e0bb 811e 1ebd b556 8e3c
000000f0: 0a46 0b3d 2e4a b33d de68 b33d 0c97 ac3d
00000100: 322d a83d 5de3 a53d cbd5 4e3d 4453 8b3d
00000110: a6a9 1d3d f8bc 4a3d 705c cf3c ccd5 463d
00000120: b418 663d d310 413d 94ed 8a3c 2140 793d
00000130: aacf 493d c598 183d 20d1 183d c6f0 173d
00000140: 7a31 8bbb 0d17 15bd d186 f4bc e1f8 25bd
00000150: bf4b febc 0c3f 55bd 4e85 613c 8b0b 6abd
00000160: 0db9 35bc 735b 7ebd 0d19 51bd b2ef 82bd
00000170: 7238 21bd cabe 39bd ae01 2ebd c94b c2bc
00000180: d6b4 d43b 073d f2bc 9405 1d3c c98f 7ebd
00000190: baba cebd 8af0 81bd f256 bcbd 2b4b 2cbd
000001a0: 08e8 66bb c07f 89bc 361a e7bc 68e7 c3bc
000001b0: 4cfd 1cbd 31f1 27bc 2f0a 9abc 7eeb d83b
000001c0: d520 95bb e09a 063d 0530 86bc 101c c73c
000001d0: 5fee 4abb f37e ddbc 6111 8abc 4e92 13bd
000001e0: 239a 3c3d 4774 4f3d 4ccd 973b 2dd5 643c
000001f0: 2bb8 823d 9f99 903d bd71 d33d d37c 463d
00000200: 4d05 a13d d459 db3d 6860 15bc 99ee 403c
00000210: bae5 293d bc5e 9b3d 2f8e fe3c 6b8f c43c
00000220: c848 543d c48f ca3d 69da 4a3d 5650 1b3d
00000230: 8ea5 283d 3159 b1bb 5473 b3bc d1a0 b23a
00000240: b4c8 683d 8ecd f13c f715 3c3d 9fbb 523d
00000250: 6e02 4a3b 0e5c 163c b701 073d 6bc7 713c
00000260: 6486 023d bb82 993c 9df3 e9bc a79b 0cbd
00000270: 6a20 c8bb 42bb 06bd 1ef5 7b3c 5535 e93c
00000280: 8169 093d 2319 393d 3b7a a2ba ed24 823d
00000290: 2e60 18bc c8ac 503c 5bc8 1f3d 6b06 f53c
000002a0: 4e8f a7bc 71cd 31bd cfd3 a0bd b144 89bc
000002b0: 66ec 5cbb 73e1 ca3c 2c1c 1d3c 9420 a83c
000002c0: 3640 2b3c 1f56 6dbd d9e8 79bd 331d 50bd
000002d0: 3a9e e5bc 7cbd 353c 341f 093d a4b1 ce3b
000002e0: 5fc1 0abc ec9f 70bc 9623 abbc a88d 023d
000002f0: d961 4abc 4e65 fd3c f592 7dbc ae8f 15bd
00000300: 49f6 553b 265b 17bd 5b83 81bc a42c 8fbc
00000310: 74be 96bd a954 70bd 4648 163c d1fa f2bc
00000320: cf14 963b 5a17 ae3b 9e64 053d 85f9 083b
00000330: 1208 963c c92b 773d 844b 8f3d 5c08 873d
00000340: 43d3 c73c b170 3abc cb94 673d c775 ca3c
00000350: ee6d 083c a2e4 3d3d 9cea f33c 2d12 963d
00000360: 1888 363d 9c71 583d c7f1 423d 5a83 4b3d
00000370: 8e74 8fbd 1381 64bc 1a11 253b b596 02bd
00000380: 28cd ba3c e50c 00bc 5340 963a 3cf3 103b
00000390: 996d f1bc 51db 3ebd 85fc b93c 652b 233d
000003a0: eae0 c43b 028c af3c 2edc 3d3d 4ed9 443c
000003b0: 60f7 cf3a 4d46 f33c 3d5a 1c3d c7a9 96bd
000003c0: 94e4 883d bbc8 723d 927e 2c3d e366 133d
000003d0: eb50 853d 9c49 c53c b2e1 453d c137 0f3d
000003e0: d909 0e3d 479d 1abd e132 85bb 3a2c d03c
000003f0: 1db0 803c b54c 1e3d 038b a6bb 0257 c53b

conv2.bias f4 [32]
-0.10910078 0.09450826 0.094035685 -0.06892583 0.037926726 -0.07452452 0.0735257 0.09953843
0.16363071 0.19011736 -0.054344043 -0.11932005 -0.013453868 0.037120845 0.059363775 -0.020202376
0.00350156 0.062217344 0.024249073 -0.041528393 0.10513872 0.0051077306 -0.01599246 -0.0010984039
0.031889785 -0.0649768 -0.068083435 -0.033893134 0.11571021 0.13749461 -0.05399273 0.0776039
00000000: 3b70 dfbd 8c8d c13d c895 c03d fc28 8dbd
00000010: 0e59 1b3d 50a0 98bd a494 963d ceda cb3d
00000020: cf8e 273e 20ae 423e dc97 5ebd 125e f4bd
00000030: 9d6d 5cbc 070c 183d 6e27 733d 747f a5bc
00000040: 6e7a 653b 9dd7 7e3d fea5 c63c ad19 2abd
00000050: f852 d73d c05e a73b 9f02 83bc 52f8 8fba
00000060: dd9e 023d 8e12 85bd 546f 8bbd 87d3 0abd
00000070: 79f9 ec3d 63cb 0c3e 7b27 5dbd cbee 9e3d

batch1.weight f4 [32]
0.9722011 1.0136561 0.92211235 0.92983013 1.1706343 0.94102204 1.1591527 1.0987852
0.8886845 0.9882828 1.3594368 1.0562437 1.2198956 0.9228922 0.94935536 0.92131406
0.92181456 1.1744803 0.9511948 0.92173666 1.0877675 1.1250563 1.19496 1.0880938
1.0448806 1.0516685 0.9046693 1.1213171 0.9997766 1.3354636 0.91682196 0.9352579
00000000: 2ce2 783f 7cbf 813f 8e0f 6c3f 5909 6e3f
00000010: 58d7 953f d2e6 703f 1e5f 943f fea4 8c3f
00000020: d480 633f 1a00 7d3f 0602 ae3f fe32 873f
00000030: 8a25 9c3f aa42 6c3f f408 733f 3ddb 6b3f
00000040: 0afc 6b3f 5f55 963f 8181 733f eff6 6b3f
00000050: f73b 8b3f d801 903f 73f4 983f a846 8b3f
00000060: a6be 853f 139d 863f 6898 673f 5287 8f3f
00000070: 5cf1 7f3f 79f0 aa3f d8b4 6a3f 106d 6f3f

batch1.bias f4 [32]
0.034139577 -0.076477736 -0.15169673 -0.16176 -0.11350274 -0.08508456 -0.08630214 -0.073091455
-0.17919448 -0.17450361 -0.07275529 -0.089413546 0.0697277 -0.12782724 -0.16018558 0.019178705
-0.121506564 -0.07881068 -0.10859884 -0.16339684 -0.11816427 -0.13519797 -0.021243257 -0.06843983
-0.16233094 -0.08520683 -0.10579802 -0.055171017 -0.008451348 -0.025940673 -0.14240658 -0.21739168
00000000: f1d5 0b3d 5ca0 9cbd 6356 1bbe 6aa4 25be
00000010: 2074 e8bd d040 aebd 2dbf b0bd f9b0 95bd
00000020: c27e 37be 13b1 32be ba00 95bd 731e b7bd
00000030: 65cd 8e3d 25e5 02be b007 24be a91c 9d3c
00000040: 6fd8 f8bd 7e67 a1bd 1269 debd 8051 27be
00000050: 1c00 f2bd 5671 0abe 5706 aebc 2e2a 8cbd
00000060: 153a 26be eb80 aebd a2ac d8bd 01fb 61bd
00000070: 8677 0abc 8981 d4bc 08d3 11be ed9b 5ebe

batch1.running_mean f4 [32]
-0.560259 0.032750823 0.4140357 -0.10755435 -0.7065036 0.17133093 -0.39028123 -1.1698637
0.31721663 0.1528563 -0.503254 -0.6873591 -1.1882517 -0.6005348 0.8987714 0.26667222
-0.37869075 -1.4041951 -0.016923752 0.19953047 -0.099824905 0.15594408 -0.14991143 0.18845922
-0.01885722 -0.35085976 0.11749965 -0.45317644 0.049421676 -0.23688361 -0.23614387 0.279559
00000000: 226d 0fbf ba25 063d 7dfc d33e 7445 dcbd
00000010: 6cdd 34bf 6071 2f3e f1d2 c7be 18be 95bf
00000020: 386a a23e 5d86 1c3e 41d5 00bf c4f6 2fbf
00000030: a218 98bf a6bc 19bf e215 663f 4389 883e
00000040: c1e3 c1be aabc b3bf aea3 8abc b751 4c3e
00000050: 0071 ccbd ceaf 1f3e 6282 19be 74fb 403e
00000060: 757a 9abc e4a3 b3be a8a3 f03d be06 e8be
00000070: 626e 4a3d 9e91 72be b3cf 71be 5b22 8f3e

batch1.running_var f4 [32]
0.00091520714 0.001082835 0.00083524646 0.0011934908 0.0024148924 0.00033391378 0.0022245685 0.0046099466
0.00069594773 0.0012214053 0.004913966 0.0010800345 0.0031044544 0.0009677116 0.00046104647 0.0011325256
0.0011877173 0.0042541684 0.0015946687 0.0010327935 0.002333857 0.0015672053 0.0012434028 0.0016225141
0.0014315628 0.0014356077 0.0005522045 0.002201302 0.001327859 0.0034154104 0.0010750024 0.00081159367
00000000: 83ea 6f3a eaed 8d3a 71f4 5a3a e86e 9c3a
00000010: 2c43 1e3b 2611 af39 11ca 113b 090f 973b
00000020: 4370 363a 9017 a03a 5605 a13b f28f 8d3a
00000030: 1a74 4b3b 07ae 7d3a 9cb8 f139 4171 943a
00000040: 2ead 9b3a 8d66 8b3b 3404 d13a cd5e 873a
00000050: 9ff3 183b af6a cd3a adf9 a23a 8aaa d43a
00000060: 47a3 bb3a 002b bc3a d1c1 103a b843 103b
00000070: 8e0b ae3a 14d5 5f3b 18e7 8c3a 21c1 543a

conv3.weight f4 [32, 32, 5]
0.0032916563 0.018983733 -0.041417442 0.01828438 0.014039572 -0.19453043 -0.13563325 -0.10749753
-0.06531669 -0.06806532 -0.00073133747 -0.014201657 -0.13425267 -0.030544322 0.0028655087 0.020271342
-0.04328828 -0.052006833 -0.06741775 0.042696603 -0.1393654 -0.16218933 -0.05406794 -0.1767621
-0.13008289 -0.08808551 -0.057896547 -0.06985477 -0.029659187 0.045903385 -0.05853008 -0.16066113
-0.0979122 -0.10398006 -0.053656902 -0.0014188061 -0.036660656 -0.028151212 -0.11886532 -0.13116047
0.032207627 0.017121388 0.0484132 -0.069751844 0.059937716 -0.13906237 0.0024051026 -0.13048628
-0.13010539 0.006049952 0.027503515 -0.015667867 0.055152602 -0.06334588 -0.1190125 -0.16687503
-0.15478852 -0.006212581 -0.15849186 -0.10789411 -0.075957246 -0.07433665 0.037946824 -0.10307236
-0.013693525 0.036615714 -0.039207835 -0.027784286 -0.052591667 0.032038786 -0.057723217 0.030280782
-0.0007347446 0.016438853 -0.046207484 -0.094706446 0.0071758493 -0.07859218 -0.035743568 -0.10419306
-0.07285608 -0.104701094 -0.035288133 -0.048719823 -0.047527283 -0.07103071 -0.12710886 -0.041662958
-0.19747718 -0.1827887 -0.0008430731 0.04973295 -0.08405176 -0.059684742 -0.05141242 -0.009282312
-0.039345652 -0.070318334 -0.11766919 -0.06346704 -0.15639418 -0.1307181 -0.07689885 -0.04766196
0.024881555 -0.078855716 -0.058399588 -0.040771447 -0.089016736 -0.10006558 0.0009807199 -0.05632746
-0.007786195 -0.07439288 -0.114473395 0.0222322 -0.041946936 -0.052202627 -0.054380495 0.028393725
-0.20332724 -0.16334341 -0.1364356 -0.15942158 -0.21503532 -0.075410016 0.028092766 -0.084738605
-0.053346056 0.012378145 -0.087644555 0.0013068754 0.060626008 -0.02092962 -0.046611946 -0.05663691
0.0053390516 0.043873016 -0.02605744 -0.069376536 0.0068390355 -0.082078576 -0.028829701 -0.0074556153
-0.06391233 -0.006820607 -0.18622169 -0.13712756 -0.06911368 -0.04823584 -0.13343328 -0.06852267
-0.12885746 -0.14950816 -0.18283689 -0.022105148 0.031758398 0.017423883 0.05102754 0.051748343
0.095783286 0.043695487 0.030224143 -0.04312095 0.10077105 -0.029885191 -0.005193092 0.10459515
0.06255416 0.060071837 0.05124896 0.08212944 0.051418006 0.04591765 0.056359444 -0.11844832
-0.10021138 0.023972351 -0.06289927 -0.07024783 -0.08666094 0.0004602169 -0.029860271 -0.049380805
-0.077185124 -0.06764111 -0.03635853 -0.069172665 -0.082455374 0.02427584 -0.13543232 -0.1603148
-0.15164751 -0.15899973 -0.04369671 -0.05033654 -0.059128076 -0.009253213 -0.101593964 -0.041053258
0.02743166 0.041051958 -0.06666776 0.03641731 0.035732646 0.014152427 0.027860515 0.10500606
0.036566146 0.08420288 -0.1487308 -0.103482716 -0.12639318 -0.06486465 -0.108815 -0.071850576
-0.10295402 -0.029857198 -0.044840973 -0.1045713 0.064152025 0.111879006 0.06090618 -0.0073808846
0.08609666 0.043542672 0.04880211 0.09135736 0.10644735 0.089449555 0.008731024 -0.059578117
-0.09396931 -0.064153984 0.029614357 0.08103629 -0.06688266 -0.015273285 -0.06409764 -0.048245538
-0.036869153 -0.004985995 -0.028451065 0.11366111 -0.038800567 -0.029578326 0.028388958 -0.045485944
-0.09085992 -0.15695678 -0.057570186 -0.03412202 -0.10721887 -0.08512692 -0.05194366 -0.034034528
00000000: d4b8 573b c683 9b3c 56a5 29bd 20c9 953c
00000010: 3c06 663c fc32 47be 71e3 0abe aa27 dcbd
00000020: c2c4 85bd d565 8bbd 3ab7 3fba 11ae 68bc
00000030: 8879 09be 1638 fabc 42cb 3b3b 1610 a63c
00000040: 0d4f 31bd 1e05 55bd 5112 8abd a2e2 2e3d
00000050: ceb5 0ebe f614 26be 5876 5dbd 2001 35be
00000060: 7334 05be 2d66 b4bd ee24 6dbd 0510 8fbd
00000070: d3f7 f2bc 3005 3c3d 3dbd 6fbd 5a84 24be
00000080: 3186 c8bd 7ff3 d4bd 57c7 5bbd 3cf7 b9ba
00000090: 7c29 16bd 5f9d e6bc a96f f3bd ee4e 06be
000000a0: 25ec 033d 2742 8c3c eb4c 463d 0eda 8ebd
000000b0: 4081 753d 5e66 0ebe ed9e 1d3b 329e 05be
000000c0: 593a 05be ad3e c63b 0d4f e13c e659 80bc
000000d0: b2e7 613d 7cbb 81bd d3bc f3bd 4ae1 2abe
000000e0: e280 1ebe e892 cbbb b14b 22be 96f7 dcbd
000000f0: 798f 9bbd d03d 98bd 216e 1b3d 9a17 d3bd
00000100: cf5a 60bc 5cfa 153d 6598 20bd df9b e3bc
00000110: 5c6a 57bd 1a3b 033d 2e6f 6cbd 670f f83c
00000120: e09b 40ba c6aa 863c 0f44 3dbd 74f5 c1bd
00000130: 6323 eb3b f0f4 a0bd d967 12bd 2c63 d5bd
00000140: 9235 95bd 876d d6bd 4a8a 10bd 708e 47bd
00000150: f8ab 42bd 8d78 91bd d328 02be c7a6 2abd
00000160: 7537 4abe f62c 3bbe ae01 5dba c7b4 4b3d
00000170: 5423 acbd fd77 74bd d495 52bd d714 18bc
00000180: e828 21bd 0f03 90bd 8bfc f0bd 02fb 81bd
00000190: cc25 20be f7da 05be 257d 9dbd 3039 43bd
000001a0: 67d4 cb3c 1b7f a1bd 6834 6fbd f6ff 26bd
000001b0: 684e b6bd 2fef ccbd 808b 803a 9fb7 66bd
000001c0: 5623 ffbb 4b5b 98bd 0771 eabd 4d20 b63c
000001d0: 8dd0 2bbd 6cd2 55bd 15be 5ebd f599 e83c
000001e0: 0435 50be 7f43 27be c6b5 0bbe 693f 23be
000001f0: 3832 5cbe 9170 9abd cd22 e63c 6f8b adbd
00000200: 6581 5abd b4cd 4a3c fd7e b3bd 764b ab3a
00000210: fa52 783d 9874 abbc 2bec 3ebd 1bfc 67bd
00000220: 36f3 ae3b 31b4 333d 6a76 d5bc 4915 8ebd
00000230: fd19 e03b d018 a8bd 442c ecbc 3c4e f4bb
00000240: 78e4 82bd 667f dfbb e6b0 3ebe 2b6b 0cbe
00000250: 798b 8dbd f292 45bd bca2 08be 9d55 8cbd
00000260: 36f3 03be ab18 19be 9839 3bbe db15 b5bc
00000270: 1815 023d 88bc 8e3c 4102 513d 12f6 533d
00000280: 072a c43d 0afa 323d 9f98 f73c 989f 30bd
00000290: 0d61 ce3d cad1 f4bc d02a aabb fb35 d63d
000002a0: 651c 803d e30d 763d 6eea 513d 7b33 a83d
000002b0: b09b 523d 2514 3c3d 29d9 663d 0895 f2bd
000002c0: a03b cdbd aa61 c43c 55d1 80bd 18de 8fbd
000002d0: 4a7b b1bd 4449 f139 879d f4bc 8743 4abd
000002e0: 3c13 9ebd 6c87 8abd afec 14bd 66aa 8dbd
000002f0: 5dde a8bd 20de c63c c5ae 0abe 9029 24be
00000300: 7c49 1bbe d3d0 22be 52fb 32bd b02d 4ebd
00000310: 4830 72bd ca9a 17bc 7f10 d0bd 7627 28bd
00000320: 5cb8 e03c 1926 283d 1b89 88bd 512a 153d
00000330: 655c 123d 95df 673c bc3b e43c 6b0d d73d
00000340: 62c6 153d 8f72 ac3d e34c 18be bfee d3bd
00000350: 376d 01be c2d7 84bd 66da debd 6526 93bd
00000360: 8fd9 d2bd 1597 f4bc 2bab 37bd 7a29 d6bd
00000370: 2362 833d d220 e53d c278 793d 59db f1bb
00000380: 7253 b03d cd59 323d b9e4 473d 9119 bb3d
00000390: 1101 da3d 5431 b73d 920c 0f3c 2f08 74bd
000003a0: fb72 c0bd 2a63 83bd cf99 f23c 5bf6 a53d
000003b0: c7f9 88bd cd3c 7abc a045 83bd 1d9d 45bd
000003c0: 1c04 17bd 8f61 a3bb 3512 e9bc 28c7 e83d
000003d0: 58ed 1ebd 3f4e f2bc f68f e83c 784f 3abd
000003e0: c414 babd 47b9 20be b7ce 6bbd 88c3 0bbd
000003f0: 9195 dbbd 0657 aebd e0c2 54bd ca67 0bbd

conv3.bias f4 [32]
0.052085955 -0.11153259 0.08531471 -0.09202997 -0.027523115 -0.056232113 -0.03770592 -0.042304635
0.028063368 0.0040138653 0.020042723 -0.06137413 -0.05865783 -0.08472464 -0.07291912 0.086554915
0.048670057 0.003017789 -0.0063441712 0.038604252 0.058049325 -0.0134548275 0.032200184 0.029960763
0.06385674 -0.052422095 -0.094458565 0.03379387 0.054864768 0.003862059 -0.014244104 0.12299729
00000000: 1558 553d 336b e4bd 7bb9 ae3d 357a bcbd
00000010: 2878 e1bc a553 66bd 8671 1abd a047 2dbd
00000020: 26e5 e53c be86 833b a330 a43c 7163 7bbd
00000030: 3143 70bd 1d84 adbd 9f56 95bd b443 b13d
00000040: 415a 473d 19c6 453b c4e2 cfbb 7e1f 1e3d
00000050: 21c5 6d3d a371 5cbc 57e4 033d 4670 f53c
00000060: 53c7 823d 8db8 56bd 7e73 c1bd 716b 0a3d
00000070: e1b9 603d 991a 7d3b 1a60 69bc 01e6 fb3d

batch2.weight f4 [32]
0.8414533 0.8670126 1.2303741 0.95564544 0.9573942 0.9760452 1.0480847 1.1609265
0.98555744 0.92081064 0.92106646 0.9890113 0.9763027 0.9371636 0.8943283 0.95924366
1.1688097 1.1098044 0.92673534 0.94613117 1.0031388 0.95624053 1.1825778 1.057438
0.91627264 1.0864772 1.0756476 0.98543763 1.2199413 1.048326 1.0386992 1.1469254
00000000: 7c69 573f 8af4 5d3f e67c 9d3f 2ea5 743f
00000010: c917 753f 19de 793f a427 863f 3d99 943f
00000020: 7e4d 7c3f 3fba 6b3f 03cb 6b3f d82f 7d3f
00000030: f9ee 793f f4e9 6f3f b3f2 643f fe90 753f
00000040: 8e9b 953f 120e 8e3f 873e 6d3f a735 723f
00000050: da66 803f 2ecc 743f b65e 973f 215a 873f
00000060: d890 6a3f af11 8b3f d2ae 893f a445 7c3f
00000070: 0927 9c3f 8c2f 863f 18f4 843f 74ce 923f

batch2.bias f4 [32]
0.04989113 -0.057055723 0.054363914 0.112633914 0.06654067 0.063847534 -0.06430267 -0.04513343
0.09791442 0.07370439 -0.044245623 -0.17810768 0.08839157 0.037655696 0.03621588 0.123053685
-0.022536336 -0.008842713 0.047177773 0.10537023 -0.108061574 -0.06749238 -0.14930849 -0.13748273
0.032514237 0.013467199 -0.10061489 0.055137336 -0.06452387 -0.048842814 0.028493538 0.0300576
00000000: a45a 4c3d 43b3 69bd b2ac 5e3d 9cac e63d
00000010: 7a46 883d 7fc2 823d 1eb1 83bd d5dd 38bd
00000020: 5b87 c83d 54f2 963d e63a 35bd dc61 36be
00000030: a406 b53d dc3c 1a3d 1a57 143d 9203 fc3d
00000040: 1f9e b8bc 07e1 10bc 7b3d 413d 59cc d73d
00000050: 634f ddbd 7239 8abd 53e4 18be 46c8 0cbe
00000060: a62d 053d 87a5 5c3c 2e0f cebd b0d7 613d
00000070: 1725 84bd 670f 48bd 486b e93c 5b3b f63c

batch2.running_mean f4 [32]
-0.97245336 -0.8194571 0.46851242 -0.8936745 -0.87568796 -1.024955 0.60650194 0.22604732
-0.5785644 -0.9843282 -0.7554037 1.1012304 -0.68773335 -0.9117471 -0.8197224 -0.7216618
0.5637991 0.3502637 -0.9031379 -0.7357766 0.7013376 0.69972426 0.5916583 1.2540196
-0.54455215 0.362894 0.88687825 -0.41465902 0.45059273 0.41617793 0.8141742 0.65364593
00000000: b4f2 78bf f1c7 51bf dce0 ef3e dac7 64bf
00000010: 162d 60bf ba31 83bf b643 1b3f f378 673e
00000020: cc1c 14bf effc 7bbf 2362 41bf 1ef5 8c3f
00000030: 4b0f 30bf 4268 69bf 54d9 51bf d4be 38bf
00000040: 2355 103f c455 b33e 0c34 67bf db5b 3cbf
00000050: dc8a 333f 2121 333f eb76 173f b783 a03f
00000060: c567 0bbf 3ecd b93e 740a 633f 304e d4be
00000070: 17b4 e63e 4615 d53e b86d 503f 5755 273f

batch2.running_var f4 [32]
21.744658 10.959113 13.342507 18.735157 15.780943 21.17284 18.79044 9.749141
9.426579 26.356419 14.723425 29.813774 9.11802 15.025199 11.995051 16.070602
12.803838 7.646783 19.763515 15.72315 17.538635 11.982661 15.09058 35.027195
9.07641 6.2720385 22.944288 6.792605 8.292733 19.644936 15.749585 10.159115
00000000: 0ff5 ad41 8758 2f41 e97a 5541 9ae1 9541
00000010: be7e 7c41 fa61 a941 d252 9641 7bfc 1b41
00000020: 45d3 1641 f2d9 d241 2693 6b41 9c82 ee41
00000030: 69e3 1141 3767 7041 bbeb 3f41 9890 8041
00000040: 85dc 4c41 72b2 f440 ae1b 9e41 0692 7b41
00000050: 204f 8c41 fbb8 3f41 0473 7141 d91b 0c42
00000060: fa38 1141 8ab4 c840 e78d b741 055d d940
00000070: 09af 0441 d428 9d41 4dfe 7b41 bc8b 2241

fc1.weight f4 [50, 3136]
-0.036308326 -0.07023099 -0.028608723 -0.009678801 -0.03243861 -0.017934248 -0.028558625 -0.0067051
-0.0053787604 -0.0062904814 -0.013681519 -0.014548082 0.0036202115 -0.022050377 0.0033969025 -0.02620869
-0.027251149 -0.009342181 -0.007000457 0.0054258127 -0.008595508 -0.046215516 -0.01845509 -0.018962717
-0.032004207 -0.01218762 -0.032480445 -0.040966563 -0.03786138 -0.011267662 -0.028748473 -0.03632815
1.2977422e-05 -0.01410186 -0.004488424 0.0032693353 -0.0026638147 -0.019109175 -0.016671034 0.007284228
0.0010545388 -0.020918263 -0.0013231066 0.0061377226 -0.02477661 -0.012837937 -0.008638018 0.005306577
-0.015516193 0.001359336 -0.0033169813 -0.011009104 -0.0060432334 -0.0134617165 -0.022741344 -0.020951057
-0.01446021 0.0010031015 -0.002312149 0.0037067898 0.018135862 0.019830259 0.013950656 0.013755667
0.009006289 0.012178119 0.016189016 -0.015794436 -0.026638743 -0.015524562 -0.002181233 0.011109861
-0.012725068 -0.023439452 -0.03149993 -0.025236586 -0.028665157 -0.011815856 -0.003367291 0.021906737
-0.0051403386 0.017121516 0.011538097 -0.0014220802 0.0217362 0.03318076 0.050397374 0.009301057
0.014385912 0.0052987034 0.016091835 0.029614722 0.053267706 0.05291878 0.044464976 0.033400234
0.030542204 -0.0016412538 0.1110267 0.06520661 0.034341518 0.033074945 0.035265643 0.03450878
0.023165468 0.028447466 0.041900963 0.04546708 0.030789135 0.01604766 0.019449124 0.005801888
0.023073794 0.01774442 0.01111288 0.016539667 0.020992799 0.03999354 0.028401662 0.040812094
0.043808326 0.041144654 0.038272433 0.03298995 0.0263179 0.008880066 0.013097674 0.025102992
0.023681791 -0.0014488698 0.021910166 0.022784457 0.01578559 0.014718232 -0.014230251 -0.008079961
0.016956545 0.0005259008 -0.0049114395 0.009570851 0.011184748 -0.00884558 0.0061554136 -0.015233054
0.0011837599 -0.0025845843 0.00013526727 0.0030153806 0.0101364795 -0.010340419 -0.01065968 0.006411203
-0.00421972 -0.028076075 -0.008274715 -0.034774635 0.0022644326 -0.01585204 -0.015006069 0.016786978
0.007747291 0.0141541585 0.0072759627 -0.005998828 -0.0080001885 0.0093090525 -0.009413789 0.008347103
0.0006560732 -0.0028699844 0.004747207 -0.009059342 -0.014262402 -0.008959242 -0.0017730817 0.011184939
-0.0090439245 0.010325435 -0.011718125 -0.02034054 0.0032327212 0.009029567 -0.0034335628 -0.017260032
-1.5013023e-05 0.008494411 0.001446543 -0.024743216 -0.01696669 -0.017689662 -0.01688391 -0.0013314638
-0.015838193 -0.0010410441 0.0008468916 -0.033894256 0.012235278 0.0986472 0.02502494 -0.008454774
0.02365633 0.023932222 -0.0049567763 -0.01616006 -0.028076297 -0.022354396 -0.029291717 -0.02694312
-0.014368995 -0.002388471 0.008894219 -0.03104673 -0.03167259 -0.066783585 -0.06929789 -0.053957764
-0.05132431 -0.044921856 -0.053441938 -0.06722025 -0.07234164 -0.08584392 -0.07692749 -0.07477802
-0.07552754 -0.046655983 -0.07528767 -0.06348723 -0.05536249 -0.059127834 -0.054018047 -0.049351826
-0.058995154 -0.03555729 -0.036805335 0.0077395015 -0.017970376 0.008350159 -0.004345885 -0.018537262
-0.01149854 -0.0036457572 0.0034187217 -0.008822125 -0.0068401145 -0.01555348 -0.026168164 -0.022738528
-0.02136165 0.008733673 -0.021811223 -0.023142638 -0.023228467 -0.013470466 -0.049827643 -0.024050498
00000000: 0ab8 14bd 44d5 8fbd d75c eabc d593 1ebc
00000010: 59de 04bd d8ea 92bc c7f3 e9bc 75b6 dbbb
00000020: 5040 b0bb 6220 cebb 7328 60bc 145b 6ebc
00000030: 1241 6d3b fea2 b4bc 919e 5e3b 9bb3 d6bc
00000040: cd3d dfbc f20f 19bc 1764 e5bb 04cb b13b
00000050: 2cd4 0cbc 7b4c 3dbd 212f 97bc b357 9bbc
00000060: d816 03bd 95ae 47bc 370a 05bd 8ecc 27bd
00000070: 8914 1bbd 009c 38bc eb81 ebbc d4cc 14bd
00000080: 9ab9 5937 7d0b 67bc a113 93bb 5842 563b
00000090: 6593 2ebb d88a 9cbc b191 88bc 89b0 ee3b
000000a0: 7338 8a3a c75c abbc 176c adba f31e c93b
000000b0: 51f8 cabc 3656 52bc 7986 0dbc cbe2 ad3b
000000c0: a137 7ebc bf2b b23a b661 59bb 875f 34bc
000000d0: 5106 c6bb 888e 5cbc 0e4c babc 8da1 abbc
000000e0: 84ea 6cbc 807a 833a 6c87 17bb 9ded 723b
000000f0: a991 943c 1173 a23c 4b91 643c 735f 613c
00000100: 1d8f 133c bc86 473c d49e 843c 5563 81bc
00000110: 7e39 dabc bc5a 7ebc 04f3 0ebb 2206 363c
00000120: ce7c 50bc 1804 c0bc 1206 01bd f5bc cebc
00000130: 31d3 eabc 4b97 41bc c5ad 5cbb c275 b33c
00000140: 4970 a8bb 6c42 8c3c 490a 3d3c 1865 baba
00000150: 1e10 b23c 8ce8 073d 7a6d 4e3d 7663 183c
00000160: e3b2 6b3c bfa0 ad3b 06d3 833c 939a f23c
00000170: 3d2f 5a3d 5dc1 583d e820 363d afce 083d
00000180: a533 fa3c 571f d7ba f761 e33d 0b8b 853d
00000190: b1a9 0c3d 9879 073d b572 103d 1459 0d3d
000001a0: 82c5 bd3c a90a e93c 58a0 2b3d b03b 3a3d
000001b0: 7f39 fc3c 6276 833c c553 9f3c c41d be3b
000001c0: 4105 bd3c bf5c 913c cc12 363c 327e 873c
000001d0: 17f9 ab3c 44d0 233d 9aaa e83c 952a 273d
000001e0: 5c70 333d 4c87 283d 8ec3 1c3d 7820 073d
000001f0: a398 d73c b27d 113c a097 563c caa4 cd3c
00000200: 5100 c23c 01e8 bdba f37c b33c 78a6 ba3c
00000210: c850 813c bd24 713c 0026 69bc d061 04bc
00000220: 74e8 8a3c 9bdc 093a 24f0 a0bb 0fcf 1c3c
00000230: 3c40 373c 0ded 10bc 5ab3 c93b 0f94 79bc
00000240: 6428 9b3a 2162 29bb 88d6 0d39 b19d 453b
00000250: 7a13 263c dc6a 29bc f0a5 2ebc 1215 d23b
00000260: 9445 8abb ccff e5bc ac92 07bc d96f 0ebd
00000270: e066 143b 23dc 81bc 04dc 75bc d884 893c
00000280: fddc fd3b d8e6 673c 336b ee3b d191 c4bb
00000290: 3913 03bc ff84 183c 4b3c 1abc 4ac2 083c
000002a0: 54fc 2b3a 5916 3cbb 758e 9b3b a26d 14bc
000002b0: daac 69bc c9c9 12bc c066 e8ba 0941 373c
000002c0: f82c 14bc 032c 293c 61fd 3fbc 34a1 a6bc
000002d0: 10dc 533b c0f0 133c a005 61bb e964 8dbc
000002e0: 71e0 7bb7 242c 0b3c ee99 bd3a 49b2 cabc
000002f0: bafd 8abc e9e9 90bc 2050 8abc 8384 aeba
00000300: 19bf 81bc a573 88ba ef01 5e3a b4d4 0abd
00000310: 7a76 483c 8b07 ca3d 1a01 cd3c e485 0abc
00000320: ebca c13c 820d c43c 746c a2bb 1a62 84bc
00000330: 4300 e6bc 9120 b7bc 2ff5 efbc d1b7 dcbc
00000340: ef6b 6bbc e587 1cbb 0fb9 113c b655 febc
00000350: 1ebb 01bd d5c5 88bd 0dec 8dbd d102 5dbd
00000360: 7139 52bd fbff 37bd efe5 5abd c5aa 89bd
00000370: db27 94bd f0ce afbd 298c 9dbd 3825 99bd
00000380: 2fae 9abd 581a 3fbd 6c30 9abd 9805 82bd
00000390: c7c3 62bd 0730 72bd 0742 5dbd 2425 4abd
000003a0: e7a4 71bd 85a4 11bd 31c1 16bd a59b fd3b
000003b0: 9c36 93bc 1bcf 083c ed67 8ebb 75db 97bc
000003c0: 5f64 3cbc a8ed 6ebb a20c 603b ad8a 10bc
000003d0: 0a23 e0bb 06d4 7ebc 9e5e d6bc 2646 babc
000003e0: a1fe aebc ae17 0f3c 73ad b2bc a195 bdbc
000003f0: a049 bebc 3bb3 5cbc 1218 4cbd 8d05 c5bc

fc1.bias f4 [50]
-0.0120447595 -0.0109497635 0.009880722 0.03500223 0.049411625 -0.027104205 -0.014028182 -0.017571606
-0.005894971 -0.009084912 -0.014809485 0.017109388 -0.00082235306 -0.058090255 -0.013760272 -0.009303957
-0.020262081 0.0069601582 -0.013064848 0.0021642155 -0.043861777 0.020272864 0.009723703 0.00053019164
0.0026399575 -0.008841208 0.009859501 -0.05923515 0.02463581 0.016126066 -0.0030526 -0.01925261
-0.012256458 -0.01695958 0.0036609655 -0.003274671 -0.04609289 0.020845583 0.017715193 -0.04954374
-0.011955767 -0.024225999 0.014363691 -0.02076076 0.035986412 0.000596985 -0.009273055 0.019392805
0.029685415 0.024448695
00000000: 6257 45bc a366 33bc c0e2 213c 805e 0f3d
00000010: d863 4a3d a309 debc 76d6 65bc 54f2 8fbc
00000020: 9a2a c1bb e2d8 14bc 7ba3 72bc fd28 8c3c
00000030: 2e93 57ba 0cf0 6dbd c472 61bc a06f 18bc
00000040: aafc a5bc 0a12 e43b f20d 56bc 83d5 0d3b
00000050: 68a8 33bd 4713 a63c 2b50 1f3c 8ffc 0a3a
00000060: 2303 2d3b b7da 10bc bf89 213c 8fa0 72bd
00000070: 0ad1 c93c d01a 843c 210e 48bb a6b7 9dbc
00000080: 50cf 48bc d1ee 8abc cfec 6f3b dd9b 56bb
00000090: e6cb 3cbd 5bc4 aa3c 741f 913c 60ee 4abd
000000a0: 1fe2 43bc 9a75 c6bc b055 6b3c 7812 aabc
000000b0: 7d66 133d fc7e 1c3a 03ee 17bc a9dd 9e3c
000000c0: d42e f33c a148 c83c
