DOMAIN_ADAPTION/C1_C2_experiments/side_experiments/experiments_no_mmd_all_single_features/feature=C:s_ist_X__GAMMA=1/best_model/model_fc.pt (torch, 2207 bytes, 4 tensors)

fc2.weight f4 [3, 50]
00000000: ca3d 0ebb 1c59 4f3c 4f36 05bd c226 36bc
00000010: 93de 8e3d 9894 e53a 9650 14bd 22c1 7e3d
00000020: 7c27 9e3c a838 1d3c 1273 85bc 77cc 84bd
00000030: c219 41bd a497 febb f900 aebc 99a1 9b3c
00000040: c1bf 18bc 8211 56bd 232b a63d 404d 4fbc
00000050: 1429 033d e3ab c4bd 7506 71bc eb2e 31bc
00000060: 8ddf 5b3d 2603 88bd d8e0 4c3d f7e2 5c3a
00000070: 2933 93bd 1355 1ebd 767f 8cbd 2574 263e
00000080: ac1f aabc c458 b2bc e5d0 903c 2af0 2fbd
00000090: 97d8 343d 57db a1bd 4dae 3d3c ea5e 5739
000000a0: 8723 f23c a0fa fe3c bde5 c0bd 29ae e3bb
000000b0: ebf0 7e3d 11da 863c c41e 3abd c86b b9bb
000000c0: a8ba 9fbd bcb5 b2bc 5ff9 143d 476e f93d
000000d0: 4802 18bb 4b7d c0bc 2d1d e13b 131f c83c
000000e0: 5239 ed3c 5bb7 2e3d bb6a 83bd 39fe 1b3d
000000f0: a591 583d 03d6 41bd 40cd b93c a600 7b3d
00000100: 7e00 473d ce0f f6bc b4c4 953d 887f 40bd
00000110: 1cd9 203d bf5f da3b 5783 a63d acb3 993c
00000120: 6442 5d3d ab17 2f3d c777 8b3d c71a 13bd
00000130: f945 8e3d 22e5 f33c dc6f 5e3d 3917 0dbd
00000140: 8c0d 2abd 67a3 e1bc e10f 98bd 87f7 873d
00000150: 99ea fcbc 9609 c63c cb46 c6bc 7c5d 28bd
00000160: b42a 923d 87ec 123d 1a1e eebc 997f 9c3c
00000170: 67b4 d53c 8604 8f3d 30f7 bbbc cebd 793d
00000180: b428 42bd 603a 1d3b 592e 9cbc dda8 963c
00000190: 0fda 47bd f929 3f3d c156 7ebd ad0b d5bc
000001a0: 98c7 a73d 2886 1d3d a9b8 1cbd 7cb6 183d
000001b0: 8ecc d73a 69bc 53bd 9a80 0abd 3bac 50bc
000001c0: 7207 873d 8090 ed3c b131 a03b 10dd 4fbc
000001d0: e579 a6bb a6e0 eeba 38d1 3dbd ec4d edbc
000001e0: d949 87bc b448 cd3d de26 0f3c cf14 a03b
000001f0: 33d1 6c3c 4acd 56bc e422 b63d a208 cb3b
00000200: ceaa b63c 1349 50ba e297 a0bd 9da6 733c
00000210: bf45 4a3c 3000 1a3d d941 dabd 0baa bb3c
00000220: 38da b4bc e826 723c 8a1e 39bd 2471 493c
00000230: c274 8abc a785 dc3c 2969 393d a0dc 04bd
00000240: 2388 64bd d190 b53b fae0 81bd 1bde a13c
00000250: f9a7 28bd c551 ec3c
-0.002170431 0.012655523 -0.032522496 -0.011117639 0.069760464 0.0017515598 -0.036209665 0.062195905
0.019305937 0.009596027 -0.016290221 -0.06484311 -0.047143705 -0.007769542 -0.021240698 0.018997954
-0.009323061 -0.05226279 0.081136964 -0.012652695 0.032021597 -0.09603097 -0.014711012 -0.010814409
0.05367999 -0.066412255 0.050019115 0.00084261544 -0.071874924 -0.03865535 -0.06860249 0.16255243
-0.020767055 -0.021770842 0.017677734 -0.042953648 0.04415187 -0.07903164 0.011577201 0.00020539356
0.029557956 0.031125367 -0.09418819 -0.0069482517 0.062241476 0.016461404 -0.045439497 -0.0056586005
-0.07799274 -0.021815173 0.03637063 0.12179237 -0.002319472 -0.023497244 0.006869933 0.02442888
0.028957997 0.04265533 -0.064168416 0.038084242 0.052873272 -0.047323238 0.022680879 0.061279915
0.048584454 -0.030036833 0.07312909 -0.046996623 0.03926955 0.006664246 0.0813052 0.018762432
0.054018393 0.04274718 0.06809955 -0.03591421 0.0694694 0.029772345 0.054305896 -0.034445975
-0.041516826 -0.027543737 -0.07424904 0.06639009 -0.030873584 0.024174493 -0.024203679 -0.04110478
0.07137051 0.0358701 -0.029067088 0.019103812 0.026087 0.06983285 -0.022945017 0.060972027
-0.0474021 0.0023991093 -0.019065069 0.018391067 -0.04879194 0.046670888 -0.062094454 -0.026006544
0.08192366 0.03845802 -0.038262043 0.037283406 0.001646416 -0.051693354 -0.03381405 -0.012736375
0.06593217 0.028999567 0.004888736 -0.012686983 -0.005080449 -0.001822491 -0.046342105 -0.02896782
-0.016514705 0.10023633 0.008737294 0.004885293 0.014454174 -0.013110468 0.088933736 0.0061960975
0.022298243 -0.0007945459 -0.07841469 0.014871267 0.01234573 0.037597835 -0.10657091 0.022908231
-0.022076711 0.014779784 -0.04519514 0.012295041 -0.016901378 0.0269192 0.045266304 -0.032436967
-0.055793893 0.005540945 -0.06341739 0.019759228 -0.041175816 0.028847585

fc2.bias f4 [3]
00000000: 12de 80bd 531d 9f3d d67c 15be
-0.062923566 0.07769265 -0.14598402

fc3.weight f4 [2, 3]
00000000: 6e2b 8b3d dd9e ec3d 29b1 6dbe 606c e63d
00000010: 954e e23d ce17 6abe
0.06795393 0.11553738 -0.23212112 0.1125114 0.110501446 -0.22860643

fc3.bias f4 [2]
00000000: 7b4f f5be 8a93 e8be
-0.479122 -0.45425063
