DOMAIN_ADAPTION/P_C1_vs_C2_C3/no_mmd/feature=S:Actual_rotational_speed[µm_s]_GAMMA=0.0_GAMMA_reduction1.0_num_pool=2_[False, False, False, False, False, True]_14_07_2022__21_05_09/best_model/model_fc.pt (torch_old, 1438 bytes, 4 tensors)

fc2.weight f4 [3, 50]
000000 f1 42 07 3e 75 30 12 bb 2b b1 1c 3e 82 05 c1 bd
       0.1320913 -0.0022306715 0.15301959 -0.09424879
000010 cc 93 15 3d 35 3c 0b 3e 73 a4 65 3d 60 bf 04 ba
       0.036517903 0.13597186 0.056065034 -0.00050639175
000020 0b 1c fe bd f4 7b 14 be bb 8f 80 3d 28 12 f7 bd
       -0.124076925 -0.1450041 0.062774144 -0.1206401
000030 8e 7f 2f 3c 7d 54 e5 3d 20 98 9d bd 97 40 42 3d
       0.010711564 0.111977555 -0.07695031 0.04742488
000040 80 f3 a8 3c c8 95 74 3d 8a fa a0 3b 4d 2f 1c 3d
       0.020623922 0.059713155 0.004912679 0.038131047
000050 2b 75 5f 3d 15 df f3 bc 9a b5 1d 3c e2 56 a3 3d
       0.0545551 -0.02976946 0.009625817 0.07975556
000060 9b 0e ca 3b 83 df ee 3d e7 fa 99 3d 17 c9 ad bd
       0.006166292 0.11663725 0.07518559 -0.084856205
000070 50 38 2c 3c d8 83 f7 3c 32 b0 15 3e 93 73 54 3c
       0.010511473 0.030214235 0.14617994 0.012967008
000080 e9 81 a8 bd 84 f9 0b 3d 5b fe 9c 3d ae 77 c3 3d
       -0.082279034 0.034173504 0.07665702 0.095443115
000090 e2 12 80 3d d5 78 fd bc c6 c8 13 bd 23 6f 04 be
       0.062536016 -0.030941406 -0.036080144 -0.1293302
0000a0 1a 0c c6 bd 66 8a e4 bc 82 76 3c 3d fe 35 a5 bd
       -0.09670277 -0.027898025 0.046011455 -0.08066939
0000b0 64 4a 3d 3c 36 a8 2e bc bd 13 83 3d de dc 88 bc
       0.011553381 -0.010660222 0.06400249 -0.01670688
0000c0 95 dd 0a be b2 61 78 bd dd 45 c9 bc 3a 58 61 bc
       -0.1356109 -0.060640045 -0.024569446 -0.013753945
0000d0 29 4e 78 3c 8e b5 fa 3b 94 8e ba bc 47 9e 45 3c
       0.015155354 0.0076510375 -0.022773065 0.012061662
0000e0 c3 b2 44 bd 14 d5 67 bc 18 9a da bc 41 02 0b bc
       -0.048022043 -0.014149923 -0.026684806 -0.008484424
0000f0 68 6a 19 bc de 49 85 bc 0a d0 4e 3d 46 74 c0 bc
       -0.009363748 -0.016270574 0.05049137 -0.023492943
000100 b0 94 ab 3c 7e 13 12 3d eb 48 98 bc c4 9c 04 3d
       0.020944923 0.03566312 -0.018589457 0.032376066
000110 18 6f 8e bb 49 d5 36 bd 24 94 f7 bc 1f 3c 93 3c
       -0.0043467395 -0.044637 -0.030222006 0.017973004
000120 b1 b5 8f 3c 8b ee 02 3d c0 e2 ac bc 80 3d 13 b9
       0.017542692 0.031965774 -0.021104217 -0.00014041923
000130 11 16 f7 3c f2 6b d4 3b 16 73 b3 3c fb 58 22 3c
       0.03016189 0.0064825946 0.021905463 0.00990891
000140 8f ef b4 3b 5c 03 28 3b d5 42 02 3c 29 af 9e bd
       0.0055217217 0.0025636768 0.007950504 -0.07748253
000150 94 7b bc bc 42 6c 1f 3d 46 36 06 3d bc 48 bd bc
       -0.023008145 0.038921602 0.032766603 -0.023105972
000160 a6 ea 84 3c b0 7e 24 bd 5c b7 41 bc 3d 01 8c 3c
       0.01622517 -0.04015988 -0.011823501 0.017090434
000170 b3 dc 76 bd 50 c5 c0 bc 6c ac 5f bc 97 8c bc bb
       -0.06026907 -0.023531586 -0.013651948 -0.0057540643
000180 a5 33 12 bc be 02 e1 3c f9 79 c2 bb 6f 05 fe bc
       -0.008923446 0.027467128 -0.0059349504 -0.03100845
000190 15 17 66 bd 37 2e c2 bc b5 8a b2 3d 52 3d cb bd
       -0.056174356 -0.023703678 0.087178625 -0.09923805
0001a0 ad 19 54 3e 6d e6 ba bc c4 27 61 bd 7e 1c 9a 3c
       0.2071292 -0.022814954 -0.054969564 0.018812414
0001b0 9f fc bb bc 16 b7 92 bd 6e ce a7 3d 64 a4 ed 3d
       -0.022947608 -0.07163827 0.0819367 0.11603621
0001c0 2a 98 e5 bc 44 76 95 3d 1a b0 c8 3b 3c aa 99 bd
       -0.028026659 0.07297948 0.0061245086 -0.07503173
0001d0 ba ea 9c 3d dd 40 78 3d 9a 7d 20 bb 9a 44 86 3d
       0.07661958 0.060608733 -0.0024488927 0.065560535
0001e0 cf 44 3c 3e 88 9a a5 bd 83 5b 0b bd ba a8 2f 3d
       0.18385623 -0.08086115 -0.03402282 0.04288552
0001f0 70 5d 5c 3e 7f 1c a7 bc f9 aa 8e 3d cd 69 31 bd
       0.21520019 -0.02039933 0.06966204 -0.04331379
000200 88 e7 e4 3c ff 4f 50 3e 55 78 d2 3d 00 79 01 bc
       0.027942434 0.20343016 0.10276858 -0.007902384
000210 1f 8a 20 3d ac 21 35 3d 9f 73 93 3d fb 94 05 3d
       0.039194223 0.044221565 0.07199787 0.032612782
000220 d2 7a 93 3a 06 52 fb 3c 4a 3d eb 3d e0 b5 b7 3d
       0.0011251813 0.03067876 0.11486299 0.08970237
000230 93 f4 65 3d 9f 8b 96 bd 89 88 86 3d ed 82 8e bd
       0.056141447 -0.07350849 0.06569011 -0.06958566
000240 55 82 24 3d 4d fe 0c 3e 74 0d 28 3d ea 96 6b bd
       0.040163357 0.13768883 0.041028455 -0.05751697
000250 b3 96 41 3d 4f e6 02 bd
       0.04726286 -0.03195792

fc2.bias f4 [3]
000000 4a a0 8e be 20 33 8d bd f5 9b 51 bd
       -0.27856666 -0.06894517 -0.051174123

fc3.weight f4 [2, 3]
000000 3e 3a f9 bd 71 84 30 3e 58 6f 0a 3f 4d 82 76 bd
       -0.12169312 0.17238022 0.5407615 -0.06018286
000010 97 7a 09 3b 5f d7 03 3f
       0.002097761 0.51500505

fc3.bias f4 [2]
000000 2b d3 1c be 77 57 fe be
       -0.15314929 -0.49676105
