DOMAIN_ADAPTION/C1_C2_experiments/experiments_no_mmd/feature=D:P_mech._X_GAMMA=0.0_exp_2/best_model/model_cnn.pt (torch, 762095 bytes, 16 tensors)

conv1.weight f4 [64, 1, 100]
-0.02211833 0.04247972 0.053418793 0.05958457 0.07008463 -0.045767285 0.02130872 0.08589964
-0.08206625 0.064865015 0.025298834 0.004371572 0.09906445 -0.041536022 -0.027534127 -0.07431298
0.084195964 -0.07309643 0.08943092 -0.073585644 0.05732217 -0.04993495 0.08787992 -0.06695384
-0.06475436 -0.02885263 -0.08039712 0.095052 0.03697274 -0.054314174 -0.075604476 -0.033053078
0.015019977 -0.04502752 0.05810989 -0.049095523 0.029796708 0.07199892 -0.07089893 -0.07807695
-0.095642366 0.018817747 0.078510225 -0.06379809 -0.013468361 0.06260034 0.077592604 0.05483681
0.032026004 0.017355097 0.007342315 0.087302744 0.0035694242 0.03886317 -0.007298112 0.079198815
-0.09910452 -0.031803526 -0.095834844 0.023484027 -0.022880042 -0.08218359 -0.076594524 0.028523564
0.075088166 0.085186556 0.068628035 -0.08073272 0.083129026 0.09532245 0.0048441053 -0.09600524
-0.07230091 -0.088546395 0.016107583 0.0822384 0.06414699 -0.048633765 -0.043530155 0.023647988
-0.053666618 -0.009564149 0.028934216 -0.036618736 0.03582889 -0.014237523 0.09202277 -0.08216176
0.084407404 0.067438446 -0.08955069 0.023500813 -0.012802685 0.04697713 0.07228496 -0.053733792
-0.056875434 -0.07269776 0.07258737 -0.08375869 -0.062257793 0.090087965 0.05153309 0.0686404
0.086157344 -0.0872479 -0.024879372 -0.008430922 0.09249859 -0.028258288 -0.0066955327 0.05671829
0.0520913 -0.065265514 -0.0868631 -0.037765276 0.031912077 0.095161036 0.04509008 0.05786283
0.0307773 -0.025417913 -0.016503347 0.08411282 0.021300435 0.01998098 0.05851997 0.072084144
0.028535618 -0.01009171 -0.0442302 -0.060763527 -0.049990345 0.08138489 0.07961507 -0.052871253
0.08435904 -0.025835479 -0.02526933 0.031743493 -0.08128589 -0.05916312 -0.014628768 -0.031428136
0.050489333 -0.023649836 -0.08521467 -0.08706411 0.096560635 0.045094825 -0.09954055 -0.08204057
-0.06315475 0.0905602 0.054411042 0.03264257 0.056612577 0.01693908 0.0713005 -0.08051562
0.078581385 0.04570968 0.03319315 0.06394612 -0.019536996 -0.047505546 -0.027203906 -0.07501247
0.00068153144 0.051434696 0.018615449 -0.0034564496 0.03783237 -0.091188684 -0.065746985 -0.08729166
0.09941804 -0.09089434 0.047503304 0.071880125 -0.028350448 -0.015758896 0.08214755 -0.08173814
-0.09974255 -0.0146608 -0.012804294 -0.04093044 0.007800949 0.05320827 0.053503264 0.029129613
0.07062372 -0.046618428 0.006679797 0.03352536 0.032159783 -0.035877276 0.081206374 -0.076418914
0.002710208 -0.048605397 0.064745225 -0.031309005 0.12483761 -0.01864739 0.07655971 0.13725074
0.14227614 0.08199007 0.085941814 0.06814971 0.107653625 0.04401129 -0.030621726 0.14034925
-0.030262256 0.15026692 0.052830424 0.09675777 0.04930581 0.09401313 0.11802826 -0.05046117
0.10383531 0.013038924 -0.04602285 -0.03532369 0.053976376 0.1273315 -0.05462089 0.07655872
0.084320724 -0.04977266 0.06632296 -0.008009437 0.05951597 0.0026514279 0.12808521 -0.052380856
0.0958752 0.0040956554 0.071086295 0.05365863 -0.059302855 -0.0043889503 0.041146383 0.047324955
-0.01525248 0.102099694 -0.014073551 -0.012976188 0.08378932 0.027347444 0.06900386 0.09835027
00000000: 8031 b5bc 37ff 2d3d aacd 5a3d f30e 743d
00000010: 8888 8f3d 7a76 3bbd a08f ae3c 27ec af3d
00000020: 5a12 a8bd f3d7 843d 803f cf3c 673f 8f3b
00000030: 4de2 ca3d ad21 2abd 408f e1bc 6731 98bd
00000040: ef6e ac3d 95b3 95bd 8f27 b73d 12b4 96bd
00000050: a7ca 6a3d 9788 4cbd 63fa b33d 181f 89bd
00000060: ef9d 84bd 5a5c ecbc 3fa7 a4bd 9faa c23d
00000070: ba70 173d 8a78 5ebd 85d6 9abd aa62 07bd
00000080: 5a16 763c c76e 38bd a304 6e3d 6318 49bd
00000090: 3a18 f43c 2b74 933d 7533 91bd cfe6 9fbd
000000a0: 25e0 c3bd ad27 9a3c f8c9 a03d 93a8 82bd
000000b0: 67aa 5cbc 9b34 803d dfe8 9e3d 909c 603d
000000c0: b32d 033d 472c 8e3c cd97 f03b c8cb b23d
000000d0: 00ed 693b fd2e 1f3d 0025 efbb fd32 a23d
000000e0: 50f7 cabd 6a44 02bd 0f45 c4bd 9361 c03c
000000f0: ed6e bbbc df4f a8bd 97dd 9cbd 40aa e93c
00000100: d3c7 993d 4a76 ae3d db8c 8c3d 3257 a5bd
00000110: 8d3f aa3d 6b38 c33d 4dbb 9e3b 659e c4bd
00000120: 8012 94bd d057 b5bd 0df4 833c 9b6c a83d
00000130: 7f5f 833d 3334 47bd ad4c 32bd 6db9 c13c
00000140: 87d1 5bbd f3b2 1cbc 7307 ed3c 87fd 15bd
00000150: 50c1 123d 8044 69bc 6f76 bc3d 6d44 a8bd
00000160: cadd ac3d 2b1d 8a3d 5a66 b7bd c784 c03c
00000170: 5ac2 51bc 176b 403d 230a 943d f717 5cbd
00000180: 37f6 68bd 90e2 94bd b0a8 943d ad89 abbd
00000190: 0702 7fbd 0a80 b83d 5d14 533d 5793 8c3d
000001a0: 4373 b03d 07af b2bd d3cf cbbc da21 0abc
000001b0: e76f bd3d ed7d e7bc 3366 dbbb 7051 683d
000001c0: b05d 553d eda9 85bd 48e5 b1bd c3af 1abd
000001d0: 3db6 023d cae3 c23d 60b0 383d 9301 6d3d
000001e0: ad20 fc3c 3a39 d0bc 0732 87bc 5843 ac3d
000001f0: 407e ae3c 27af a33c a3b2 6f3d daa0 933d
00000200: 87c3 e93c b357 25bc ba2a 35bd 2de3 78bd
00000210: adc2 4cbd 1fad a63d 3a0d a33d 878f 58bd
00000220: 6fc4 ac3d eda4 d3bc a001 cfbc 7705 023d
00000230: 3779 a6bd 0755 72bd 80ad 6fbc caba 00bd
00000240: e7cd 4e3d 4dbd c1bc 0785 aebd ab4e b2bd
00000250: 95c1 c53d 5ab5 383d eadb cbbd e304 a8bd
00000260: 4757 81bd a077 b93d 1dde 5e3d 37b4 053d
00000270: 97e2 673d d3c3 8a3c ff05 923d 60e5 a4bd
00000280: 47ef a03d 133a 3b3d 8af5 073d 2ff6 823d
00000290: 0d0c a0bc 2d95 42bd bada debc 23a0 99bd
000002a0: cda8 323a 30ad 523d 6d7f 983c 9a85 62bb
000002b0: 1df6 1a3d 22c1 babd 5ba6 86bd f8c5 b2bd
000002c0: af9b cb3d d026 babd d392 423d e335 933d
000002d0: 333f e8bc cd18 81bc fa3c a83d 5366 a7bd
000002e0: d245 ccbd da33 70bc 1ac9 51bc ada6 27bd
000002f0: 1a9f ff3b eaf0 593d 3d26 5b3d 3aa1 ee3c
00000300: 2ba3 903d f7f2 3ebd 33e2 da3b e351 093d
00000310: fab9 033d 0df4 12bd 874f a63d 8581 9cbd
00000320: bf9d 313b 7416 47bd 2599 843d df3d 00bd
00000330: dcaa ff3d 69c2 98bc 56cb 9c3d 758b 0c3e
00000340: d6b0 113e 69ea a73d 4302 b03d 1392 8b3d
00000350: 8179 dc3d 2f45 343d 6ada fabc b7b7 0f3e
00000360: 8de8 f7bc 92df 193e b764 583d f028 c63d
00000370: e4f4 493d f589 c03d cdb8 f13d 5fb0 4ebd
00000380: 9ba7 d43d 36a1 553c 7582 3cbd 93af 10bd
00000390: 5516 5d3d 3063 023e 28ba 5fbd d1ca 9c3d
000003a0: 58b0 ac3d 6bde 4bbd 55d4 873d 033a 03bc
000003b0: 05c7 733d 94c3 2d3b c528 033e 4f8d 56bd
000003c0: 385a c43d d934 863b b195 913d 27c9 5b3d
000003d0: 8de7 72bd 2fd1 8fbb 1c89 283d d0d7 413d
000003e0: 8ae5 79bc a519 d13d c094 66bc 149a 54bc
000003f0: bc99 ab3d bf07 e03c e551 8d3d de6b c93d

conv1.bias f4 [64]
-0.09496132 -0.028329385 0.28332648 0.120504685 -0.038797557 -0.06067411 -0.06057961 -0.04535712
-0.013924765 0.16507873 -0.07861762 -0.05073149 0.16390628 -0.089403115 0.26511887 -0.06616255
0.26711243 0.30449247 -0.0580233 -0.21262003 -0.027104868 -0.03356407 0.23840868 0.3291847
0.21351372 -0.095653296 0.20507589 0.18424687 0.20965259 -0.068236366 -0.08309219 -0.03369659
-0.13585612 -0.025027752 -0.049937434 -0.04932941 -0.014592794 -0.030585432 -0.030591322 -0.11516028
-0.15668921 0.2755375 0.2081734 -0.0470497 -0.11434802 -0.06984268 -0.09911443 -0.3217172
0.011942466 -0.08059268 0.15913711 0.15556854 -0.020742191 -0.05480913 -0.064180695 -0.081276335
-0.061078586 -0.06316539 -0.08725036 -0.07111155 0.19006817 -0.05301807 0.15569226 -0.10801067
00000000: 157b c2bd 0713 e8bc 2b10 913e 29cb f63d
00000010: 30ea 1ebd 6a85 78bd 5322 78bd 63c8 39bd
00000020: b324 64bc 660a 293e 4602 a1bd d3cb 4fbd
00000030: 0cd7 273e fb18 b7bd a9bd 873e 3b80 87bd
00000040: f6c2 883e 70e6 9b3e d7a9 6dbd 11b9 59be
00000050: 070b debc 7a7a 09bd 6821 743e e68a a83e
00000060: 57a3 5a3e e0e5 c3bd 6aff 513e 36ab 3c3e
00000070: 2baf 563e 82bf 8bbd 3d2c aabd 7005 0abd
00000080: de1d 0bbe 0007 cdbc 328b 4cbd a30d 4abd
00000090: 9d16 6fbc 4d8e fabc a79a fabc 27d9 ebbd
000000a0: 2373 20be 4013 8d3e 682b 553e 30b7 40bd
000000b0: 4b2f eabd ae09 8fbd 82fc cabd 1eb8 a4be
000000c0: 55aa 433c c60d a5bd d7f4 223e 5c4d 1f3e
000000d0: 87eb a9bc 8a7f 60bd 2b71 83bd 3574 a6bd
000000e0: 8a2d 7abd db5c 81bd 51b0 b2bd efa2 91bd
000000f0: 3ba1 423e 7a29 59bd cb6d 1f3e b334 ddbd

conv2.weight f4 [32, 64, 10]
-0.01158169 -0.010741988 -0.0060781077 -0.0025967306 0.0089179855 0.026142664 -0.03720093 0.03488116
0.03947548 -0.021642318 0.021257816 0.009744428 -0.027245563 0.0017939998 -0.009672944 0.03231474
-0.016728826 -0.007738221 0.032191515 -0.021736627 0.12991896 0.20395154 0.17399797 0.18400392
0.17546935 0.15086873 0.17779106 0.18346667 0.16757974 0.14047046 -0.015784554 0.005878002
0.03124082 -0.0071095596 0.03466749 -0.009493218 -0.019136896 0.0013796896 0.023351323 -0.05299927
-0.02722794 0.023925228 0.01257566 -0.027637813 0.0057576764 0.0037448579 0.008250763 -0.004114984
0.030569913 -0.031068992 -0.002574951 0.0071850605 -0.017406557 -0.0028703045 -0.038115714 1.4094073e-05
0.0016706778 -0.0068565663 -0.03860331 0.01737533 -0.016148053 0.037443608 0.037454493 0.034135234
0.032006133 0.030896457 0.00035508018 0.017865026 -0.011631564 -0.00066315185 -0.02812966 -0.004899064
0.0027325067 -0.0063086455 -0.036485087 0.0074072294 -0.004175055 -0.016190767 -0.016137369 -0.016351476
0.023736177 0.009382233 -0.004583948 -0.014517899 0.00034142434 -0.026024483 0.039443217 -0.02825415
0.017599087 -0.034337293 0.05040467 -0.02845187 -0.009181466 -0.024493843 -0.013941905 0.0006415068
0.022408612 -0.008071079 0.03323214 -0.031893633 0.020829177 0.021535253 0.018843707 0.069395944
0.0824802 0.06792429 0.05862672 0.08934183 0.05240003 0.07894334 -0.018803684 0.0066198697
-0.004551033 0.032862544 -0.01638032 0.024305373 -0.0030964834 -0.027038073 -0.01685399 -0.0360282
0.056201175 0.024264518 -0.02199631 -0.015199568 0.048913214 0.05429081 0.04986299 0.048939575
0.01140804 0.0903612 -0.037081722 -0.01318514 0.017341034 0.017956184 -0.00968588 -0.019779233
0.014257161 0.021183278 0.017541528 0.0022802618 0.2586898 0.19604976 0.20898315 0.21246049
0.27071738 0.23696595 0.25182387 0.2630421 0.21582535 0.23569453 0.03296062 0.014757018
0.031866446 0.018739095 -0.028558547 -0.03432813 -0.0061073797 -0.032893427 0.015378265 0.028467814
0.11558976 0.09378417 0.03709471 0.085370585 0.026346626 0.036535233 0.056934185 0.080377355
0.027020171 -0.020342862 0.05936941 0.08472324 0.100173846 0.114932604 0.109488875 0.1166293
0.11225149 0.042194262 0.04097534 0.030140163 -0.02802955 0.01109254 0.033477023 0.0063077975
-0.008468955 -0.014686566 -0.020890992 0.031873375 -0.01235243 0.030932095 0.016985314 -0.044762447
0.007051834 -0.05792353 -0.013246337 -0.021387015 -0.07091644 -0.060009565 -0.0007119382 -0.077889375
-0.018888075 -0.028783966 -0.00014290099 -0.029920412 -0.0134264445 0.030002395 0.03855774 0.032551542
-0.0100426935 -0.035305355 0.020107662 -0.012051738 -0.028075337 0.009855348 -0.0070146685 0.037032034
0.008713813 0.016285034 0.011091131 0.012996456 -0.0314172 -0.01018181 0.006211344 -0.032287657
0.026322102 -0.0012045641 -0.0016509669 0.007469428 -0.020153517 -0.047009878 0.03265591 0.02860294
-0.011827397 0.005796741 0.0237266 0.010117819 -0.0036002868 0.005617966 0.02651681 -0.07207944
0.047065888 0.012031217 0.02601196 0.0021933734 0.010105087 -0.0094532 -0.016844459 -0.009759656
-0.028948171 -0.093777925 -0.004064903 0.025411714 0.015708977 0.038647372 -0.0050824895 0.006022335
00000000: 21c1 3dbc 2aff 2fbc dd2a c7bb e92d 2abb
00000010: be1c 123c 2429 d63c 0160 18bd 8cdf 0e3d
00000020: 0ab1 213d 3b4b b1bc df24 ae3c 18a7 1f3c
00000030: 1632 dfbc a524 eb3a 457b 1ebc 765c 043d
00000040: e40a 89bc e790 fdbb 40db 033d 0311 b2bc
00000050: 7a09 053e acd8 503e 862c 323e 866b 3c3e
00000060: 3dae 333e 557d 1a3e dc0e 363e b0de 3b3e
00000070: 069a 2b3e 7dd7 0f3e 9c4e 81bc 419c c03b
00000080: c0ec ff3c 4ff7 e8bb 7fff 0d3d 7189 1bbc
00000090: fbc4 9cbc b3d6 b43a 464b bf3c c315 59bd
000000a0: 210d dfbc d7fe c33c 240a 4e3c b268 e2bc
000000b0: e4aa bc3b 4a6c 753b 352e 073c fdd6 86bb
000000c0: c16d fa3c 6684 febc 82c0 28bb a870 eb3b
000000d0: 3298 8ebc b81b 3cbb 391f 1cbd 9575 6c37
000000e0: a5fa da3a 0cad e0bb 811e 1ebd b556 8e3c
000000f0: ec48 84bc 785e 193d e269 193d 63d1 0b3d
00000100: dd18 033d 911a fd3c 0e2a ba39 ad59 923c
00000110: 5192 3ebc 5ed7 2dba 2c70 e6bc 5488 a0bb
00000120: db13 333b c1b8 cebb 6371 15bd 58b8 f23b
00000130: e6ce 88bb 80a2 84bc 8432 84bc 88f3 85bc
00000140: 5f72 c23c f0b7 193c f134 96bb 7bdc 6dbc
00000150: 3301 b339 4c31 d5bc 368f 213d 3f75 e7bc
00000160: f62b 903c 43a5 0cbd 2175 4e3d e513 e9bc
00000170: dc6d 16bc 50a7 c8bc 976c 64bc cb2a 283a
00000180: 4492 b73c 8f3c 04bc 6d1e 083d e6a2 02bd
00000190: f3a1 aa3c b36a b03c 1e5e 9a3c 761f 8e3d
000001a0: 61eb a83d e41b 8b3d 9222 703d d9f8 b63d
000001b0: 6aa1 563d 0cad a13d 2f0a 9abc 7eeb d83b
000001c0: d520 95bb e09a 063d 0530 86bc 101c c73c
000001d0: 5fee 4abb f37e ddbc 6111 8abc 4e92 13bd
000001e0: 3433 663d 62c6 c63c 9b31 b4bc 9c07 79bc
000001f0: 3959 483d 0a60 5e3d 223d 4c3d dd74 483d
00000200: cae8 3a3c 4b0f b93d 01e3 17bd 7c06 58bc
00000210: c90e 8e3c d918 933c 86b1 1ebc 0f08 a2bc
00000220: de96 693c 8e88 ad3c 40b3 8f3c 7270 153b
00000230: fd72 843e 45c1 483e aeff 553e 3e8f 593e
00000240: 789b 8a3e 34a7 723e 0fef 803e 74ad 863e
00000250: 5201 5d3e e859 713e b701 073d 6bc7 713c
00000260: 6486 023d bb82 993c 9df3 e9bc a79b 0cbd
00000270: 6a20 c8bb 42bb 06bd 1ef5 7b3c 5535 e93c
00000280: 53ba ec3d ea11 c03d 9ff0 173d c6d6 ae3d
00000290: e1d4 d73c f8a5 153d d233 693d e29c a43d
000002a0: 6859 dd3c 13a6 a6bc 572d 733d 6183 ad3d
000002b0: f227 cd3d c961 eb3d b43b e03d 58db ee3d
000002c0: 1ce4 e53d e4d3 2c3d c2d5 273d 81e8 f63c
000002d0: 3a9e e5bc 7cbd 353c 341f 093d a4b1 ce3b
000002e0: 5fc1 0abc ec9f 70bc 9623 abbc a88d 023d
000002f0: d961 4abc 4e65 fd3c c924 8b3c d458 37bd
00000300: 1213 e73b 3941 6dbd 2a07 59bc d233 afbc
00000310: a33c 91bd 97cc 75bd 5da1 3aba 7784 9fbd
00000320: 2abb 9abc 5acc ebbc b1d7 15b9 a71b f5bc
00000330: 97fa 5bbc 95c7 f53c b9ee 1d3d c454 053d
00000340: 1c8a 24bc 599c 10bd d3b8 a43c a774 45bc
00000350: 40fe e5bc 5378 213c 4edb e5bb e7ae 173d
00000360: 61c4 0e3c 3168 853c 93b7 353c 16ef 543c
00000370: 52af 00bd 9bd1 26bc 8888 cb3b 1040 04bd
00000380: 73a1 d73c 77e2 9dba 4265 d8ba 1ac2 f43b
00000390: fd18 a5bc 6e8d 40bd 34c2 053d b650 ea3c
000003a0: b3c7 41bc 97f2 bd3b 495e c23c 35c5 253c
000003b0: caf2 6bbb ea16 b83b c839 d93c 639e 93bd
000003c0: 29c8 403d 951e 453c 0917 d53c b3be 0f3b
000003d0: cf8f 253c 98e1 1abc 64fd 89bc f7e6 1fbc
000003e0: b724 edbc a40e c0bd e132 85bb 3a2c d03c
000003f0: 1db0 803c b54c 1e3d 038b a6bb 0257 c53b

conv2.bias f4 [32]
-0.04135496 0.09682162 -0.04971894 -0.30552506 -0.39185885 -0.060287006 -0.0717577 -0.1077498
-0.10440907 -0.07021814 -0.028942196 -0.1433909 0.08904834 -0.024830036 -0.065133765 0.13263999
-0.055263367 -0.13000326 -0.08118467 -0.029142365 0.04102638 -0.080678396 -0.036464643 -0.08828488
-0.20201738 0.12959518 -0.12059335 -0.009188095 0.005700911 -0.07426798 -0.13678032 0.03411771
00000000: d263 29bd 6a4a c63d 16a6 4bbd c86d 9cbe
00000010: b9a1 c8be 82ef 76bd b3f5 92bd edab dcbd
00000020: 6cd4 d5bd 87ce 8fbd 2f18 edbc 10d5 12be
00000030: fa5e b63d 5c68 cbbc da64 85bd c7d2 073e
00000040: d75b 62bd 931f 05be 2644 a6bd f8bb eebc
00000050: 470b 283d b73a a5bd f35b 15bd b4ce b4bd
00000060: a5dd 4ebe 99b4 043e a5f9 f6bd aa89 16bc
00000070: b5ce ba3b d019 98bd 2410 0cbe 03bf 0b3d

batch1.weight f4 [32]
0.9959229 0.5684957 0.78539574 0.7089108 1.1232929 1.0051622 1.0955254 1.0147191
0.7633377 1.044022 1.0551834 1.1999623 0.96597093 1.0083673 0.69147503 0.93694717
0.8931155 0.88176 0.9387119 0.7247138 0.9604286 1.1127312 1.3454616 1.0112565
1.0889093 1.1010939 0.921419 0.828316 1.097836 1.0503016 0.8179233 0.92517155
00000000: cef4 7e3f ef88 113f b20f 493f 2e7b 353f
00000010: 10c8 8f3f 28a9 803f 2d3a 8c3f 51e2 813f
00000020: 196a 433f 83a2 853f 4010 873f 5d98 993f
00000030: df49 773f 2e12 813f 8204 313f c5db 6f3f
00000040: 38a3 643f 06bb 613f 6c4f 703f d886 393f
00000050: a6de 753f fa6d 8e3f 1638 ac3f da70 813f
00000060: 6161 8b3f a5f0 8c3f 1ee2 6b3f 840c 543f
00000070: e485 8c3f 4870 863f 6c63 513f 0bd8 6c3f

batch1.bias f4 [32]
-0.19092631 -0.34593534 -0.39347556 -0.34658784 -0.2525216 -0.1623503 -0.20358104 -0.13370627
-0.31242132 -0.3275357 -0.17899467 -0.27811813 0.009544523 -0.1809971 -0.40513128 -0.25031105
-0.31878027 -0.36128318 -0.09364599 -0.18556954 -0.09918919 -0.11013724 -0.010574948 -0.45945352
-0.30194566 -0.19863896 -0.33328918 -0.0879102 -0.15035547 -0.09123025 -0.20542218 -0.19889726
00000000: 3082 43be 701e b1be a175 c9be f673 b1be
00000010: 834a 81be 283f 26be 8c77 50be 4cea 08be
00000020: b0f5 9fbe c2b2 a7be 614a 37be 8065 8ebe
00000030: a260 1c3c 4e57 39be 5e6d cfbe c528 80be
00000040: 2b37 a3be 1cfa b8be 78c9 bfbd f105 3ebe
00000050: b423 cbbd a28f e1bd 8c42 2dbc 7e3d ebbe
00000060: 9f98 9abe 0368 4bbe e1a4 aabe 430a b4bd
00000070: c9f6 19be edd6 babd 315a 52be b9ab 4bbe

batch1.running_mean f4 [32]
2.5627139 3.2507117 2.7586071 1.9337289 1.6603739 1.8643811 1.2511061 2.1463892
2.7352288 1.5495963 1.9233247 1.7575 1.1282212 2.0838423 0.53378785 3.6611984
-3.6280327 2.8390312 0.020750921 0.7912159 -1.8348438 3.8348072 0.25706 1.8110375
1.9026319 1.5125924 2.3860078 -0.97556967 2.5914366 2.2365882 2.335746 3.0151486
00000000: 8103 2440 a90b 5040 058d 3040 6e84 f73f
00000010: 2287 d43f 0aa4 ee3f 3f24 a03f 715e 0940
00000020: fd0d 2f40 2c59 c63f 812f f63f c3f5 e03f
00000030: 8d69 903f ac5d 0540 52a6 083f 1351 6a40
00000040: b031 68c0 b0b2 3540 d6fd a93c 208d 4a3f
00000050: 29dc eabf 7b6d 7540 5e9d 833e 14d0 e73f
00000060: 7189 f33f a19c c13f 5ab4 1840 efbe 79bf
00000070: 19da 2540 4324 0f40 dd7c 1540 32f8 4040

batch1.running_var f4 [32]
3.0691483 3.1585178 3.843734 2.2031205 1.8979082 6.231659 2.0374124 2.509857
6.1180043 4.561599 3.7654788 3.250426 4.8863444 2.7333057 3.0099583 5.6448627
3.034599 5.3918576 1.0797268 2.627856 1.2998205 3.6409297 14.621102 1.8905332
1.6429126 2.787182 2.4384415 1.3820279 8.259908 3.7737052 1.3445429 5.024624
00000000: ed6c 4440 2825 4a40 bdff 7540 edff 0c40
00000010: a8ee f23f c069 c740 f764 0240 7fa1 2040
00000020: b1c6 c340 9ef8 9140 9bfd 7040 fb06 5040
00000030: ef5c 9c40 7bee 2e40 28a3 4040 b7a2 b440
00000040: df36 4240 198a ac40 7d34 8a3f cb2e 2840
00000050: 8560 a63f fe04 6940 09f0 6941 fefc f13f
00000060: f64a d23f 3161 3240 6d0f 1c40 4ae6 b03f
00000070: 9528 0441 6384 7140 fb19 ac3f b8c9 a040

conv3.weight f4 [32, 32, 5]
-0.006997519 0.0023575777 -0.081739746 -0.022852289 -0.047745597 -0.10223748 -0.041970268 -0.049701698
-0.020685988 -0.03037813 0.078272484 0.06513267 -0.06242304 0.032829687 0.05878386 0.0013261284
-0.04527929 -0.0784221 -0.09109447 0.01709641 -0.11194038 -0.13145472 -0.07959943 -0.17265375
-0.15297794 -0.15303218 -0.124999896 -0.15891843 -0.13370849 -0.06972495 -0.08205956 -0.17155914
-0.1575878 -0.17263675 -0.15462276 -0.04643839 -0.08116863 -0.076562636 -0.13842466 -0.15402234
-0.0776135 -0.093588196 -0.06925255 -0.19176833 -0.06406505 -0.04651172 0.06490649 -0.039788276
-0.035079874 0.068296134 -0.080249615 -0.11521575 -0.05158331 -0.09885001 -0.13172148 -0.24214973
-0.22628075 -0.107767016 -0.22250862 -0.18830107 -0.043889884 -0.0069535864 0.093921944 0.03152621
0.06536825 -0.30823186 -0.39165175 -0.39576727 -0.4103996 -0.34190884 -0.0009646999 0.082531705
0.04469035 0.057982683 -0.0065883985 -0.15436809 -0.051681504 -0.14395076 -0.11116673 -0.18234242
-0.3263512 -0.33787778 -0.3053169 -0.296903 -0.3098196 -0.09343243 -0.1508651 -0.07584981
-0.17801437 -0.16752279 -0.03560299 0.025890497 -0.09816565 -0.041287795 -0.02961093 -0.07946368
-0.092299916 -0.15318418 -0.17689133 -0.13944112 -0.36354053 -0.31669706 -0.29356655 -0.25831822
-0.19110797 -0.1576157 -0.12811416 -0.12996152 -0.17841631 -0.20831366 -0.26053533 -0.2939331
-0.25519174 -0.2692683 -0.31140384 0.08277623 0.04739884 0.009715577 0.00955601 0.08522479
-0.22459136 -0.19456513 -0.1787562 -0.16838391 -0.20276928 -0.3753995 -0.26090193 -0.37866557
-0.338844 -0.27458596 -0.09333118 -0.007818081 0.0486898 -0.03625448 -0.06297867 -0.008875003
0.06041896 0.08454319 0.017134082 -0.023073561 0.015416994 -0.09434592 -0.05919095 -0.024046859
-0.12942089 -0.2603034 -0.40259385 -0.4207397 -0.2773817 -0.29365867 -0.17339778 -0.10978535
-0.1772072 -0.18832386 -0.22589211 -0.021535318 0.027827261 -0.0031161446 0.021635853 0.00018158554
0.06693884 0.013766746 -0.030476315 -0.07063363 0.005439294 0.06633248 0.091149345 0.18484458
0.13862135 0.09118242 0.15693109 0.16368113 0.12787697 0.14024693 0.14569966 0.09924023
0.1184624 0.2096825 0.1182496 0.1035047 0.198723 0.29522324 0.24431951 0.24929819
0.18424623 0.18492192 0.22689368 0.16158648 0.13441555 0.22996019 0.23963103 0.21596208
0.18299238 0.17383887 0.28400272 0.053842694 0.04937447 0.096400425 0.0312774 0.06737875
0.15617163 0.16824348 0.05442294 0.13260193 0.11213033 0.2087026 0.20474616 0.2858996
0.21448743 0.24116284 -0.0059230635 0.0421671 0.008248192 0.14264521 0.059008766 0.15880062
0.133191 0.19636038 0.20555395 0.08843022 0.03977256 0.09366731 0.033649698 -0.020288484
0.0059242216 -0.00023364335 -0.009467958 0.0433978 0.04846065 0.013207008 0.04847746 -0.021755405
-0.0639573 -0.039732173 0.027542992 0.29066715 0.1479611 0.20088199 0.15406258 0.16554824
-0.1202767 -0.09091844 -0.12852524 -0.0042158 -0.14971085 0.21741381 0.2542791 0.17636879
0.18161131 0.09640266 0.054808155 0.07692313 -0.020103786 0.015115345 0.020534026 0.07426941
00000000: 724b e5bb 9781 1a3b 2b67 a7bd b934 bbbc
00000010: e390 43bd e261 d1bd 04e9 2bbd 0294 4bbd
00000020: a975 a9bc 8edb f8bc 534d a03d 4764 853d
00000030: 4daf 7fbd 6c78 063d 58c7 703d 7cd1 ad3a
00000040: c776 39bd c49b a0bd bd8f babd c50d 8c3c
00000050: ff40 e5bd 119c 06be 0705 a3bd 25cc 30be
00000060: 40a6 1cbe 78b4 1cbe f2ff ffbd 83bb 22be
00000070: e1ea 08be f4cb 8ebd d80e a8bd 33ad 2fbe
00000080: b25e 21be b0c7 30be 6e55 1ebe 2e36 3ebd
00000090: bd3b a6bd dfcc 9cbd 32bf 0dbe 08b8 1dbe
000000a0: d4f3 9ebd 2bab bfbd 48d4 8dbd eb5e 44be
000000b0: 8934 83bd 1383 3ebd b2ed 843d 08f9 22bd
000000c0: eaaf 0fbd d8de 8b3d e959 a4bd 3cf6 ebbd
000000d0: 0549 53bd e071 cabd ffe1 06be 19f6 77be
000000e0: 24b6 67be f4b4 dcbd 4dd9 63be ffd1 40be
000000f0: e1c5 33bd e9da e3bb 265a c03d a121 013d
00000100: cadf 853d 91d0 9dbe 9486 c8be 02a2 cabe
00000110: e51f d2be ad0e afbe eae3 7cba 6206 a93d
00000120: 3a0d 373d 407f 6d3d 7ee3 d7bb ab12 1ebe
00000130: fcaf 53bd d467 13be 62ab e3bd f9b7 3abe
00000140: 8117 a7be 51fe acbe 7f52 9cbe ac03 98be
00000150: ada0 9ebe 8059 bfbd 617c 1abe 2557 9bbd
00000160: 6649 36be 188b 2bbe 71d4 11bd 4f18 d43c
00000170: 130b c9bd 641d 29bd 9f92 f2bc dbbd a2bd
00000180: bd07 bdbd 50dc 1cbe 0023 35be a7c9 0ebe
00000190: fc21 babe 1e26 a2be 5b4e 96be 4942 84be
000001a0: cfb1 43be 0366 21be 5c30 03be a214 05be
000001b0: c4b2 36be 2d50 55be e364 85be 667e 96be
000001c0: 7ea8 82be 89dd 89be 5370 9fbe 9686 a93d
000001d0: 4925 423d 152e 1f3c d090 1c3c 568a ae3d
000001e0: 47fb 65be 153c 47be de0b 37be d56c 2cbe
000001f0: c0a2 4fbe 5d34 c0be f094 85be 74e0 c1be
00000200: f67c adbe 8896 8cbe 6b24 bfbd 6917 00bc
00000210: f56e 473d 947f 14bd f6fa 80bd 7668 11bc
00000220: df79 773d fb24 ad3d c65c 8c3c c404 bdbc
00000230: 8f97 7c3c 6f38 c1bd 3672 72bd ebfd c4bc
00000240: e986 04be 7d46 85be c820 cebe 326b d7be
00000250: f904 8ebe 6e5a 96be 308f 31be 24d7 e0bd
00000260: ce75 35be f8d7 40be 4350 67be d66a b0bc
00000270: fff5 e33c 3b38 4cbb ac3d b13c ff67 3e39
00000280: 3b17 893d eb8d 613c 77a9 f9bc 5da8 90bd
00000290: 1b3c b23b 53d9 873d 82ac ba3d e647 3d3e
000002a0: c1f2 0d3e d9bd ba3d 8bb2 203e 079c 273e
000002b0: 2ef2 023e e49c 0f3e 4b32 153e 763e cb3d
000002c0: 6a9c f23d 02b7 563e d92c f23d 46fa d33d
000002d0: 0b7e 4b3e 8027 973e e52e 7a3e 0648 7f3e
000002e0: 0bab 3c3e 2c5c 3d3e d156 683e ed76 253e
000002f0: 3ba4 093e af7a 6b3e d661 753e 2a25 5d3e
00000300: 5b62 3b3e d102 323e ce68 913e 288a 5c3d
00000310: e23c 4a3d 966d c53d bb1c 003d dffd 893d
00000320: 75eb 1f3e 0548 2c3e 97ea 5e3d cdc8 073e
00000330: 96a4 e53d 22b6 553e faa8 513e 6f61 923e
00000340: 98a2 5b3e 64f3 763e 4216 c2bb 69b7 2c3d
00000350: 6d23 073c 9611 123e 2db3 713d a19c 223e
00000360: 3963 083e b212 493e bc7c 523e e71a b53d
00000370: 8de8 223d a6d4 bf3d 44d4 093d 0934 a6bc
00000380: f91f c23b 29fe 74b9 7e1f 1bbc e4c1 313d
00000390: ad7e 463d 3562 583c 4d90 463d 6438 b2bc
000003a0: 0bfc 82bd 34be 22bd d7a1 e13c 53d2 943e
000003b0: 1d83 173e 02b4 4d3e 95c2 1d3e 7a85 293e
000003c0: a153 f6bd 7233 babd 1f9c 03be b224 8abb
000003d0: cd4d 19be baa1 5e3e df30 823e 059a 343e
000003e0: 51f8 393e c26e c53d 847e 603d e089 9d3d
000003f0: b2b0 a4bc 5aa6 773c f936 a83c 8f1a 983d

conv3.bias f4 [32]
0.08215766 -0.06142429 0.08384402 -0.09196579 0.011326796 -0.07952205 -0.02699353 -0.04409629
-0.009456473 0.019702137 -0.0022962461 -0.074717656 -0.07101439 -0.05356385 -0.08919891 0.07928258
0.039042994 0.029403241 -0.050792135 0.027293492 0.07195493 -0.043102182 0.03005126 0.052581463
0.069071196 -0.108730264 -0.07214489 0.038494352 0.008265213 0.008169831 0.014650043 0.063049115
00000000: 4642 a83d 0998 7bbd 6ab6 ab3d 8f58 bcbd
00000010: 0794 393c 75dc a2bd 8921 ddbc 509e 34bd
00000020: 53ef 1abc 6066 a13c 9e7c 16bb 9205 99bd
00000030: fe6f 91bd c465 5bbd ebad b6bd e85e a23d
00000040: 8ceb 1f3d 11df f03c 6a0b 50bd 9a96 df3c
00000050: 1b5d 933d ea8b 30bd 0f2e f63c a95f 573d
00000060: 3375 8d3d f9ad debd b3c0 93bd 41ac 1d3d
00000070: d16a 073c c1da 053c bc06 703c e51f 813d

batch2.weight f4 [32]
1.0043609 0.8864446 0.94809467 0.98090744 0.87034523 0.961691 0.98441815 1.0393987
1.1081097 0.9647918 0.7127565 1.0038825 0.9766472 0.9438011 0.9012317 0.9536391
0.9888257 0.9701299 1.0115619 0.9139281 0.8542846 1.2438898 0.98254293 0.909752
1.0866599 0.9964695 0.9007872 0.98082274 0.96252257 0.9514665 0.6680784 0.9679959
00000000: e68e 803f 09ee 623f 55b6 723f c01c 7b3f
00000010: f2ce 5e3f 6231 763f d402 7c3f 040b 853f
00000020: 8ad6 8d3f 98fc 763f 3677 363f 397f 803f
00000030: 8d05 7a3f f39c 713f 1fb7 663f b121 743f
00000040: ae23 7d3f 6f5a 783f dc7a 813f 31f7 693f
00000050: 65b2 5a3f c837 9f3f ef87 7b3f 82e5 683f
00000060: ac17 8b3f a018 7f3f fd99 663f 3317 7b3f
00000070: e167 763f 4f93 733f 3007 2b3f 94ce 773f

batch2.bias f4 [32]
0.01696397 -0.30524787 -0.023828888 -0.006004993 -0.46374595 -0.02494716 0.0020836343 -0.09691667
-0.4101746 -0.028210195 -0.5670965 -0.15420893 -0.16090094 -0.010922526 -0.42782128 -0.03977935
-0.40168315 0.004356289 -0.24704842 -0.033613198 -0.121193826 -0.25533214 -0.17770411 -0.3317065
-0.12592387 -0.12883385 -0.07700332 -0.008440166 0.0066049807 -0.24709713 -0.5138783 -0.0068690823
00000000: 06f8 8a3c 7349 9cbe cd34 c3bc 88c5 c4bb
00000010: 1c70 edbe fd5d ccbc 958d 083b 3f7c c6bd
00000020: 6802 d2be 1119 e7bc 3c2d 11bf f2e8 1dbe
00000030: 37c3 24be 65f4 32bc 640b dbbe acef 22bd
00000040: 6aa9 cdbe 33bf 8e3b 43fa 7cbe fead 09bd
00000050: 7834 f8bd e5ba 82be 11f8 35be 6fd5 a9be
00000060: 30f2 00be 05ed 03be ebb3 9dbd 9f48 0abc
00000070: 986e d83b 0807 7dbe 878d 03bf 0a16 e1bb

batch2.running_mean f4 [32]
-6.256208 4.9540668 -5.381586 -6.359282 0.9637515 -6.3876 -5.754906 5.2195616
0.27146792 -6.1164784 -3.9062283 5.3740153 4.502579 -5.3660784 1.7519994 -5.82711
1.0804428 -6.3543715 5.5438724 -5.5825987 -5.7623177 1.4644433 5.144061 4.91996
4.1330466 4.3632874 -5.3669825 -5.5696445 -5.5439005 5.2530856 -4.50975 -5.918279
00000000: db32 c8c0 b787 9e40 f435 acc0 3d7f cbc0
00000010: 6bb8 763f 3867 ccc0 3128 b8c0 a606 a740
00000020: d8fd 8a3e 31ba c3c0 a5ff 79c0 eff7 ab40
00000030: 2115 9040 eab6 abc0 8441 e03f af77 bac0
00000040: f34b 8a3f 0357 cbc0 6767 b140 a6a4 b2c0
00000050: e864 b8c0 e172 bb3f 269c a440 5070 9d40
00000060: eb41 8440 0da0 8b40 52be abc0 873a b2c0
00000070: a267 b1c0 4719 a840 df4f 90c0 8b62 bdc0

batch2.running_var f4 [32]
74.641914 76.85054 49.32955 70.60906 61.394688 64.23398 55.24206 90.548256
92.683754 62.53005 41.425243 98.86538 80.87408 60.592274 49.10028 60.94658
62.618248 74.29889 96.20831 49.837902 58.453537 58.58882 86.203514 52.360844
75.08686 66.58704 59.84935 48.033302 47.490723 69.79778 47.87684 74.436005
00000000: a948 9542 7ab3 9942 7651 4542 d737 8d42
00000010: 2994 7542 cc77 8042 dff7 5c42 b518 b542
00000020: 155e b942 c51e 7a42 73b3 2542 13bb c542
00000030: 87bf a142 7d5e 7242 b066 4442 4cc9 7342
00000040: 1679 7a42 0899 9442 a86a c042 035a 4742
00000050: 6cd0 6942 f45a 6a42 3368 ac42 8171 5142
00000060: 792c 9642 912c 8542 bc65 6f42 1a22 4042
00000070: 80f6 3d42 7798 8b42 e281 3f42 3cdf 9442

fc1.weight f4 [50, 3136]
0.17632565 0.12557071 0.17889628 0.1977383 0.17141548 0.18206327 0.15676251 0.17782241
0.17204951 0.17336042 0.18152583 0.17207144 0.2000612 0.16971031 0.18666528 0.15559822
0.14279005 0.15716824 0.151253 0.16851902 0.16188103 0.14409477 0.1733103 0.18499263
0.169678 0.18947686 0.17693281 0.18170558 0.18086575 0.19397503 0.17466287 0.1670066
0.19065134 0.15950783 0.1736647 0.18450929 0.17903483 0.1535052 0.15732516 0.17718963
0.17075954 0.16369796 0.1734815 0.16820043 0.1514962 0.16844366 0.19348978 0.22111966
0.20540273 0.21958256 0.2061418 0.18432654 0.19607268 0.17759117 0.16471277 0.16190404
0.16356465 0.18178408 0.17889106 0.1946134 0.20864637 0.2157802 0.20992582 0.22154702
0.21735469 0.23349288 0.23642534 0.20881604 0.19455948 0.18196626 0.2003108 0.20600319
0.1897656 0.20420702 0.1998961 0.20525023 0.20624332 0.20341751 0.21067068 0.2273334
0.1991673 0.21365915 0.19875343 0.18398272 0.1856438 0.19137983 0.20323351 0.16990802
0.18227583 0.19056422 0.2044652 0.196899 0.21422192 0.21005267 0.21669164 0.21244554
0.16881345 0.20255771 -0.27943566 -0.24275993 -0.15556651 -0.12612632 -0.09720917 -0.071271
-0.054766417 -0.032317262 0.00469595 0.025969217 0.022856195 0.010221148 0.024611766 0.012276981
0.03123715 0.018146949 0.0061257114 0.0096673025 0.009430809 0.013722719 -0.0012449076 0.004647328
0.012198612 0.021176351 0.027096098 0.028852727 0.027137712 0.010026038 0.0017139828 -0.0071994932
-0.02584995 -0.06939808 -0.052441355 -0.058394507 -0.06259162 -0.054813467 -0.082884304 -0.08365781
-0.061752386 -0.08874322 -0.09704694 -0.07973813 -0.07811093 -0.09109215 -0.07809152 -0.10058221
-0.089458406 -0.09778841 -0.10020423 -0.09780718 -0.079680905 -0.089379214 -0.090306014 -0.065033376
-0.08066761 -0.10717197 -0.089391954 -0.118384205 -0.087661326 -0.11277653 -0.1143697 -0.08401215
-0.09188341 -0.09265267 -0.10034895 -0.11454661 -0.11700746 -0.098456405 -0.119983494 -0.10080573
-0.09923366 -0.09446361 -0.08232512 -0.086582765 -0.08241518 -0.084946126 -0.079072095 -0.07195243
-0.08348867 -0.055640955 -0.072617374 -0.077423625 -0.049114496 -0.045849524 -0.057695523 -0.07644204
-0.054047596 -0.042405155 -0.045225773 -0.07416195 -0.082002625 -0.09645679 -0.11489986 -0.114640675
-0.14964043 -0.15855809 -0.107418165 -0.2225427 0.13653715 0.13245627 0.18377635 0.16783246
0.18890029 0.1848881 0.17791636 0.1606449 0.15807308 0.17225541 0.16995035 0.16972823
0.17306691 0.16156799 0.15389663 0.12432795 0.12907085 0.10983174 0.121190645 0.14806217
0.14002714 0.15033726 0.15536134 0.15471606 0.15852933 0.160778 0.1716057 0.1637155
0.16087988 0.17248993 0.14126629 0.13034427 0.13597625 0.13210881 0.14179042 0.14863084
0.13364927 0.15217364 0.14576368 0.17920561 0.16062702 0.19021787 0.17445454 0.16917491
0.17404772 0.18438865 0.19912405 0.19656314 0.19840091 0.18360896 0.18626867 0.18137251
0.17487842 0.1791111 0.15827508 0.15670952 0.17083508 0.18646938 0.16441382 0.19869661
00000000: b68e 343e 9c95 003e 9630 373e e97b 4a3e
00000010: 8a87 2f3e cb6e 3a3e 5a86 203e 1417 363e
00000020: bf2d 303e 6585 313e e8e1 393e 7f33 303e
00000030: d8dc 4c3e 8ac8 2d3e 2f25 3f3e 2455 1f3e
00000040: 8e37 123e b6f0 203e 11e2 1a3e 4090 2c3e
00000050: 24c4 253e 948d 133e 4178 313e b56e 3d3e
00000060: 12c0 2d3e 3906 423e e02d 353e 0711 3a3e
00000070: df34 393e 64a1 463e d3da 323e c703 2b3e
00000080: 1b3a 433e 0556 233e 29d5 313e 01f0 3c3e
00000090: e854 373e 7830 1d3e d919 213e 3371 353e
000000a0: 97db 2e3e 70a0 273e 22a5 313e bc3c 2c3e
000000b0: d221 1b3e 7f7c 2c3e 2f22 463e 316d 623e
000000c0: 1855 523e 40da 603e d616 533e 19c0 3c3e
000000d0: 47c7 483e 76da 353e 77aa 283e 2cca 253e
000000e0: 7e7d 273e 9b25 3a3e 382f 373e bc48 473e
000000f0: 65a7 553e 7cf5 5c3e cbf6 563e 39dd 623e
00000100: 3a92 5e3e c218 6f3e 7c19 723e dfd3 553e
00000110: 9a3a 473e 5d55 3a3e 461e 4d3e 80f2 523e
00000120: ea51 423e a51b 513e 90b1 4c3e 1e2d 523e
00000130: 7331 533e ae4c 503e 0eba 573e 16ca 683e
00000140: 83f2 4b3e 77c9 5a3e 0586 4b3e f765 3c3e
00000150: 6919 3e3e 13f9 433e 721c 503e 5efc 2d3e
00000160: 84a6 3a3e 4423 433e 535f 513e e49f 493e
00000170: fe5c 5b3e 0c18 573e 6ae4 5d3e 538b 593e
00000180: 6fdd 2c3e 4a6b 4f3e 3112 8fbe 0f96 78be
00000190: d44c 1fbe 4227 01be 9a15 c7bd 88f6 91bd
000001a0: c052 60bd 1b5f 04bd 7ce0 993b 65bd d43c
000001b0: ea3c bb3c 9a76 273c 9d9e c93c 6425 493c
000001c0: 0de5 ff3c e9a8 943c 31ba c83b 9b63 1e3c
000001d0: ae83 1a3c 41d5 603c 2b2c a3ba 9d48 983b
000001e0: b0dc 473c 077a ad3c a3f8 dd3c 8e5c ec3c
000001f0: e84f de3c 4044 243c b8a7 e03a bae9 ebbb
00000200: 46c3 d3bc 9520 8ebd bfcc 56bd 142f 6fbd
00000210: 0930 80bd 1684 60bd 3fbf a9bd c954 abbd
00000220: 12f0 7cbd 01bf b5bd 8cc0 c6bd bf4d a3bd
00000230: a0f8 9fbd 858e babd 72ee 9fbd 0cfe cdbd
00000240: f835 b7bd 4a45 c8bd e037 cdbd 214f c8bd
00000250: be2f a3bd 730c b7bd 5cf2 b8bd 3830 85bd
00000260: 0f35 a5bd fa7c dbbd 2113 b7bd 6b73 f2bd
00000270: c887 b3bd 62f7 e6bd a93a eabd 900e acbd
00000280: 5f2d bcbd afc0 bdbd c083 cdbd 6a97 eabd
00000290: 9ba1 efbd 83a3 c9bd e8b9 f5bd 3c73 cebd
000002a0: 043b cbbd 2376 c1bd 139a a8bd 4e52 b1bd
000002b0: 4ac9 a8bd 3cf8 adbd 8df0 a1bd cc5b 93bd
000002c0: 1cfc aabd c5e7 63bd 6bb8 94bd 4790 9ebd
000002d0: 482c 49bd b6cc 3bbd 2452 6cbd a58d 9cbd
000002e0: 0361 5dbd 07b1 2dbd a93e 39bd 38e2 97bd
000002f0: fef0 a7bd 238b c5bd 9e50 ebbd bbc8 eabd
00000300: 573b 19be 0d5d 22be 0efe dbbd 3ce2 63be
00000310: 65d0 0b3e 9ea2 073e de2f 3c3e 46dc 2b3e
00000320: 146f 413e 4e53 3d3e b52f 363e 1980 243e
00000330: e9dd 213e b963 303e 7707 2e3e 3dcd 2d3e
00000340: 7438 313e 1472 253e 1497 1d3e a79f fe3d
00000350: 262b 043e 77ef e03d cd32 f83d 9c9d 173e
00000360: 4663 0f3e 03f2 193e 0b17 1f3e e36d 1e3e
00000370: 8355 223e fda2 243e 68b9 2f3e 09a5 273e
00000380: b2bd 243e 33a1 303e 1ca8 103e f878 053e
00000390: 5c3d 0b3e 8847 073e 8231 113e af32 183e
000003a0: 5bdb 083e 68d3 1b3e 1343 153e ad81 373e
000003b0: 697b 243e 79c8 423e 36a4 323e 303c 2d3e
000003c0: 9139 323e 61d0 3c3e 2de7 4b3e d947 493e
000003d0: 9c29 4b3e fd03 3c3e 37bd 3e3e b7b9 393e
000003e0: 5413 333e e668 373e dd12 223e 7678 203e
000003f0: 64ef 2e3e d4f1 3e3e 195c 283e 2077 4b3e

fc1.bias f4 [50]
-0.113633886 0.061370324 -0.054585993 -0.04893764 -0.04315699 -0.07967855 0.053976696 0.0803255
0.08175001 -0.096606694 -0.1124203 0.07638923 -0.15185466 -0.069284104 -0.08335646 0.08655078
-0.15165423 -0.06842769 0.15968578 0.12757453 0.058224715 0.016792195 0.16914952 -0.036599636
-0.098446235 -0.17528012 -0.1584671 -0.18515868 0.06674946 0.1318947 0.09157662 -0.0924874
-0.17553544 -0.05353161 -0.080183215 0.090762444 0.07643279 0.16846895 -0.027527934 -0.0884302
0.09233148 0.042970236 0.060073648 -0.049253583 -0.059192088 0.00014545447 -0.08708929 -0.072070956
0.13958573 0.082378805
00000000: e2b8 e8bd 735f 7b3d 9095 5fbd d672 48bd
00000010: 62c5 30bd 822e a3bd ab16 5d3d b281 a43d
00000020: 8d6c a73d bbd9 c5bd 9d3c e6bd f571 9c3d
00000030: ca7f 1bbe d3e4 8dbd cbb6 aabd 8941 b13d
00000040: 3f4b 1bbe d123 8cbd ab84 233e e6a2 023e
00000050: 0a7d 6e3d c98f 893c 8835 2d3e 80e9 15bd
00000060: 2e9e c9bd a27c 33be 3345 22be 3d9a 3dbe
00000070: f1b3 883d 670f 073e 868c bb3d 096a bdbd
00000080: 90bf 33be f643 5bbd 1937 a4bd a9e1 b93d
00000090: cb88 9c3d 2083 2c3e 4382 e1bc e51a b5bd
000000a0: 4918 bd3d 8f01 303d c90f 763d 20be 49bd
000000b0: 6773 72bd 2385 1839 df5b b2bd f099 93bd
000000c0: 90ef 0e3e 38b6 a83d
