DOMAIN_ADAPTION/experiments_old_top_10_features_rough_GAMMA/feature=C:y_bottom__GAMMA=2.0/best_model/model_cnn.pt (torch, 762095 bytes, 16 tensors)

conv1.weight f4 [64, 1, 100]
0	0x3775fbb3	1.4661741e-05
1	0xbacf70e0	-0.0015826486
2	0xbb035196	-0.0020037643
3	0xbb8da2a3	-0.0043223663
4	0xbb4c272e	-0.0031151283
5	0xbbc60460	-0.006043002
6	0xbada1067	-0.0016636968
7	0xbbb1333a	-0.005407718
8	0x3b4272b1	0.0029670412
9	0xbad93da8	-0.0016574161
10	0x3c2bccea	0.010485867
11	0x3b3e1b79	0.0029008074
12	0x3c81999c	0.015820317
13	0x3b5ad11a	0.0033388794
14	0x3c788492	0.015168326
15	0xbb0d4fa9	-0.0021562374
16	0x3bdc95c9	0.006731723
17	0xbc5563ba	-0.013024265
18	0xbbe5f482	-0.007017673
19	0xbcc78631	-0.02435598
20	0xbca592eb	-0.020211658
21	0xbcee4de6	-0.02908988
22	0xbcd32bda	-0.025777746
23	0xbcad304b	-0.021141192
24	0xbca21ea8	-0.019790009
25	0xba9a6bef	-0.0011781434
26	0xbbddba2f	-0.0067665796
27	0x3cc18290	0.023621827
28	0x3bd8aa2f	0.0066120843
29	0x3d39a855	0.04532655
30	0x3c61a969	0.013773301
31	0x3d69aad2	0.057047673
32	0x3c2bc1cd	0.010483217
33	0x3d652fdc	0.055953845
34	0xbb1c02f1	-0.0023805464
35	0x3d3359f6	0.043786965
36	0xbcaadb34	-0.020856477
37	0x3cc83d7b	0.024443379
38	0xbd221a97	-0.03957614
39	0x3baf5f0e	0.0053519076
40	0xbd477b69	-0.048701677
41	0xbb3636a5	-0.0027803567
42	0xbd2392eb	-0.039935034
43	0x3b7befe6	0.003844255
44	0xbc84d403	-0.016214376
45	0x3c95fe3c	0.018309705
46	0x3c2a78d2	0.010404782
47	0x3cdef278	0.027215227
48	0x3cd474b4	0.025934555
49	0x3cb33794	0.021877088
50	0x3cd10989	0.025517242
51	0x3b907c43	0.0044093444
52	0x3c7b60e7	0.015342928
53	0xbc77cb26	-0.015124118
54	0x3b98fc51	0.0046687503
55	0xbce483f8	-0.027894959
56	0xba470750	-0.0007592337
57	0xbd005e15	-0.031339724
58	0xba405089	-0.00073362194
59	0xbce06466	-0.027391624
60	0x3b16c98d	0.0023008317
61	0xbc991113	-0.0186849
62	0x3be726f8	0.007054206
63	0xbbe15675	-0.0068767616
64	0x3c4fc4e5	0.012681221
65	0x3b9b018d	0.0047304095
66	0x3c88c54a	0.016695637
67	0x3c5a4a23	0.01332334
68	0x3c8474c2	0.016168956
69	0x3c697fa1	0.0142516205
70	0x3c1c97a7	0.009557641
71	0x3bde628c	0.00678665
72	0xbb3a5433	-0.0028431534
73	0xbbc8485b	-0.006112141
74	0xbc69bcb7	-0.0142661845
75	0xbc89025c	-0.016724758
76	0xbca06f4a	-0.019584317
77	0xbcaca4de	-0.021074709
78	0xbc6b6d82	-0.01436937
79	0xbc7267b6	-0.014795234
80	0x3a07711b	0.00051666953
81	0xbb22e3d1	-0.0024855027
82	0x3c919ab5	0.017773965
83	0x3c105ce1	0.008811207
84	0x3cf846d6	0.030307215
85	0x3c684735	0.014177133
86	0x3d08b738	0.033377856
87	0x3c2a45af	0.01039259
88	0x3cd88358	0.026429817
89	0x3a57248f	0.0008207047
90	0x3c5af969	0.013365128
91	0xbc37b5fa	-0.01121282
92	0x398cb5ed	0.00026838426
93	0xbc9bf380	-0.019037008
94	0xbbffaaf3	-0.007802361
95	0xbca1433f	-0.019685386
96	0xbc184068	-0.009292699
97	0xbc6db57e	-0.014508603
98	0xbbb57870	-0.005538039
99	0xbbc6a49b	-0.006062103
100	0x3aacb18d	0.0013175473
101	0xbb026926	-0.00198991
102	0x3b0caf27	0.0021466704
103	0x3bd42f27	0.0064753476
104	0x3cc74a85	0.024327526
105	0x3d004c7b	0.031322937
106	0x3d2ed73e	0.04268574
107	0x3d10c83f	0.03534722
108	0x3d25f207	0.04051402
109	0x3cd7bac4	0.026334174
110	0x3cb843fe	0.022493359
111	0xbb868078	-0.00410467
112	0xbc0f5bd1	-0.008749918
113	0xbcba2fba	-0.022727836
114	0xbb5edaf6	-0.0034005023
115	0xba5f72ee	-0.0008523901
116	0x3c9d1a8b	0.019177696
117	0x3c0fac60	0.008769125
118	0x3c777e7f	0.015105843
119	0xbbb4ce09	-0.0055177254
120	0xbb90dc45	-0.0044207894
121	0xbd021dd0	-0.031766713
122	0xbcf0ef6c	-0.02941104
123	0xbd3693f3	-0.04457469
124	0xbcb09c4f	-0.021558909
125	0xbcd873dc	-0.026422434
126	0xbbe0eb9f	-0.0068640257
127	0xbce4955e	-0.027903255
128	0xbca20bac	-0.019780956
129	0xbd22577c	-0.039634213
130	0xbcbdd81f	-0.023174344
131	0xbd2f7c76	-0.042843305
132	0xbd0b15e2	-0.033956416
133	0xbd48e2a8	-0.04904428
134	0xbc95c002	-0.018280033
135	0xbc2ba2e4	-0.010475848
136	0x3cca38b3	0.02468524
137	0x3ca89d6c	0.020582877
138	0x3d3083c7	0.043094423
139	0x3cfd8e7d	0.030951733
140	0x3d49d559	0.04927573
141	0x3cd9d5c2	0.026591185
142	0x3d26f255	0.04075845
143	0x3c0a25ec	0.008431893
144	0x3cd404e7	0.025881244
145	0xbc34cb6d	-0.011034829
146	0x3c3aaa54	0.011393148
147	0xbd132bae	-0.035930328
148	0xbb8f9749	-0.0043820483
149	0xbd2c80f0	-0.042115152
150	0x3c5e047f	0.013550877
151	0xbcb3a8d7	-0.021931095
152	0x3cd91382	0.02649856
153	0xbced3fd0	-0.028961092
154	0x3c132c73	0.0089827655
155	0xbd2cd472	-0.04219479
156	0x3b749b58	0.0037324037
157	0xbd14e3ac	-0.036349937
158	0x3bd21a7a	0.0064118477
159	0xbcd736ed	-0.026271308
160	0x3c6daace	0.014506055
161	0xbc234b36	-0.009966662
162	0x3c7e08fc	0.015505072
163	0xbc74190c	-0.01489855
164	0xbb4d6887	-0.003134282
165	0xbd092895	-0.033485968
166	0xbcceb650	-0.025233418
167	0xbd33ee1e	-0.043928258
168	0xbc795551	-0.015218095
169	0xbcbf6197	-0.023361964
170	0x3c79e89a	0.01525321
171	0xba413ac8	-0.0007371125
172	0x3d2995b3	0.04140253
173	0x3b547a27	0.0032421441
174	0x3d2e93d5	0.042621452
175	0xbc4d481b	-0.012529398
176	0x3d368f44	0.044570222
177	0xbc824df0	-0.015906304
178	0x3d4db0c7	0.050217416
179	0xbcdead17	-0.027182145
180	0x3d1190d9	0.035538528
181	0xbd62c7a2	-0.055366166
182	0x3c373cc9	0.011183926
183	0xbd8e1a18	-0.06938571
184	0x3bf9386d	0.0076056034
185	0xbd618448	-0.055057794
186	0x3cd7ea53	0.026356852
187	0xbc8bd01f	-0.017067013
188	0x3d66e70e	0.056372695
189	0x3cb20828	0.021732405
190	0x3d9043aa	0.07044156
191	0x3cf199da	0.029492307
192	0x3d382c22	0.044963963
193	0x3bd397b6	0.0064572943
194	0x3c2e69c9	0.010645338
195	0xbc32920e	-0.01089908
196	0xbba3ebd3	-0.0050024777
197	0xbbd87b9e	-0.006606533
198	0x3b25d05c	0.0025301194
199	0x3b530eba	0.0032204823
200	0x3ba3bf99	0.0049972055
201	0x3c0ff43e	0.008786259
202	0x3c6ac98e	0.014330281
203	0x3bd96cac	0.006635269
204	0x3893a7fc	7.040796e-05
205	0xbca6b4cb	-0.02034988
206	0xbc9d6a44	-0.01921571
207	0xbd05449d	-0.032536138
208	0xbc856814	-0.01628498
209	0xbd02ee0f	-0.03196531
210	0xbc4b9c66	-0.012427425
211	0xbd291368	-0.041278273
212	0xbc5e8507	-0.013581521
213	0xbd25c335	-0.040469367
214	0xb9b9f5d3	-0.00035469103
215	0xbd1e4365	-0.03863849
216	0x3b150ae9	0.0022742099
217	0xbd1bbe2d	-0.038023163
218	0x3c57f888	0.013181813
219	0xbccf70b4	-0.025322296
220	0x3cb248ff	0.021763323
221	0xbcb34876	-0.021885138
222	0x3c8ac8dc	0.01694148
223	0xbcbf9e6b	-0.02339097
224	0x3bc625ec	0.006047001
225	0xbd065c6f	-0.032802995
226	0xbc8e23bf	-0.01735103
227	0xbd2773b7	-0.04088184
228	0xbca4d777	-0.020122273
229	0xbcc4a9c0	-0.024006724
230	0xbc571b51	-0.013129071
231	0xbc75df0d	-0.015006793
232	0xbc743de7	-0.014907337
233	0xbc244ef6	-0.010028591
234	0xbbf84db6	-0.0075776232
235	0x3bc0218b	0.0058633736
236	0x3b6b73b2	0.0035927114
237	0x3bc8b6f5	0.006125326
238	0x3b88902c	0.0041675773
239	0x3c884e64	0.016638942
240	0x3d028518	0.03186521
241	0x3d3177d5	0.04332717
242	0x3d694072	0.056946225
243	0x3d61c7ed	0.055122305
244	0x3d70627b	0.05868767
245	0x3d2fd46d	0.042927194
246	0x3d3fd62b	0.046835106
247	0x3d1a3a84	0.03765346
248	0x3d22f05a	0.03978
249	0x3cc55396	0.024087708
250	0x3c47f779	0.012204998
251	0xbad0a0a0	-0.0015917011
252	0xbc604336	-0.013687899
253	0xbbbba7d2	-0.005726793
254	0xbc342730	-0.010995671
255	0x3c241c88	0.010016568

conv1.bias f4 [64]
0	0xbe0ed818	-0.1394962
1	0xbdf6a74e	-0.120436296
2	0xbdd655cb	-0.104655825
3	0xbdd3946f	-0.10331046
4	0xbdcd9131	-0.10037459
5	0x3e46e3f7	0.19422899
6	0xbe173d28	-0.14769423
7	0xbe1f7231	-0.15570904
8	0xbe638b82	-0.22221187
9	0x3e283283	0.16425519
10	0xbe337c38	-0.17527854
11	0xbdf3cb4d	-0.11904011
12	0xbe1d4865	-0.15359648
13	0xbdcfd593	-0.10148158
14	0xbdbd9857	-0.09257572
15	0xbddf5e08	-0.10906607
16	0xbdf7fb26	-0.1210845
17	0xbe071dfc	-0.13195032
18	0x3d70aa0e	0.058755927
19	0xbdb524c3	-0.08844902
20	0xbde0961b	-0.1096613
21	0xbe11225f	-0.14173268
22	0x3da099a2	0.07841803
23	0xbdf9d5af	-0.1219896
24	0xbe0e28a8	-0.13882697
25	0xbdeb90b4	-0.11502209
26	0xbdccff8e	-0.10009681
27	0xbe048764	-0.12942272
28	0xbd53dca3	-0.051724087
29	0xbde94d73	-0.113917254
30	0x3dddf549	0.108378
31	0xbdb1f98d	-0.08690176
32	0x3e497ded	0.19676943
33	0xbe2d87df	-0.16946362
34	0xbdfb59ad	-0.12272964
35	0xbe0863ae	-0.13319275
36	0xbe043d7e	-0.12914082
37	0xbe054378	-0.13014019
38	0xbe0dee6e	-0.13860485
39	0x3dd24e34	0.10268822
40	0xbdb28489	-0.08716685
41	0xbe0d0ab6	-0.13773617
42	0xbdfc54b4	-0.12320843
43	0xbe049a9f	-0.12949608
44	0x3d99752e	0.074930534
45	0xbddedd99	-0.1088211
46	0xbde33ed0	-0.11095965
47	0xbdd26a39	-0.102741666
48	0x3d7a5de6	0.061124705
49	0x3de04170	0.10949981
50	0x3e03986e	0.12851116
51	0xbe0c783e	-0.13717744
52	0xbe1dde03	-0.15416722
53	0x3de5fbd3	0.11229672
54	0x3d008f01	0.03138638
55	0xbe0edc23	-0.13951163
56	0x3dc35888	0.0953837
57	0xbe3e95ae	-0.18611786
58	0xbe0edc11	-0.13951136
59	0x3da39834	0.07988015
60	0xbddbe98f	-0.10737907
61	0x3da9b420	0.08286309
62	0xbe0096b8	-0.12557495
63	0xbdb3a98d	-0.087725736

conv2.weight f4 [32, 64, 10]
0	0xbce055c2	-0.027384643
1	0xbda6f0b4	-0.08151379
2	0xbdc4a686	-0.09602074
3	0xbcdc306f	-0.026878564
4	0xbd616a79	-0.05503318
5	0xbd38aa39	-0.045084212
6	0xbd57dc34	-0.052700236
7	0xbd9cb737	-0.07652133
8	0xbd4a1357	-0.04933485
9	0xbd31ed24	-0.043439046
10	0xbd06e9b0	-0.032937706
11	0xbc2c7a12	-0.010527151
12	0xbd775155	-0.0603803
13	0xbca2a819	-0.019855546
14	0x3bff7181	0.007795513
15	0xbd196b10	-0.03745562
16	0x3bfa20bf	0.007633298
17	0xbd1ab336	-0.037768565
18	0xbd531a03	-0.05153848
19	0xbcf33005	-0.029685983
20	0xbbd3fae4	-0.0064691175
21	0xbcfc7387	-0.030816806
22	0xbd771d81	-0.06033087
23	0xbc3db44c	-0.011578631
24	0xbcb16c64	-0.02165813
25	0xbd7e5bd6	-0.0620993
26	0xbcf3e09b	-0.029770186
27	0xbcfcb95b	-0.030850103
28	0xbce6a3af	-0.028154222
29	0xbd1a50f0	-0.037674844
30	0xbcd82792	-0.026386056
31	0xbdb4c0f0	-0.088258624
32	0xbd73c286	-0.059511684
33	0xbd4d4916	-0.05011853
34	0xbd990781	-0.074721344
35	0xbd76b31c	-0.060229406
36	0xbdc377f4	-0.095443636
37	0xbd6ad205	-0.057329196
38	0xbd63a688	-0.05557874
39	0xbd82e44e	-0.06391202
40	0xbd722a70	-0.059122503
41	0x3bbc2045	0.0057411515
42	0xbd051283	-0.032488357
43	0x3cc63611	0.024195703
44	0x3d10ccb8	0.035351485
45	0x3d032eec	0.03202717
46	0x3d260992	0.04053647
47	0x3cf2008c	0.029541276
48	0xb8c45286	-9.3613795e-05
49	0x3c9d8cda	0.019232202
50	0x3ceb83bd	0.028749341
51	0x3cca0e63	0.024665063
52	0xb8cf2e48	-9.87915e-05
53	0x3cbcdce5	0.02305455
54	0x3cc04bb0	0.02347359
55	0x3ca36cd7	0.01994936
56	0xbc416761	-0.011804433
57	0x3d134cac	0.035961792
58	0x3b8e0834	0.004334474
59	0xbcb58e3a	-0.022162545
60	0x3c236856	0.009973606
61	0x3be90081	0.007110656
62	0x3d083a4c	0.03325872
63	0x3cbd93a9	0.023141699
64	0xbb660315	-0.0035097052
65	0x3ceb53f4	0.028726555
66	0x3cb1f1c0	0.02172172
67	0xbcc75cae	-0.024336185
68	0x3d4fcb44	0.05073096
69	0xbc3f777d	-0.011686203
70	0xbd2de5f1	-0.042455617
71	0xbdc15090	-0.09439194
72	0xbdb4d583	-0.08829787
73	0xbdca688b	-0.09883221
74	0xbda55da0	-0.08074498
75	0xbdc0b126	-0.094087884
76	0xbda89c08	-0.082328856
77	0xbd8c60bb	-0.068543874
78	0xbd41d4f1	-0.047322217
79	0xbd9e47f5	-0.077285685
80	0x3d397c8c	0.045284793
81	0xbd35579a	-0.044272996
82	0xbc1d1b06	-0.009588962
83	0xbd0b5982	-0.03402091
84	0xbd512f6b	-0.051070612
85	0xbc7392c7	-0.014866537
86	0x3cba31db	0.022728851
87	0x3c834c2d	0.016027534
88	0xbb8f22fe	-0.004368185
89	0x3cad5b9b	0.021161845
90	0x3dd06d27	0.10177069
91	0x3d65e475	0.056126077
92	0x3d012e7b	0.031538468
93	0x3c532d96	0.0128892865
94	0x3d75b8c1	0.05999065
95	0x3d0e6ae4	0.034769908
96	0x3cb49200	0.022042274
97	0x3d5c462b	0.053777855
98	0x3ce3f588	0.02782704
99	0xbd31092a	-0.04322163
100	0xbc85a426	-0.016313624
101	0xbd324c85	-0.043530006
102	0x3b8cf42a	0.0043015676
103	0xbc4e6996	-0.012598416
104	0xbd007f70	-0.031371534
105	0xbcd2ae1d	-0.02571779
106	0x3cae2f7a	0.021262873
107	0x3ca4d116	0.020119231
108	0x3ce87f60	0.02838105
109	0xbc92f77f	-0.017940281
110	0xbd9388b4	-0.072038084
111	0xbcc322b7	-0.023820264
112	0xbdc7141f	-0.09720635
113	0xbd961ec2	-0.07330085
114	0xbd2f256b	-0.042760294
115	0xbd2c9ae5	-0.042139906
116	0xbd8ee7e1	-0.06977821
117	0xbda38d34	-0.07985917
118	0xbd3bee77	-0.045881715
119	0xbd1f8da4	-0.03895344
120	0x3d2269c1	0.039651636
121	0x3c1fb2f3	0.009747255
122	0x3d20eda2	0.039289124
123	0xbd0b05e9	-0.033941183
124	0xbc9cb645	-0.019129882
125	0xbcfd3b2e	-0.030912008
126	0x3d4d0ebc	0.05006288
127	0xbc1e2bcb	-0.009653996
128	0x3ca8d40e	0.020608928
129	0x3d5e4a78	0.054270238
130	0xbd85f4f5	-0.065408625
131	0xbd1f9095	-0.038956244
132	0xbc344b8e	-0.011004342
133	0xbce17880	-0.02752328
134	0xbc35df15	-0.01110055
135	0xbccad743	-0.024760848
136	0xbd8fafcf	-0.07015955
137	0xbd99bc48	-0.07506615
138	0xbd3de5d5	-0.046361763
139	0xbd94af3c	-0.07259986
140	0xbc233ccd	-0.0099632265
141	0xbbb85e37	-0.0056264657
142	0xbbd7f590	-0.0065905526
143	0x3c063492	0.008191245
144	0xbd4931ea	-0.049119867
145	0x38be4e7b	9.074524e-05
146	0xbd88f588	-0.06687456
147	0xbd6ad701	-0.05733395
148	0xbd11877b	-0.035529595
149	0xbc060e0b	-0.008182059
150	0xbdab7fa8	-0.08373958
151	0xbdc1a7a4	-0.09455803
152	0xbdbd8c37	-0.092552595
153	0xbd4a8a00	-0.049448013
154	0xbd12a9f3	-0.035806607
155	0xbcad441d	-0.021150643
156	0xbcea2e97	-0.028586669
157	0xbc98a253	-0.01863209
158	0xbccb02e4	-0.024781652
159	0xbdc11228	-0.09427291
160	0xbd64ea72	-0.055887647
161	0xbb1d4d05	-0.0024002206
162	0xbd15f9fd	-0.03661536
163	0x3ba3e8cf	0.005002118
164	0x3cb7f5a6	0.022456001
165	0xbb8125fd	-0.003941296
166	0xbba9a9f2	-0.0051777298
167	0xbc7b59df	-0.015341251
168	0xbc691b28	-0.014227666
169	0x3d168ae3	0.036753546
170	0xbd90a84e	-0.070633516
171	0xbce0c933	-0.02743969
172	0xbd4153ef	-0.047199186
173	0xbd720b27	-0.059092667
174	0xbcf328ca	-0.029682536
175	0xbd8ce36d	-0.068793155
176	0xbd39c146	-0.045350336
177	0xbd4c2982	-0.049844272
178	0xbdc1afa8	-0.09457332
179	0xbdab9f28	-0.08379966
180	0x3dbf04ac	0.09327063
181	0x3a113fc5	0.00055408134
182	0xbd1d41da	-0.03839288
183	0xbcbb4a07	-0.022862447
184	0x3ce68b48	0.028142586
185	0xbcc408e6	-0.023930024
186	0xbd212758	-0.03934416
187	0x3d2b3af6	0.041804276
188	0x3d524303	0.05133344
189	0xbb2fb40a	-0.0026810193
190	0xbd125d9f	-0.035733815
191	0xbd82a0d6	-0.06378333
192	0xbc540e10	-0.012942806
193	0xbd3554c3	-0.04427029
194	0xbd686b5e	-0.05674302
195	0xbcae8dbe	-0.021307822
196	0xbd19b81f	-0.037529107
197	0x3b2d04be	0.0026400532
198	0xbc84ef4f	-0.016227392
199	0xbc3f88e6	-0.011690354
200	0xbd30db6f	-0.04317802
201	0xbd2b85d5	-0.04187568
202	0xbdbd1c1b	-0.09233876
203	0xbd697ea0	-0.057005525
204	0xbd2957d1	-0.041343514
205	0xbda199fe	-0.078907
206	0xbcb222ec	-0.021745168
207	0xbd4f2f26	-0.050582074
208	0xbd4b49c9	-0.049630914
209	0xbd26c063	-0.040710818
210	0xbd3c94b4	-0.04604025
211	0x3ba50e29	0.0050370884
212	0xbc111701	-0.008855582
213	0xbaad8ec0	-0.0013241395
214	0xbd1f2ac2	-0.038859136
215	0xbd045ee7	-0.03231707
216	0x3a2b2ef8	0.0006530131
217	0xbc695964	-0.014242504
218	0xbd1fbaad	-0.038996387
219	0xbce9349f	-0.028467475
220	0xbb32efae	-0.0027303505
221	0xba6c9ee1	-0.00090263603
222	0x3d28192c	0.04103963
223	0x3a9f61ee	0.0012159923
224	0x3cb179bc	0.021664493
225	0xbb8200ae	-0.003967366
226	0x3ce3360f	0.027735738
227	0xbc91540d	-0.017740274
228	0xbc541dde	-0.012946574
229	0xbcae4973	-0.021275258
230	0xbd65f68c	-0.05614333
231	0xbd916d32	-0.071009055
232	0xbd0dcbe1	-0.034618262
233	0xbb908aa5	-0.004411059
234	0xbc107fc6	-0.008819526
235	0x3c141f77	0.009040705
236	0xbcf82eb6	-0.030295711
237	0xbcc34ff9	-0.023841845
238	0xbc90da57	-0.017682238
239	0x3a9cdc69	0.0011967543
240	0x3d8990d8	0.0671708
241	0xbc9990c2	-0.018745784
242	0x3c8c5ce6	0.017134141
243	0x3d0ceeb1	0.03440732
244	0xbc0b603a	-0.008506829
245	0x3d86a9c7	0.06575351
246	0x39a90e68	0.00032244925
247	0xbcd73ba3	-0.026273554
248	0xbc4e307c	-0.012584802
249	0x3d831561	0.06400562
250	0xbdb6cb88	-0.08925539
251	0xbd60e596	-0.05490645
252	0xbd8462ce	-0.06464158
253	0xbd50a93d	-0.05094265
254	0xbd7680da	-0.060181476
255	0xbd6d706a	-0.057968535

conv2.bias f4 [32]
0	0xbeb8d182	-0.36097342
1	0xbf3abf4e	-0.7294816
2	0x3d4e3aa8	0.050348908
3	0xbd2b0396	-0.041751467
4	0xbf26ecdd	-0.65205175
5	0xbe29f11b	-0.1659588
6	0xbd654d2b	-0.055981796
7	0x3caad897	0.020855231
8	0x3e1288a1	0.14309932
9	0xbe92909a	-0.28625947
10	0xbe977385	-0.29580322
11	0x3dd517ba	0.10404916
12	0x3d3abf0b	0.04559235
13	0xbeb22588	-0.3479426
14	0x3ecee49d	0.40408793
15	0x3d988cd7	0.07448738
16	0xbde9294e	-0.11384831
17	0x3d255364	0.04036273
18	0xbb414583	-0.0029490895
19	0x3d8baefc	0.06820485
20	0xbe23396a	-0.1593987
21	0x3dbd45af	0.09241807
22	0x3cf88fdf	0.03034204
23	0xbd5b41f8	-0.05352971
24	0xbdfc4454	-0.1231772
25	0xbe5cc724	-0.21560341
26	0xbdebd5b5	-0.11515371
27	0xbd607a6f	-0.05480426
28	0x3bd5a483	0.0065198555
29	0xbefd1992	-0.4943357
30	0xbe623826	-0.22091731
31	0xbe1b68a8	-0.15176642

batch1.weight f4 [32]
0	0x3f8aeac0	1.085289
1	0x3f951623	1.164738
2	0x3f8b5fd6	1.0888622
3	0x3f8ae8c6	1.0852287
4	0x3f92c368	1.1465883
5	0x3f8ca9b4	1.0989289
6	0x3f95e041	1.1709062
7	0x3f95c23c	1.1699901
8	0x3f8b9694	1.0905328
9	0x3f8b120a	1.086488
10	0x3f8f993f	1.1218642
11	0x3f7cee36	0.9880098
12	0x3f8c0e3b	1.0941843
13	0x3f8c08f7	1.0940236
14	0x3f9405a8	1.1564226
15	0x3f916338	1.1358404
16	0x3f7978af	0.97449774
17	0x3f8e92dc	1.1138568
18	0x3f7c3bf1	0.98528963
19	0x3f846a9a	1.0345032
20	0x3f87665a	1.057811
21	0x3f92577f	1.1432952
22	0x3f916038	1.1357489
23	0x3f917bf8	1.1365957
24	0x3f81063b	1.0080026
25	0x3f9b6ca5	1.2142531
26	0x3f889fe1	1.0673791
27	0x3f94e9e6	1.163388
28	0x3f8d21a9	1.1025897
29	0x3f897068	1.0737429
30	0x3f841371	1.0318433
31	0x3f973bd5	1.1815134

batch1.bias f4 [32]
0	0xbdf6df1b	-0.12054273
1	0x3e5657c5	0.20931919
2	0x3d4fb346	0.050708078
3	0xbe27100d	-0.16314717
4	0x3e266554	0.16249591
5	0xbd0c6485	-0.03427555
6	0x3df141c7	0.11780124
7	0xbc1d3e0e	-0.0095973145
8	0xbc49c393	-0.012314695
9	0x3d2f9145	0.04286315
10	0xbd7c9f49	-0.061675344
11	0x3da3a3e2	0.079902425
12	0x3daf972e	0.08573757
13	0xbe020516	-0.12697253
14	0xbba0aa9a	-0.00490315
15	0x3c5af557	0.013364158
16	0x3e3582df	0.17725705
17	0x3db13535	0.086527266
18	0x3c608eca	0.013705919
19	0x3bfa27d4	0.0076341424
20	0x3c63b9c7	0.013899273
21	0xbe2bec23	-0.16789298
22	0x3c1829ef	0.0092873415
23	0xbd50eec2	-0.051008947
24	0x3bcd2a29	0.0062611294
25	0xbda733e1	-0.08164192
26	0x3d4f6e26	0.050642155
27	0x3d8aa0e7	0.06768971
28	0x3d9b4abb	0.07582613
29	0xbd664f6d	-0.05622809
30	0xbe4e80cc	-0.2016632
31	0x3d975e39	0.073910184

batch1.running_mean f4 [32]
0	0xbe8fa1be	-0.28053087
1	0xbf52a0d4	-0.82276654
2	0x3d90cba6	0.07070093
3	0x3cc164ea	0.02360769
4	0xbef8ffd5	-0.48632684
5	0xbdf4be44	-0.11950353
6	0x3d0e8cd5	0.034802277
7	0x3ddc9265	0.1077011
8	0x3e3cb4d3	0.18428354
9	0xbebd79f3	-0.37007102
10	0xbecf7cf9	-0.40525034
11	0x3c86be5e	0.016448196
12	0xbd349fcf	-0.044097718
13	0xbe5f2add	-0.21793695
14	0x3f0b697b	0.54457825
15	0xbc943901	-0.018093588
16	0xbe268736	-0.16262516
17	0xbd3881f6	-0.045045815
18	0x3be51eda	0.006992203
19	0xbcc0864b	-0.023501536
20	0xbea5f4ee	-0.3241343
21	0x3d4d9e3d	0.050199736
22	0xbe2d1d8b	-0.16905801
23	0xbd2f3240	-0.04277253
24	0xbdca7d1e	-0.098871455
25	0xbdf00c42	-0.11721088
26	0xbb1a6ffc	-0.0023565283
27	0xbdb89606	-0.0901299
28	0x3d905d73	0.07049074
29	0xbefa9b99	-0.48946837
30	0xbe7a5aac	-0.24448651
31	0xbd882916	-0.066484615

batch1.running_var f4 [32]
0	0x3782212e	1.5512658e-05
1	0x369cacc4	4.669275e-06
2	0x3774150d	1.4548435e-05
3	0x36dacb84	6.5205986e-06
4	0x382eb952	4.1657426e-05
5	0x37c31364	2.3254841e-05
6	0x37392d08	1.1037344e-05
7	0x3731e5f3	1.0603561e-05
8	0x36516c75	3.1206557e-06
9	0x383945d0	4.4172455e-05
10	0x379cb7a5	1.8682165e-05
11	0x372ae742	1.01866335e-05
12	0x373295ac	1.0644475e-05
13	0x3804a18f	3.1621716e-05
14	0x38074c37	3.225749e-05
15	0x36f921ad	7.4246987e-06
16	0x37a060d7	1.911858e-05
17	0x370b1b20	8.291361e-06
18	0x3747a309	1.1899284e-05
19	0x37f6918b	2.9393259e-05
20	0x37f36dac	2.9018927e-05
21	0x3799fe13	1.8357334e-05
22	0x37d8db73	2.5851396e-05
23	0x37690e3f	1.3891199e-05
24	0x36927569	4.3648074e-06
25	0x377320b7	1.4491546e-05
26	0x3856e060	5.123054e-05
27	0x377c5082	1.5039115e-05
28	0x374917b9	1.1986057e-05
29	0x378cf815	1.6804823e-05
30	0x37a34432	1.946287e-05
31	0x3734400c	1.0743748e-05

conv3.weight f4 [32, 32, 5]
0	0xbdf17606	-0.11790089
1	0xbc228d45	-0.009921377
2	0xbd99454e	-0.07483922
3	0xbda2fe43	-0.07958653
4	0x3cb8d004	0.022560127
5	0xbdb248df	-0.08705305
6	0xbc9cf1e0	-0.019158304
7	0xbe0919d3	-0.13388757
8	0xbdd3700c	-0.103241056
9	0xbe03cf4c	-0.12872046
10	0xbc1189ef	-0.008882984
11	0x3da2901c	0.07937643
12	0x3d50ce4f	0.050978
13	0xbd1147bf	-0.035468813
14	0x3c7c1446	0.015385693
15	0xbdb4f3f1	-0.08835591
16	0xbc5392a6	-0.012913382
17	0x3e10a21b	0.14124338
18	0x3dd64278	0.10461897
19	0x3dd2da29	0.10295517
20	0xbe4bd656	-0.19905981
21	0xbe5d8ef0	-0.21636558
22	0xbe19f86c	-0.15036172
23	0xbdf5c4b8	-0.12000412
24	0xbd8b6719	-0.06806774
25	0xbdf77ebf	-0.12084722
26	0x3c507e3c	0.012725409
27	0xbdf8a95a	-0.12141676
28	0x3d27cf79	0.040969346
29	0xbdccd876	-0.10002224
30	0xbdd66c1a	-0.104698375
31	0x3cb47e31	0.022032829
32	0xbd7dbda3	-0.06194843
33	0xbdada54d	-0.08478794
34	0x3cffb39a	0.03121357
35	0xbd8714d1	-0.06595767
36	0xbdd41a95	-0.103566326
37	0xbe1c7a37	-0.15280996
38	0xbe091311	-0.1338618
39	0x3cba9892	0.02277783
40	0xbe029dc7	-0.127555
41	0xbd9f82ef	-0.077886455
42	0xbe1d6c42	-0.15373328
43	0xbe0206d2	-0.12697914
44	0xbc6a42c5	-0.014298146
45	0xbdfde305	-0.12396816
46	0xbb96afa7	-0.004598576
47	0xbd839733	-0.06425323
48	0xbe22d43a	-0.1590127
49	0xbe1db85c	-0.15402359
50	0xbe0d247d	-0.1378345
51	0xbd836daa	-0.06417401
52	0xbdc7800e	-0.09741221
53	0x3c87f654	0.01659695
54	0x3bb7240d	0.0055890144
55	0x3decc8c9	0.11561734
56	0x3cf0e562	0.029406253
57	0xbc14ecf2	-0.009089695
58	0x3e03d87c	0.12875551
59	0x3d466c1a	0.048442937
60	0xbc4fc32d	-0.012680811
61	0xbde8d139	-0.11368031
62	0xbcec04a6	-0.02881081
63	0xbd2e5692	-0.04256303
64	0xbb7ce92e	-0.0038591134
65	0xbd8df467	-0.06931382
66	0xbd92c72e	-0.07166897
67	0xbda94a2d	-0.08266101
68	0xbdfb7ee4	-0.12280062
69	0xbbf52190	-0.0074808076
70	0xbe5c9ed1	-0.21544959
71	0xbe4df262	-0.20111993
72	0xbe0d01f3	-0.13770275
73	0xbd2f0f26	-0.042739056
74	0xbe1b5f78	-0.15173137
75	0xbd9441ae	-0.0723909
76	0xbd8580e0	-0.065187216
77	0xbd629aae	-0.055323295
78	0xbd880ec6	-0.06643443
79	0xbe1a7249	-0.15082659
80	0xbe30523e	-0.17218873
81	0xbe0c143f	-0.13679598
82	0xbe407d9e	-0.18797919
83	0xbde5e37c	-0.1122503
84	0xbd840aa3	-0.06447341
85	0x3cd1be43	0.02560342
86	0x3dc8cccc	0.09804687
87	0xbd3642ed	-0.04449742
88	0xbbe2da3d	-0.0069229887
89	0x3c95ab17	0.018270059
90	0xbc98a4cf	-0.018633274
91	0xbd0d5c94	-0.034512118
92	0x3d1cbd65	0.03826656
93	0xbabe98e3	-0.0014541413
94	0x3cf7e102	0.03025866
95	0xbe0234f2	-0.1271551
96	0xbe2af9c1	-0.16696836
97	0xbd5c3601	-0.05376244
98	0xbd8fa644	-0.070141345
99	0xbdabf24b	-0.08395823
100	0xbdde160f	-0.10844051
101	0xbc6d7e44	-0.014495436
102	0xbe24e8ca	-0.16104427
103	0xbddc5eab	-0.10760244
104	0xbd8de7e4	-0.06928995
105	0xbdbd820b	-0.09253319
106	0xbe14c714	-0.14529067
107	0xbe07d67e	-0.13265416
108	0xbcc65333	-0.024209594
109	0xbe17e6fc	-0.14834207
110	0xbe071d11	-0.13194682
111	0xbda3a352	-0.07990135
112	0xbe469f4f	-0.19396709
113	0xbd45e965	-0.048318285
114	0x3d9ba019	0.075988956
115	0x3c751108	0.014957674
116	0xbd1ec17e	-0.038758747
117	0xbb911d57	-0.0044285464
118	0x3e119dfe	0.14220425
119	0x3e5fd1cf	0.2185738
120	0xbdc98471	-0.09839714
121	0xbe111423	-0.14167838
122	0xbc402598	-0.011727713
123	0xbde75690	-0.11295807
124	0xbdb3105c	-0.08743355
125	0xbdb1ff40	-0.08691263
126	0xbe19216c	-0.14954156
127	0xbd6aa2d0	-0.057284176
128	0xbe3fbbbd	-0.1872396
129	0xbe407864	-0.18795925
130	0x3b8ca499	0.0042920825
131	0x3cadc668	0.021212772
132	0xbdd3e7c5	-0.10346941
133	0x3a1ce3f9	0.00059848983
134	0xbd412d95	-0.04716261
135	0xbe283b95	-0.16428979
136	0xbe5861da	-0.21131077
137	0xbe20a9c1	-0.15689756
138	0xbd885f4d	-0.06658802
139	0xbd05ce24	-0.032667294
140	0xbc51f6bb	-0.012815173
141	0xbc567985	-0.013090496
142	0xbc12bc44	-0.008956019
143	0xbdab0223	-0.08350017
144	0xbdfbae69	-0.122891255
145	0xbd78be11	-0.060728136
146	0x3d98f888	0.074692786
147	0xbd714182	-0.058900364
148	0xbcb58f6f	-0.022163121
149	0x3deed9e3	0.11662652
150	0xbd5fcb76	-0.054637395
151	0xbd6a39b5	-0.05718394
152	0xbd1b88c8	-0.03797224
153	0xbc0826a2	-0.008309992
154	0xbd24d6fb	-0.040244084
155	0xbd081f91	-0.03323323
156	0xbcc9926a	-0.024605948
157	0xbdf79832	-0.12089576
158	0xbdabfb6a	-0.08397563
159	0x3c8cf91e	0.017208632
160	0x3d4f0217	0.050539102
161	0x3d32e1ec	0.043672487
162	0x3d5afcdf	0.053463813
163	0x3e0f9ce4	0.14024693
164	0x3db2c26e	0.08728491
165	0xba54e4bf	-0.0008121244
166	0xbd515ad1	-0.051112
167	0x3b8cc77f	0.0042962427
168	0x3d4705f0	0.048589647
169	0xbd3b90c6	-0.045792364
170	0x3d2dac71	0.04240078
171	0x3e16d247	0.14728652
172	0x3dc21713	0.09477057
173	0x3d86ef10	0.06588566
174	0x3cf9714b	0.03044953
175	0x3ba397c1	0.0049924557
176	0x3e18630f	0.14881538
177	0x3df3d81a	0.119064525
178	0x3dbf087f	0.093277924
179	0x3e29bb73	0.16575412
180	0x3d9eb472	0.07749261
181	0x3e0d9ff2	0.13830546
182	0x3e02be79	0.12767972
183	0x3e0f747d	0.1400928
184	0x3ce563b6	0.028001647
185	0x3e01f1ae	0.1268985
186	0x3e0038d7	0.12521683
187	0x3d2c7e5c	0.042112693
188	0x3d5efd2b	0.05444066
189	0x3e06fecc	0.13183135
190	0x3d82d39e	0.06388019
191	0x3de69ac3	0.11259987
192	0x3c3c10ce	0.011478616
193	0x3d693951	0.056939427
194	0x3cce5aab	0.025189718
195	0x38b9f602	8.86731e-05
196	0xbd67098f	-0.0564056
197	0xbdcab7c4	-0.09898332
198	0xbe083b50	-0.13303876
199	0xbd792990	-0.060830653
200	0xbc7ce32f	-0.015435024
201	0xbdcfb69e	-0.10142253
202	0xbce0746c	-0.027399264
203	0x3c967ccc	0.018370055
204	0xbd372e8a	-0.044722117
205	0xbe07cf52	-0.1326268
206	0xbd7e2d93	-0.06205518
207	0xbde845ee	-0.11341463
208	0xbde018db	-0.10942241
209	0xbd9190b9	-0.07107682
210	0x3e00ebaa	0.12589899
211	0x3ddffaac	0.10936484
212	0x3df1539a	0.11783524
213	0x3d3db035	0.046310622
214	0x3c097ebd	0.008392033
215	0x3d0383cc	0.032108113
216	0x3e19f2eb	0.15034072
217	0x3e2bea77	0.1678866
218	0xbbaf2723	-0.0053452416
219	0x3d411c1b	0.047145944
220	0xbe22833c	-0.15870374
221	0xbe14912b	-0.14508502
222	0xbe1e427c	-0.1545505
223	0xbdfc152d	-0.123087265
224	0xbe1e63c7	-0.1546775
225	0x3e0e4ae6	0.13895759
226	0xbc7a1234	-0.015263129
227	0x3da7efe4	0.082000524
228	0x3e0ede5c	0.13952011
229	0x3d7d8832	0.061897464
230	0x3da016d6	0.078168556
231	0x3a8cfaff	0.0010755955
232	0x3e016520	0.12636232
233	0x3e1d6379	0.15369977
234	0x3d64a8ca	0.055825032
235	0xbd0e7231	-0.03477687
236	0xbb1f516a	-0.0024310001
237	0x3bb72636	0.005589272
238	0xbbce77ca	-0.006300901
239	0x3cc957cd	0.024578
240	0x3d900b5f	0.07033419
241	0x3dbb46ce	0.09144364
242	0xbc80070e	-0.015628364
243	0x3dd18969	0.10231287
244	0x3db75e43	0.08953526
245	0x3ca8661e	0.020556506
246	0x3db2078f	0.08692848
247	0x3dbff0b7	0.093720846
248	0x3d7569f0	0.059915483
249	0x3d90f191	0.07077325
250	0x3dea520d	0.11441431
251	0x3db85bec	0.09001908
252	0x3caecb6c	0.021337233
253	0x3d7110a8	0.058853775
254	0x3d8fae7e	0.070157036
255	0x3c37b4f9	0.011212581

conv3.bias f4 [32]
0	0x3d8af5ef	0.06785189
1	0x3dcdf6cd	0.10056839
2	0x3cb8d2a9	0.022561388
3	0x3d396dc9	0.045270715
4	0xbd4a2563	-0.04935206
5	0xbc28a265	-0.010292624
6	0x3e23bcb0	0.15989947
7	0xbd32598b	-0.043542426
8	0xbd548d1b	-0.05189238
9	0x3cef4c33	0.02921114
10	0x3c9ea5a1	0.019366087
11	0xbd07a429	-0.03311554
12	0xbcd7d803	-0.02634812
13	0x3cc93abf	0.024564145
14	0x3d6b33f5	0.057422597
15	0xbbb172cb	-0.0054152957
16	0xbca793a2	-0.020456139
17	0xbbee2118	-0.0072671287
18	0xbdabb4bf	-0.08384084
19	0x3de61d5e	0.1123607
20	0x3c19f46b	0.009396653
21	0xbd867c9b	-0.06566735
22	0xbc879caa	-0.016554195
23	0x3d332160	0.043733
24	0xbd95e7d4	-0.07319608
25	0x3d95f48a	0.07322033
26	0xbd7486d2	-0.059698887
27	0xb9a6b385	-0.0003179574
28	0x3d9491a3	0.072543405
29	0x3d4ad4f6	0.0495195
30	0x3db5aeed	0.08871255
31	0x3d0790b8	0.033097

batch2.weight f4 [32]
0	0x3fc0d544	1.5065084
1	0x3f5ebbb8	0.87005186
2	0x3f52e221	0.82376295
3	0x3f8cb06c	1.099134
4	0x3f24db6d	0.6439732
5	0x3f500004	0.81250024
6	0x3f75770f	0.95884794
7	0x3f80f161	1.0073663
8	0x3f98a8c5	1.1926504
9	0x3f794e23	0.9738485
10	0x3f151a91	0.5824366
11	0x3f405a21	0.75137526
12	0x3f4c665e	0.798437
13	0x3f8c03c8	1.0938654
14	0x3f4a60f2	0.79054177
15	0x3f50827b	0.814491
16	0x3f10e845	0.56604415
17	0x3f096bc0	0.5368004
18	0x3f9afe9e	1.2108953
19	0x3f5f6fb9	0.8727985
20	0x3f92f106	1.1479805
21	0x3f45a58e	0.7720574
22	0x3f4be4a2	0.7964574
23	0x3f572cd5	0.84052783
24	0x3f7fef75	0.9997476
25	0x3f7abb50	0.97942066
26	0x3f4b59fb	0.79434174
27	0x3f9e1e23	1.2352947
28	0x3f6d6425	0.92730933
29	0x3f6fac1a	0.9362198
30	0x3fd6f2d4	1.6792855
31	0x3f7d9cec	0.9906757

batch2.bias f4 [32]
0	0x3ecac293	0.39601573
1	0x3da904f7	0.082529
2	0xbe8d3f8e	-0.2758755
3	0xbd0f1cf7	-0.034939732
4	0xbe63278d	-0.22183056
5	0xbae4a408	-0.0017443905
6	0xbe0e4c95	-0.13896401
7	0x3e44f3ea	0.19233671
8	0x3e28e444	0.16493326
9	0xbd1f489c	-0.038887605
10	0xbe7cdd41	-0.24693777
11	0xbe7b101f	-0.24517868
12	0xbea70c8d	-0.32626763
13	0xbdb20c12	-0.086937085
14	0xbe0d8f97	-0.13824306
15	0x3d1f6172	0.03891129
16	0xbecfdf1c	-0.40599906
17	0xbe899ddc	-0.2687825
18	0xbe1f17e9	-0.15536465
19	0x3ce5e662	0.028063957
20	0xbe9be6c0	-0.30449486
21	0xbe441471	-0.19148423
22	0x3da68ff2	0.08132924
23	0xbe74e705	-0.23916252
24	0x3e493d71	0.19652344
25	0x3ca376db	0.019954136
26	0xbbb458a4	-0.005503731
27	0x3df374f1	0.11887539
28	0xbcd67d6b	-0.02618285
29	0xbe56591b	-0.20932429
30	0x3efbe9d3	0.4920183
31	0x3dbb0afe	0.09132956

batch2.running_mean f4 [32]
0	0xc0a19611	-5.0495687
1	0x4030c73c	2.7621603
2	0xc029d020	-2.653328
3	0xc095cc65	-4.6812005
4	0xc0a6f4ab	-5.2173667
5	0x402d66d5	2.7094014
6	0xc0585761	-3.3803332
7	0x3fe9ca83	1.8264927
8	0x408fc7ae	4.493125
9	0xc05cfdd1	-3.4529917
10	0x4009b018	2.151373
11	0x3fe7bbf3	1.8104233
12	0x408c9b3a	4.3939486
13	0xc01e9702	-2.4779668
14	0x40ae367b	5.4441504
15	0x40942eeb	4.6307273
16	0xc0330636	-2.797254
17	0xbfc771a3	-1.5581554
18	0x4093ab26	4.614642
19	0x40173844	2.3628092
20	0x407e63f3	3.9748504
21	0x3fef668e	1.8703172
22	0x404b2616	3.1741996
23	0xc06f1216	-3.7354789
24	0xc02c40c9	-2.6914542
25	0xc08b13ca	-4.3461657
26	0xc033118a	-2.7979455
27	0xc099a414	-4.801279
28	0x403ad9d2	2.9195447
29	0x40ba3cf6	5.8199415
30	0xc082468f	-4.071113
31	0x407af886	3.9214187

batch2.running_var f4 [32]
0	0x405a16c6	3.40764
1	0x40ea57d3	7.3232207
2	0x40e0af46	7.0213957
3	0x40e8386a	7.2568865
4	0x412b541a	10.708033
5	0x410bcdb1	8.737718
6	0x40af9c19	5.487805
7	0x4105df21	8.366975
8	0x4055c580	3.3401794
9	0x41140bb5	9.252858
10	0x40cbfa80	6.3743286
11	0x40c80cfa	6.251584
12	0x40815a59	4.042279
13	0x40bd8f97	5.923778
14	0x412740fb	10.453364
15	0x41247317	10.278098
16	0x40ddd8dd	6.9327226
17	0x40e881db	7.2658515
18	0x403dd87a	2.9663377
19	0x4110a705	9.040776
20	0x404e0318	3.2189388
21	0x40a73ea5	5.226397
22	0x410ee28f	8.930312
23	0x411881c0	9.531677
24	0x41126575	9.14977
25	0x411060d8	9.0236435
26	0x41012417	8.071311
27	0x408c9c98	4.3941154
28	0x40f09a72	7.518853
29	0x40b87d9f	5.7653346
30	0x4077b944	3.8706827
31	0x40ff462f	7.9773173

fc1.weight f4 [50, 3136]
0	0x3d081e3c	0.03323196
1	0x3d95d5d3	0.07316174
2	0x3d998382	0.07495786
3	0x3d8fa4e6	0.07013874
4	0xbca5f567	-0.020258619
5	0xbdd9d9f0	-0.106372714
6	0xbd753b72	-0.059871145
7	0x3c1d0aa3	0.0095850555
8	0xbd056296	-0.032564722
9	0xbd92008a	-0.07129009
10	0xbd596bc2	-0.05308128
11	0xbd8bcd65	-0.06826285
12	0xbe090c3e	-0.13383576
13	0xbe08340c	-0.13301104
14	0xbd78164d	-0.060568143
15	0xbcb17380	-0.02166152
16	0x3c7bb97d	0.015364048
17	0xbcc4cb27	-0.024022652
18	0xbd56853b	-0.052373152
19	0xbdafbfea	-0.085815266
20	0xbddc34d0	-0.10752261
21	0xbdf04b61	-0.117331274
22	0xbd8c490b	-0.06849869
23	0x3a159cda	0.00057072716
24	0x3d85f2c7	0.06540447
25	0x3d965faf	0.07342469
26	0x3d7799cf	0.060449418
27	0x3d2740d0	0.040833294
28	0xba4607a6	-0.00075542403
29	0x3c86e2dd	0.016465599
30	0x3c92fdbc	0.017943256
31	0x3d0ae650	0.03391105
32	0xbcb8a80d	-0.02254107
33	0xbd8c2dc0	-0.068446636
34	0xbdd76ec4	-0.10519174
35	0xbe51f019	-0.20501746
36	0xbe56710c	-0.20941561
37	0xbe1d3d8e	-0.15355512
38	0xbbabc25f	-0.0052416767
39	0x3c9d30d2	0.019188318
40	0x3d8c7ff8	0.068603456
41	0x3d8856af	0.066571586
42	0x3dda69a6	0.10664682
43	0x3d9b14ed	0.07572351
44	0x3a2e557f	0.0006650313
45	0x3c49656f	0.01229225
46	0x3cec1802	0.028820042
47	0x3c489f88	0.012245066
48	0x3b4aa060	0.0030918345
49	0xbd2f3078	-0.042770833
50	0xbdcfd459	-0.10147924
51	0xbd095111	-0.033524577
52	0x3d036f4c	0.032088563
53	0x3e0fe1e1	0.1405101
54	0x3df2cdda	0.11855669
55	0x3e014445	0.12623699
56	0x3d7903af	0.06079453
57	0x3dc3b0a8	0.09555179
58	0x3d5469d3	0.051858734
59	0xba91a68f	-0.001111226
60	0xbc9e930d	-0.019357229
61	0x3d2f1891	0.042748038
62	0xbc420541	-0.011842073
63	0xbd4844c3	-0.0488937
64	0xbddb35aa	-0.10703595
65	0xbe370646	-0.17873487
66	0xbe4592eb	-0.19294326
67	0xbdfba82d	-0.12287936
68	0xbcbf00b8	-0.023315772
69	0xbd164051	-0.03668243
70	0xbdb13abb	-0.0865378
71	0xbda4da09	-0.080493994
72	0xbd8727cb	-0.06599387
73	0xbdb7cc5a	-0.08974524
74	0xbdc62aec	-0.096761554
75	0xbdb5767e	-0.08860491
76	0xbdb2624f	-0.08710157
77	0xbdcd90ed	-0.10037408
78	0xbda04998	-0.07826537
79	0xbd430aad	-0.047617603
80	0xbc824d14	-0.015905894
81	0xbbbc2dec	-0.005742779
82	0x3c8b4f23	0.017005509
83	0xbcaac463	-0.020845598
84	0xbd8f08a2	-0.069840685
85	0xbd6535a2	-0.05595935
86	0xbd35efca	-0.044418134
87	0xbde1af5e	-0.11019777
88	0xbdeccfa9	-0.115630455
89	0xbd7bf677	-0.061514344
90	0xbd737e8c	-0.059446856
91	0xbd9b44bc	-0.075814694
92	0xbd800ee3	-0.062528394
93	0xbd715f7c	-0.05892895
94	0x3c469112	0.012119548
95	0x3d6f77a0	0.058463693
96	0x3cc4d761	0.024028482
97	0x3ca9d139	0.020729648
98	0xbe4b60a5	-0.19861086
99	0xbe4ec255	-0.2019132
100	0xbe0aaa68	-0.13541567
101	0xbd5d7acb	-0.054072183
102	0xbbf0e7da	-0.0073518576
103	0xbdb02ac7	-0.08601909
104	0xbe6da067	-0.2320572
105	0xbea7c4c8	-0.3276732
106	0xbe7d671d	-0.24746366
107	0xbe163f5a	-0.14672604
108	0xbd497903	-0.04918767
109	0xbca38b15	-0.01996378
110	0x3c921b35	0.017835239
111	0xbc6b7917	-0.014372132
112	0xbce0b259	-0.027428793
113	0xbd6ac0e5	-0.057312865
114	0xbcd6169b	-0.026133826
115	0xbda58998	-0.080828846
116	0xbe2d8b83	-0.16947751
117	0xbdd4d9ee	-0.10393129
118	0xbd3e325f	-0.046434756
119	0xbdc4ade1	-0.09603477
120	0xbe05f323	-0.1308103
121	0xbe235ae5	-0.15952642
122	0xbd8acebc	-0.06777713
123	0x3c90a336	0.01765595
124	0x3d2eb8db	0.04265676
125	0x3d57301d	0.05253612
126	0x3d9642bb	0.073369466
127	0xbce6c015	-0.028167764
128	0xbe55f62a	-0.20894685
129	0xbe66cf78	-0.2254008
130	0xbe25816f	-0.16162656
131	0xbdf35592	-0.118815556
132	0xbdcf6cfc	-0.10128209
133	0x3d70dbc2	0.058803327
134	0x3c8422ab	0.016129812
135	0xbd7252a0	-0.05916083
136	0xbcc8f531	-0.024530979
137	0xbb9a1509	-0.0047022146
138	0x3d49d285	0.049273033
139	0x3db48525	0.08814458
140	0x3ccc537d	0.024942154
141	0x3d11fccf	0.035641488
142	0xbdcbcf88	-0.09951693
143	0xbe161581	-0.1465664
144	0xbe0aa1e3	-0.13538317
145	0xbdea1a81	-0.114308365
146	0xbdde232d	-0.10846553
147	0x3d6f8766	0.058478735
148	0x3d102b0e	0.03519731
149	0xba8e41bd	-0.0010853332
150	0xbdcee7bc	-0.101027936
151	0xbe8512b4	-0.25990832
152	0xbe90fc41	-0.28317454
153	0xbe8b153a	-0.27164632
154	0xbe259aaf	-0.16172288
155	0xbde96d2a	-0.113977745
156	0xbd3b87eb	-0.04578392
157	0x3cad2475	0.021135548
158	0x3d505106	0.05085852
159	0x3bc89f8c	0.006122535
160	0xbcf3f668	-0.029780582
161	0x3d2611ab	0.040544193
162	0x3dd5bf45	0.104368724
163	0x3d942d8d	0.072352506
164	0x3c6588e8	0.014009692
165	0xbd823258	-0.063572586
166	0xbd3f54f7	-0.04671189
167	0xbd61221b	-0.054964166
168	0xbcf1ee3c	-0.029532544
169	0xbbfb7d68	-0.0076748617
170	0xbdb33dce	-0.08752023
171	0xbda49935	-0.080370344
172	0xbd7f50fc	-0.062333092
173	0xbd30c250	-0.04315406
174	0xbc2d360f	-0.010571971
175	0x3be298eb	0.006915202
176	0xbd327202	-0.043565758
177	0xbd87039f	-0.065924875
178	0xbcd5e861	-0.026111783
179	0xbddc9e84	-0.10772422
180	0xbe71c8c5	-0.23611744
181	0xbe85313a	-0.2601412
182	0xbe04e190	-0.1297667
183	0xbcdfcbfa	-0.027318943
184	0x3d752984	0.059854046
185	0x3df9eb5f	0.122030966
186	0x3bce16f8	0.006289359
187	0xbcab4ad1	-0.020909699
188	0xbd9e6929	-0.077349015
189	0xbddc6911	-0.10762227
190	0xbdd16c72	-0.102257624
191	0xbcaf988b	-0.021435043
192	0xbcd224de	-0.025652345
193	0xbd912f25	-0.0708907
194	0xbda293a3	-0.07938316
195	0xbd94dd4d	-0.07268772
196	0x3e2dd933	0.16977386
197	0x3eb62813	0.3557745
198	0x3e4130fb	0.18866341
199	0x3e14932b	0.14509265
200	0x3e0e80cd	0.13916321
201	0x3e6d3cda	0.23167744
202	0x3e9de01a	0.30835038
203	0x3e98a12d	0.29810467
204	0x3e98f154	0.2987162
205	0x3e8260e9	0.25464562
206	0x3e74a544	0.23891169
207	0x3e8b5633	0.27214202
208	0x3e313643	0.17305855
209	0x3e1f56d2	0.15560463
210	0x3e2c2a81	0.16813089
211	0x3e13f97b	0.14450638
212	0x3dcabb43	0.098989986
213	0x3d613fb0	0.054992378
214	0x3cdbc794	0.026828565
215	0x3d5ed72a	0.054404415
216	0xbc0e11aa	-0.008671204
217	0xbda4fe01	-0.0805626
218	0xbdf010c2	-0.11721946
219	0xbac422c8	-0.0014963979
220	0x3e004736	0.12527165
221	0x3df5f929	0.12010414
222	0x3e148117	0.14502369
223	0x3e4ea03f	0.20178317
224	0x3e4b09e4	0.19827992
225	0x3e2c096b	0.16800468
226	0x3e3e30d1	0.1857331
227	0x3e2bfde4	0.1679607
228	0x3e0f24d5	0.13978894
229	0x3ddbe532	0.10737075
230	0x3df23eb9	0.1182837
231	0x3e329569	0.17439808
232	0x3e50ddde	0.20397136
233	0x3e42606d	0.18982096
234	0x3e14f287	0.14545642
235	0x3e051545	0.12996395
236	0x3d9c8c3a	0.076439336
237	0x3dc002be	0.09375523
238	0x3d86574c	0.06559619
239	0x3dc20c23	0.09474971
240	0x3e01c936	0.12674412
241	0x3e3903ad	0.18067808
242	0x3e849a97	0.25899193
243	0x3e95e92c	0.2927946
244	0x3e9005a1	0.28129295
245	0x3e7646c8	0.24050438
246	0x3e1f9370	0.15583587
247	0x3deb577c	0.11491296
248	0x3dc42194	0.09576717
249	0x3de8924b	0.11356028
250	0x3dd87c00	0.10570526
251	0x3e654062	0.22387841
252	0x3e915d99	0.28391722
253	0x3ead08ec	0.3379587
254	0x3e93f4b3	0.28897628
255	0x3e81fbe4	0.2538749

fc1.bias f4 [50]
0	0xbc1f1c57	-0.009711347
1	0x3c525384	0.0128372945
2	0x3c2aacbd	0.010417161
3	0xbd4ff4e5	-0.05077066
4	0xbd2215af	-0.03957146
5	0x3cc1ec08	0.023672119
6	0xbcaa3b0b	-0.020780107
7	0xbb1d359d	-0.0023988255
8	0x3d110255	0.035402615
9	0xbc738572	-0.014863359
10	0xbc6d1c1e	-0.014472036
11	0xbb0bf5e3	-0.0021356277
12	0x3c5515a4	0.013005648
13	0xbc8e297d	-0.017353768
14	0xbc38c358	-0.011277042
15	0xbb90bed2	-0.004417279
16	0xbd52361b	-0.05132113
17	0x3c3556e5	0.011068081
18	0xbb89f19e	-0.004209711
19	0xbccf777e	-0.025325533
20	0x3c827a8f	0.015927581
21	0xbc295749	-0.010335752
22	0xbd29d572	-0.041463323
23	0xbbf14442	-0.0073628733
24	0xbc077e65	-0.008269881
25	0x3cf67066	0.030082893
26	0x3c3bc7c6	0.011461204
27	0x3caa8420	0.020814955
28	0xbd018ab7	-0.03162643
29	0x3d529dc3	0.051419985
30	0x3d01324d	0.03154211
31	0x3d7508ea	0.059822954
32	0x3c96ab79	0.018392311
33	0x3be92966	0.007115531
34	0xbba07bb0	-0.004897557
35	0xbd319be5	-0.043361563
36	0xbd00eabc	-0.03147386
37	0xbb88976f	-0.004168443
38	0x3cba162d	0.022715652
39	0x3d4ce368	0.05002156
40	0x3c3038a2	0.01075569
41	0x3ad809cd	0.0016482413
42	0x3b83e38e	0.0040249294
43	0xbccb6f08	-0.024833217
44	0x3bb66f82	0.005567492
45	0x3a090aaf	0.0005227727
46	0x3b0484fc	0.0020220866
47	0x3cc0345a	0.023462463
48	0x3ba4abe7	0.005025375
49	0x3c7fbf55	0.015609582
