DOMAIN_ADAPTION/C1_C2_experiments/experiments_full_mmd/D:I_ist_X/feature=D:I_ist_X_GAMMA=0.05_GAMMA_reduction1.0_num_pool=2_[True, True, False, True, True, True]_exp_3/best_model/model_fc.pt (torch, 2207 bytes, 4 tensors)

fc2.weight f4 [3, 50]
00000000: 0982 d53e 3068 32bb aa14 173d 3d0d d63d
00000010: e25e a6be b7be b83e e6da 8d3e 389e 4ebe
00000020: d80e 80be e388 f7bd 9954 e2be 83b0 d1bd
00000030: 396b 29be 54ab d33d 875c b43e 6005 483e
00000040: f20f ac3e 36ca 923e b058 333e 1986 a6be
00000050: 03f1 8abe b77a c03e 33cf 32be 832a b23e
00000060: 7da2 38be be39 883e 43fa 2d3d 0fae b1be
00000070: c899 c53e 7f84 ce3c 0608 9cbe 2ede b23e
00000080: dc30 b23d 10e9 ca3e b3bd 813e 85a1 9dbd
00000090: f920 813e 140f 3dbe ec89 d3be d976 6fbe
000000a0: 66e5 a33e cacb 3d3e 0982 a0be 4a0d 4bbc
000000b0: ff52 ac3e 0084 a0be b37d dc3e 3a1b c63e
000000c0: 53c2 2c3d 6f0e 3ebe 484f febe baa9 0c3e
000000d0: a7ec 723e c655 4a3b a2f6 5c3e ffab b6be
000000e0: f519 a6be 2689 713e da77 3c3e 330b 393e
000000f0: 0b80 ef3e 4d0b c6bd 9697 923a af3e 29bd
00000100: 634f c4be 0000 94be 4d22 85be 627e bcbe
00000110: e2b6 00bd 4686 2d3e e4cd 6c3e d3e7 90be
00000120: d3fe a43e c20e a8be ac14 923e cdc0 a9be
00000130: 7a5c 5cbd 2857 7b3e feef d6be 0e10 dbbd
00000140: e2db 0e3e 040c bfbe c95f 7bbe bbea cbbe
00000150: 2d34 1bbe 15ef 0e3e 8650 d1be 2950 1bbd
00000160: 285b 9f3e 82fc 823d 1786 adbe 87cc 5abd
00000170: 32fc 523e 6cbb 303d 4611 98be e01e a23e
00000180: 1afa e4be b580 9dbe 4d1b 1c3e b39e 873d
00000190: caeb 74be 32a3 013e 0f18 033e 32a1 76bd
000001a0: e247 5e3e 4d01 c2be 321c 83be a26b 593d
000001b0: 3197 793e b6e7 843d b1e6 6b3e eeba ab3d
000001c0: 8cc9 da3d d1eb 9dbc a241 6dbe db0c 7cbe
000001d0: 2c19 a9be f758 01be 4bd2 24be c267 113e
000001e0: e906 9a3e 76fe 7dbe 00c5 703d 9ecc 93be
000001f0: 63be 903d 5c47 30be f311 03be e641 5b3e
00000200: 46ac 96be 28eb b63d 6847 3d3d 8acb b6be
00000210: 6076 c0bd 7696 96be 9bd5 88be 9656 8fbd
00000220: a18b 0bbe f1bd 073e 4745 453e ecaf 143e
00000230: 9d44 b9bd ce7a 44be 974e 573d d458 ddbd
00000240: a632 8cbd c0dd 8c3e 86a1 87be d387 9bbe
00000250: 35af 103e 830f ec3d
0.4170077 -0.0027222745 0.03688494 0.10451744 -0.32494265 0.36083004 0.2770607 -0.20177543
-0.25011325 -0.12086656 -0.44205168 -0.10238745 -0.16544808 0.103354126 0.35226843 0.195333
0.33605915 0.286699 0.175143 -0.32524183 -0.27137002 0.37593624 -0.17461853 0.3479806
-0.18030734 0.26606554 0.042474996 -0.3470311 0.38593888 0.025209663 -0.3047487 0.34935135
0.087007254 0.39630938 0.25340042 -0.07696823 0.2522047 -0.18462783 -0.41316164 -0.2338518
0.32010955 0.1853477 -0.3134921 -0.012393305 0.3365707 -0.31350708 0.4306465 0.38692647
0.04217751 -0.18560193 -0.49669862 0.1373662 0.23723088 0.003087388 0.21578458 -0.35678098
-0.3244168 0.23587474 0.18405095 0.18070678 0.46777377 -0.09670124 0.0011184092 -0.041319545
-0.38341817 -0.2890625 -0.26002732 -0.36815172 -0.03142441 0.16945753 0.23125416 -0.28301868
0.32225665 -0.3282376 0.28531396 -0.33154908 -0.05379913 0.24544966 -0.41979975 -0.106964216
0.13951066 -0.37313855 -0.24548258 -0.39827523 -0.15156622 0.1395839 -0.40881747 -0.037918244
0.31124234 0.06395818 -0.33891365 -0.05341771 0.20604017 0.04314749 -0.2970068 0.3166418
-0.44722062 -0.30762258 0.1524479 0.06622066 -0.23918071 0.1265991 0.12802146 -0.06021232
0.21707109 -0.37891617 -0.2560745 0.053081162 0.24374081 0.06489508 0.2303722 0.083852634
0.10682973 -0.019277485 -0.23169568 -0.24614279 -0.33027017 -0.12631594 -0.16095845 0.14199737
0.30083397 -0.248041 0.058781624 -0.28867048 0.070675634 -0.17214721 -0.12799816 0.21411857
-0.2942831 0.08931571 0.046210676 -0.35702163 -0.09397578 -0.29411668 -0.26725468 -0.06998937
-0.13627483 0.1325605 0.19264708 0.14520234 -0.0904629 -0.19187471 0.052565183 -0.10807958
-0.06845598 0.27512932 -0.2649042 -0.30377063 0.14129336 0.11526396

fc2.bias f4 [3]
00000000: 9088 1ebe 54ed 98bc 3353 273e
-0.15481782 -0.018667854 0.16340332

fc3.weight f4 [2, 3]
00000000: b585 c0be 6e21 4f3f de90 1d3e 1e04 be3e
00000010: e53e 123e 5fd5 6ebe
-0.3760201 0.80910385 0.15387294 0.37112516 0.14281805 -0.23323582

fc3.bias f4 [2]
00000000: 2f7e d2bc 9087 0b3d
-0.025694935 0.03406483
